result/dee_phage/1200_1800/fold_1/20250501-101432/1800_0.0001_32_model.pt (torch, 31505 bytes, 13 tensors)

conv.weight f4 [64, 4, 6]
0	0xbe37ac82	-0.179369
1	0x3d9cc237	0.07654231
2	0xbd02ddd4	-0.031949833
3	0xbab0ff8f	-0.0013503897
4	0xbd80980d	-0.062790014
5	0xbe9a7fdd	-0.30175677
6	0xbec1e28c	-0.37868154
7	0xbe936198	-0.28785396
8	0x3de97ff4	0.11401358
9	0xbc68c9e6	-0.014208293
10	0xbcaac3a5	-0.020845244
11	0x3e084bef	0.13310216
12	0xbe7fa679	-0.24965848
13	0x3b8d7b1c	0.0043176543
14	0xbdb41e56	-0.087948486
15	0x3e436b64	0.19083935
16	0xbd828921	-0.063738115
17	0xbc2f6ea4	-0.010707531
18	0xbd411e02	-0.04714776
19	0xbe65c2fc	-0.22437662
20	0x3dac1669	0.08402712
21	0xbda1114c	-0.07864627
22	0xbdfbae71	-0.122891314
23	0x3dace9f2	0.08443059
24	0x3e17d076	0.14825615
25	0xbd4cb8f7	-0.049981084
26	0xbd84a2c1	-0.06476355
27	0x3c57d8e4	0.013174269
28	0xbc254945	-0.01008827
29	0x3dda48cc	0.10658416
30	0x3d8b6dd6	0.06808059
31	0xbe6290a6	-0.22125491
32	0x3e355ac6	0.17710409
33	0xbdbbe248	-0.09174019
34	0xbe2d7d54	-0.1694234
35	0xbda1330e	-0.07871066
36	0xbcb4e018	-0.022079512
37	0x3e47ceb5	0.19512446
38	0xbe2ef390	-0.17085099
39	0xbd92e969	-0.07173426
40	0xbe3062b2	-0.1722515
41	0x3dce5d91	0.1007644
42	0xbd329a59	-0.04360423
43	0xbedd7002	-0.43249518
44	0xbb8f98f6	-0.004382248
45	0x3cc2c92c	0.023777567
46	0xbd9428a3	-0.07234313
47	0xbd8fca6b	-0.0702103
48	0x3e0b49a0	0.13602304
49	0xbb5900c2	-0.0033112024
50	0x3dd631a8	0.1045869
51	0xbeb270d3	-0.34851703
52	0xbdd1c727	-0.102430634
53	0x3de70c2e	0.1128162
54	0xbe0ef5d4	-0.13960963
55	0x3e3b1154	0.18268329
56	0xbcf4172d	-0.029796207
57	0x3e75e319	0.24012412
58	0xbbb290c4	-0.0054493863
59	0xbe63117b	-0.22174637
60	0x3e206c0a	0.15666214
61	0xba18dd46	-0.0005831312
62	0x3c976c3e	0.018484231
63	0x3d82f7c6	0.06394915
64	0xbec70de2	-0.3887778
65	0xbdb7f910	-0.08983052
66	0xbe886a1f	-0.26643464
67	0x3db7fd56	0.08983867
68	0xbc24ece2	-0.010066243
69	0x3e007390	0.12544084
70	0xbe1ea437	-0.1549233
71	0xbddb70af	-0.10714852
72	0x3db10b63	0.0864475
73	0xbd891143	-0.066927455
74	0xbd1d26fd	-0.03836726
75	0x3e2ea455	0.17054875
76	0xbd9ac4f1	-0.07557095
77	0xbd88ca60	-0.06679225
78	0x3e19df15	0.15026505
79	0x3e0d1b47	0.13779937
80	0xbcb3e857	-0.021961374
81	0xbe9bc15a	-0.30420953
82	0x3d839e39	0.06426663
83	0xbdb858b2	-0.09001292
84	0xbea12979	-0.31476954
85	0xbe6be2bf	-0.23035716
86	0x3e1f1f30	0.15539241
87	0xbed5021f	-0.4160318
88	0x3dc9a778	0.09846395
89	0x3c8c2966	0.017109584
90	0x3e7ee38a	0.24891487
91	0xbe743419	-0.23847999
92	0x3da053c0	0.07828474
93	0xbd227d91	-0.03967053
94	0xbd394876	-0.04523512
95	0xbdc64044	-0.096802264
96	0xbea9f1b8	-0.3319223
97	0x3df77e1b	0.120845996
98	0x3d018304	0.031619087
99	0xbebc975e	-0.36834234
100	0xbe46c5db	-0.19411413
101	0xbd4b1fd5	-0.049590904
102	0x3d9831b4	0.07431355
103	0xbd5c0fcb	-0.053726
104	0xbe1135bb	-0.14180653
105	0x3d9d4c07	0.07680517
106	0x3c6f86c9	0.014619538
107	0xbde08447	-0.1096273
108	0x3dd3a2c7	0.10333782
109	0x3df8e114	0.12152305
110	0xbe793a84	-0.24338728
111	0xbdc414a8	-0.09574252
112	0x3d1d283f	0.03836846
113	0xbd94228d	-0.072331525
114	0xbe01528a	-0.12629142
115	0xbe24f875	-0.16110404
116	0x39014bee	0.00012330685
117	0x3da51564	0.080607206
118	0xbeb0d9b5	-0.34541097
119	0xbde8a5e6	-0.113597676
120	0x3d3eef9c	0.046615228
121	0xbdad1c64	-0.08452681
122	0xbcde2f23	-0.027122086
123	0x3d5e4d00	0.05427265
124	0x3e13afd2	0.14422539
125	0xbd326767	-0.043555643
126	0xbe4a6a95	-0.1976722
127	0xbe4d6092	-0.2005637
128	0x3aa77eda	0.0012778894
129	0xbc556dd4	-0.013026673
130	0xbe88be8b	-0.26707873
131	0xbcf98039	-0.03045665
132	0xbe5b43a8	-0.21412528
133	0xbea8c9c8	-0.32966447
134	0xbd5227e3	-0.05130757
135	0x3d9c8c07	0.076438956
136	0xbd017e65	-0.03161468
137	0xbe252099	-0.16125716
138	0xbe28edbe	-0.16496941
139	0x3dd4c4fe	0.10389136
140	0xbd035c9e	-0.03207075
141	0x3d1b9bcd	0.03799038
142	0xbd0579b2	-0.03258676
143	0x3e82b727	0.2553036
144	0xbe4523a7	-0.19251882
145	0xbc9dfd9d	-0.019285971
146	0x3d43e3c4	0.047824636
147	0xbdb8b2ed	-0.090185024
148	0xbe43e1f8	-0.19129169
149	0xbd712242	-0.05887056
150	0xbc454f24	-0.012042794
151	0x3dc015ea	0.0937918
152	0x3e0bba43	0.13645272
153	0x3dec53a2	0.11539389
154	0xbe0308d1	-0.12796332
155	0x3e5166e5	0.20449407
156	0xbe3838fb	-0.17990486
157	0xbd016e8a	-0.03159956
158	0x3d701bcf	0.05862027
159	0xbe060b83	-0.13090329
160	0xbea8d659	-0.32976034
161	0xbd826f3b	-0.06368872
162	0xbce404a2	-0.02783424
163	0x3cf57ac1	0.02996576
164	0x3d1fb803	0.038993847
165	0xbe233e19	-0.15941657
166	0x3e040c99	0.1289543
167	0xbe0fc2a2	-0.1403909
168	0xbd28020d	-0.04101758
169	0xbdac71f6	-0.08420174
170	0xbe3825ec	-0.17983216
171	0x3dbfc058	0.093628585
172	0xbe91262a	-0.2834943
173	0x3e1c6e52	0.15276459
174	0x3d3a6bc7	0.04551294
175	0xbe47f94e	-0.19528696
176	0xbde8c8c1	-0.11366416
177	0xbe07f614	-0.13277465
178	0x3db2967e	0.0872011
179	0xbe61faf8	-0.22068393
180	0x3cfd216e	0.03089973
181	0xbbd17b6f	-0.0063928883
182	0xbd501c17	-0.05080804
183	0xbd8b0c56	-0.06789462
184	0xbd75a5bb	-0.059972506
185	0x3e10ab6f	0.14127897
186	0x3cf80fa6	0.0302809
187	0xbc26ac84	-0.010172967
188	0xbd6c9684	-0.05776073
189	0xbc75625c	-0.014977064
190	0xbe6e8bc4	-0.23295504
191	0xbe77c81e	-0.24197432
192	0x3d3ab52c	0.045582935
193	0x3ca1d9ed	0.019757235
194	0x3e245d76	0.16051278
195	0xbda06c86	-0.07833199
196	0xbe2257c3	-0.15853791
197	0x3de8a46e	0.113594875
198	0x3deae53f	0.114695065
199	0xbdb8fb37	-0.090322904
200	0xbdc3063e	-0.09522675
201	0x3dd1bb95	0.102408566
202	0xbda760b1	-0.08172739
203	0xbd1defd3	-0.038558792
204	0xbe428cb5	-0.18998988
205	0xbe56388d	-0.2092001
206	0xbe8d06df	-0.27544305
207	0x3c95245a	0.01820581
208	0x3dcf4ebb	0.101224385
209	0x3dff88cf	0.12477266
210	0xbe13ae04	-0.1442185
211	0xbdf4f369	-0.11960489
212	0x3e3d9838	0.18515098
213	0xbcb414bc	-0.021982543
214	0xbe4a4f28	-0.19756758
215	0xbe8c2b91	-0.2737699
216	0xbd3f0d0e	-0.04664331
217	0x3d93de9a	0.07220192
218	0xbd13d79f	-0.036094304
219	0x3e24a212	0.1607745
220	0xbcfc8ff2	-0.030830357
221	0x3da0bc60	0.0784843
222	0xbe52a166	-0.20569381
223	0x3d55c24b	0.052187245
224	0xbdfea3c3	-0.12433579
225	0xbc231d78	-0.009955756
226	0xbbbd7214	-0.0057814214
227	0x3e0f1968	0.13974535
228	0x3cea5d42	0.028608922
229	0xbea46096	-0.3210494
230	0x3e162660	0.14663076
231	0xbde71ddb	-0.11284991
232	0x3dfcdf45	0.12347273
233	0xbebbed9b	-0.36704716
234	0x3d85c8b4	0.06532422
235	0xbe657b14	-0.22410232
236	0x3dd9c4ba	0.10633226
237	0xbde8c414	-0.11365524
238	0x3e471da4	0.19444901
239	0xbd43e336	-0.047824107
240	0x3dab122b	0.08353075
241	0xbe7dc687	-0.24782763
242	0x3e11dcb2	0.14244345
243	0x3dd4f4dd	0.103982665
244	0xbe91549a	-0.28384858
245	0xbc8ebef6	-0.017425042
246	0xbdd466b7	-0.10371154
247	0xbdb32846	-0.08747916
248	0xbea743e7	-0.32668993
249	0x3de43b02	0.11144067
250	0x3d8939d0	0.0670048
251	0xbd99e7be	-0.075149044
252	0x3d29aa31	0.041422073
253	0x3d1cc94c	0.03827791
254	0x3df74497	0.12073629
255	0x3e231115	0.15924485

conv.bias f4 [64]
0	0x3d855c08	0.06511694
1	0xbd5966c0	-0.053076506
2	0xbe54e37f	-0.20789908
3	0xbe4b0669	-0.19826664
4	0x3dda7fd2	0.10668911
5	0xbe6f9702	-0.23397449
6	0xbe66efb5	-0.22552378
7	0x3d20de56	0.039274536
8	0x3d737c98	0.059444994
9	0xbe2139f7	-0.15744768
10	0xbe4475ba	-0.19185534
11	0xbe677f79	-0.2260722
12	0xbe454d47	-0.1926776
13	0x3d5e412a	0.054261364
14	0xbe945237	-0.28968975
15	0xbe41b1cf	-0.18915485
16	0x3dfae601	0.12250901
17	0xbe01fce0	-0.1269412
18	0xbe16f307	-0.14741145
19	0xbe59fea2	-0.21288541
20	0xbe2a41fc	-0.16626734
21	0xbda2e077	-0.079529695
22	0xbe612acf	-0.21988986
23	0x3ed5cdf6	0.41758698
24	0xbe3127b1	-0.17300297
25	0xbe09903f	-0.13433932
26	0xbe546675	-0.2074221
27	0xbe0558b6	-0.13022122
28	0xbde54ca3	-0.11196258
29	0xbdc13359	-0.09433622
30	0x3cfd881e	0.030948695
31	0xbd825885	-0.0636454
32	0x3d2e151f	0.04250061
33	0x3d9384f4	0.07203093
34	0xbe3baeec	-0.18328446
35	0x3d234e57	0.039869633
36	0x3d102883	0.035194885
37	0xbe6d4ee2	-0.23174623
38	0xbe930863	-0.28717336
39	0x3d480512	0.04883296
40	0x3df1092b	0.11769327
41	0x3da84698	0.0821659
42	0xbe489038	-0.19586265
43	0xbe8f7796	-0.28020924
44	0xbd9cf5a3	-0.07664039
45	0x3db09010	0.08621228
46	0xbe81cf82	-0.25353628
47	0xbe3dbe3f	-0.18529604
48	0x3c9c8a71	0.019108983
49	0xbe540372	-0.2070444
50	0xbe48c840	-0.1960764
51	0xbe78a1f0	-0.24280524
52	0xbe1a3852	-0.15060547
53	0xbe37f75f	-0.17965458
54	0xbdc4d0a2	-0.09610106
55	0x3c99dcad	0.018781984
56	0x3ddf0000	0.10888672
57	0xbdac4008	-0.084106505
58	0xbe2f1412	-0.170975
59	0xbe4cb6f5	-0.19991668
60	0xbe621c8e	-0.22081205
61	0x3f0ca8af	0.5494489
62	0x3d89a18d	0.067202665
63	0x3d3dafd3	0.046310257

bn1.weight f4 [64]
0	0x3f7e85a4	0.9942267
1	0x3f6aedba	0.9176899
2	0x3f791fab	0.97313946
3	0x3f8a250d	1.0792557
4	0x3f65e3db	0.89800805
5	0x3f7524fc	0.9575956
6	0x3f92369f	1.1422919
7	0x3f6b7c30	0.9198637
8	0x3f54a372	0.830619
9	0x3f761539	0.96126133
10	0x3f73cdec	0.95236087
11	0x3f8bf17d	1.0933071
12	0x3f5688f4	0.83802724
13	0x3f622418	0.88336325
14	0x3f84f090	1.0385914
15	0x3f91fb0e	1.1404741
16	0x3f927ed6	1.1444957
17	0x3f801baa	1.0008442
18	0x3f814711	1.0099813
19	0x3f8cb907	1.0993966
20	0x3f91e39c	1.1397586
21	0x3f85f125	1.0464216
22	0x3f8f7f10	1.1210651
23	0x3f65db0a	0.8978735
24	0x3f7e387a	0.99304926
25	0x3f8c544d	1.0963227
26	0x3f73348f	0.95002073
27	0x3f737cdf	0.95112413
28	0x3f83d3be	1.0298994
29	0x3f896084	1.0732579
30	0x3f8c5aa9	1.0965167
31	0x3f84caad	1.0374352
32	0x3f81ac15	1.013064
33	0x3f55ea19	0.8356033
34	0x3f8315f4	1.0241075
35	0x3f786d36	0.9704164
36	0x3f8f66fa	1.1203301
37	0x3f8b6c81	1.0892488
38	0x3f865db3	1.0497345
39	0x3f6b1ebb	0.91843766
40	0x3f7327e8	0.9498277
41	0x3f7cddad	0.9877575
42	0x3f76297f	0.9615707
43	0x3f62ecc8	0.8864255
44	0x3f899ecb	1.0751585
45	0x3f6d8f91	0.9279719
46	0x3f8b6daf	1.0892848
47	0x3f82652e	1.0187128
48	0x3f6ca4c7	0.9243893
49	0x3f7db787	0.99108166
50	0x3f6f3d7d	0.934532
51	0x3f892f97	1.0717648
52	0x3f738da9	0.9513803
53	0x3f73979d	0.9515322
54	0x3f5f0b1b	0.8712632
55	0x3f6ba4c8	0.9204831
56	0x3f82ded5	1.0224253
57	0x3f4cfe21	0.8007527
58	0x3f880bf8	1.0628653
59	0x3f6dc9c2	0.92885983
60	0x3f694407	0.91119426
61	0x3f6d7a80	0.92765045
62	0x3f8e29d4	1.1106515
63	0x3f767e7b	0.96286744

bn1.bias f4 [64]
0	0xbcd58fa0	-0.026069462
1	0x3cf1de43	0.029524928
2	0x3b9e3969	0.004828621
3	0x3bf8f714	0.0075978134
4	0x3d1d5f1a	0.038420774
5	0x3d621f6c	0.055205747
6	0xbaa40ef1	-0.001251666
7	0xbb916887	-0.0044375095
8	0xbcb261a0	-0.021775067
9	0x3d36881c	0.044563398
10	0x3a07f491	0.00051862845
11	0xbcf3a76d	-0.02974292
12	0xbbaa6798	-0.0052003376
13	0xbc10374a	-0.008802244
14	0x3cfe2b3a	0.031026471
15	0xba0e384c	-0.0005425259
16	0x3c873574	0.01650498
17	0xbc9c5746	-0.019084584
18	0x3c261b22	0.010138305
19	0xbcdf27f4	-0.02724073
20	0xbc9beaf5	-0.019032935
21	0x3d0bc95f	0.03412759
22	0x3cde447d	0.027132267
23	0x3d0b69a1	0.034036282
24	0x3cd5a642	0.026080254
25	0xbc2d03b3	-0.010559964
26	0x3c8b8380	0.017030478
27	0x3cbb81c9	0.022889035
28	0x3d263c93	0.04058511
29	0x3ccee34a	0.025254864
30	0x3b34b7c6	0.0027575358
31	0xbc5d55fe	-0.013509272
32	0xbd57de1c	-0.052702054
33	0xbc2e217c	-0.0106281005
34	0x3af22f2d	0.0018477194
35	0x3cc9fd82	0.024657015
36	0x3cbab76e	0.022792544
37	0x3d517065	0.05113258
38	0x3cc5d724	0.024150439
39	0xbbc08bda	-0.0058760466
40	0xbcedb791	-0.029018195
41	0xbcd6cb1e	-0.0262199
42	0x3bf77d08	0.0075527467
43	0x3d217474	0.0394177
44	0x3d184f94	0.037185267
45	0x3c0eb7f5	0.008710851
46	0xbb08fc5f	-0.0020902378
47	0x3cbb9004	0.02289582
48	0x3d35657a	0.04428623
49	0xbb4a0306	-0.0030824556
50	0xbc5f5e11	-0.013633267
51	0x3c7c2992	0.0153907705
52	0xba7a01af	-0.0009536994
53	0x3c958b7e	0.018254992
54	0x3aa18055	0.0012321571
55	0x3d0d4c29	0.03449646
56	0x3d255caa	0.040371574
57	0xbcc88fd9	-0.024482654
58	0xbcc633d8	-0.024194643
59	0xbc1fb10f	-0.009746804
60	0x3bdf5690	0.006815739
61	0xbd012c87	-0.031536605
62	0x3cf819a7	0.03028567
63	0x3ac1e5ef	0.0014793257

bn1.running_mean f4 [64]
0	0x3d6bdb2b	0.05758206
1	0x3d8eead7	0.06978386
2	0x3d5231d5	0.051317055
3	0x3d6a4f17	0.057204332
4	0x3d94e26b	0.07269748
5	0x3c676595	0.01412334
6	0x3c383c55	0.011244853
7	0x3d2e8a41	0.042612318
8	0x3df52b2a	0.119711235
9	0x3daa0b1f	0.083029024
10	0x3dc04b76	0.09389393
11	0x3cac8655	0.021060148
12	0x3e35d547	0.1775714
13	0x3d716fa5	0.058944363
14	0x3bfe7152	0.0077649737
15	0x3d663b41	0.056208853
16	0x3dad625c	0.08466026
17	0x3d12f86a	0.035881437
18	0x3d99db0d	0.07512484
19	0x3c7127a1	0.014718921
20	0x3d46280e	0.048378043
21	0x3d854c67	0.06508713
22	0x3ce61d29	0.028090077
23	0x3ec8f558	0.39249682
24	0x3d327a62	0.043573745
25	0x3c53d883	0.012930038
26	0x3d3cccab	0.046093624
27	0x3d8cebaf	0.068808906
28	0x3c8a4ec9	0.01688327
29	0x3dc4dfd1	0.09613002
30	0x3d02ef95	0.031966764
31	0x3d3ef8ef	0.04662412
32	0x3d3ce6cd	0.046118546
33	0x3d87650e	0.066110715
34	0x3c4db0c4	0.012554351
35	0x3da36adb	0.079793654
36	0x3d1f6d61	0.03892267
37	0x3b8d2928	0.0043078847
38	0x3cafbf5e	0.021453556
39	0x3deb2dce	0.11483346
40	0x3db8fa0c	0.09032068
41	0x3db72a3b	0.08943602
42	0x3c9595e7	0.018259956
43	0x3cb85939	0.022503482
44	0x3b95228e	0.0045512384
45	0x3d95c860	0.07313609
46	0x3ca07db2	0.019591186
47	0x3b910144	0.0044251997
48	0x3d2b023b	0.041750174
49	0x3b0dd236	0.0021640188
50	0x3d024ca3	0.031811368
51	0x3ce75b1a	0.028241683
52	0x3d1247cc	0.035713002
53	0x3d4953fa	0.049152352
54	0x3db91a80	0.090382576
55	0x3cb029c4	0.02150429
56	0x3db1be69	0.08678896
57	0x3e38011b	0.17969172
58	0x3cd00af9	0.025395857
59	0x3cf5b09e	0.029991444
60	0x3d4561f2	0.04818911
61	0x3f0a5fa3	0.5405218
62	0x3d5a1108	0.0532389
63	0x3d49f794	0.049308375

bn1.running_var f4 [64]
0	0x3bf5c733	0.007500553
1	0x3c5316fd	0.012883899
2	0x3c1bfc9c	0.009520676
3	0x3c3e2e29	0.011607685
4	0x3c202d8e	0.009776486
5	0x3b1c3219	0.0023833571
6	0x3b033aeb	0.0020024132
7	0x3ba7c207	0.0051195654
8	0x3ca6e5a8	0.02037318
9	0x3c79a006	0.0152359065
10	0x3c6078f6	0.013700714
11	0x3b4cb521	0.003123589
12	0x3d216cf7	0.039410558
13	0x3bfe6757	0.007763784
14	0x3a9c1d89	0.0011910658
15	0x3c247a02	0.010038855
16	0x3c1bcd99	0.0095094675
17	0x3bcd2eef	0.0062616984
18	0x3c7a2b28	0.015269078
19	0x3b245f91	0.0025081376
20	0x3c2a77e9	0.010404565
21	0x3c205070	0.009784803
22	0x3bc1ebce	0.0059180027
23	0x3c9a1880	0.01881051
24	0x3bcf9dd2	0.0063359523
25	0x3b123817	0.0022311264
26	0x3c0853db	0.008320774
27	0x3c5cff73	0.013488638
28	0x3b51cbb5	0.0032012288
29	0x3c8c7ec8	0.017150298
30	0x3b91f6b5	0.0044544586
31	0x3bdbfc7f	0.0067134495
32	0x3bdd393e	0.0067512086
33	0x3c07aa86	0.008280402
34	0x3b14d0f1	0.0022707547
35	0x3c5e045a	0.013550842
36	0x3b989fad	0.0046577067
37	0x3a21a4bc	0.000616621
38	0x3b8173da	0.003950578
39	0x3c96cdaf	0.018408624
40	0x3c496702	0.012292625
41	0x3c17fb6d	0.009276253
42	0x3b3750ef	0.0027971824
43	0x3b54ffca	0.0032501095
44	0x3a2c6e93	0.0006577756
45	0x3c177a9e	0.009245543
46	0x3b44a3bc	0.003000482
47	0x3a28bda1	0.00064369483
48	0x3c02fda6	0.007995045
49	0x39895c8a	0.00026199623
50	0x3b9b8a43	0.0047467067
51	0x3b9a3b23	0.0047067567
52	0x3be6a3f3	0.0070385872
53	0x3bf8c161	0.007591412
54	0x3c8bbc36	0.01705752
55	0x3b5b7469	0.0033486134
56	0x3c4dfbc0	0.012572229
57	0x3d18eae8	0.0373334
58	0x3b8e5117	0.0043431628
59	0x3baf0239	0.005340841
60	0x3c2489fc	0.010042664
61	0x3c94f0a5	0.018181155
62	0x3bde9cb0	0.006793581
63	0x3c0a2947	0.008432693

fc1.weight f4 [64, 64]
0	0xbda42eee	-0.08016764
1	0xbe2c7546	-0.16841611
2	0x3df641d8	0.120242774
3	0x3d6c7c4b	0.057735723
4	0x3dd9a849	0.10627801
5	0xbcaf3ba6	-0.021390747
6	0x3d6851b4	0.056718543
7	0x3d207139	0.039170478
8	0x3da9603f	0.082703106
9	0xbe356fab	-0.17718379
10	0x3ddf2203	0.10895159
11	0xbd01bd54	-0.031674698
12	0x3db044ab	0.086068474
13	0x3d9cdfd3	0.076598786
14	0x3d3f035b	0.04663406
15	0x3e4e61da	0.20154515
16	0xbd2aedf3	-0.041730832
17	0xbc7f8d0d	-0.015597594
18	0xbda7282b	-0.08161958
19	0xbd1a6800	-0.03769684
20	0xbe12fdf4	-0.14354688
21	0x3dea43e0	0.114387274
22	0xbe98c75d	-0.29839602
23	0x3d2a819d	0.041627515
24	0xbddfffae	-0.10937439
25	0x3cd0fc98	0.025511071
26	0xbe4cc2ff	-0.1999626
27	0xbc8f5b89	-0.017499702
28	0xbc9a0d94	-0.018805303
29	0xbd0ffe1a	-0.03515444
30	0xbcf374eb	-0.029718837
31	0x3d03536b	0.032061975
32	0xbdfd2fb0	-0.12362611
33	0x3db8b608	0.09019095
34	0x3d6a7884	0.05724384
35	0xbd0bc3cb	-0.03412227
36	0xbc5bb9f8	-0.013411038
37	0x3dd88981	0.10573102
38	0x3e0fe2c9	0.14051355
39	0x3e5372c0	0.20649242
40	0x3cf5e48e	0.03001621
41	0x3d813c80	0.063103676
42	0x3bffec6d	0.0078101666
43	0xbbe71aef	-0.0070527713
44	0x3d845fc0	0.06463575
45	0x3ddd81f0	0.10815799
46	0x3b828756	0.0039834185
47	0xbe68a07e	-0.22717473
48	0x3d7981bf	0.06091475
49	0x3d13d8d0	0.03609544
50	0x3ceb04e7	0.028688861
51	0xbc46a47c	-0.012124177
52	0x3c1c7dd2	0.009551482
53	0xbbb132e9	-0.0054076803
54	0xbd938936	-0.07203905
55	0x3e01a767	0.12661515
56	0xbdea82c2	-0.11450721
57	0xbd92b0c3	-0.07162621
58	0x3df02dc5	0.1172748
59	0x3c9a0992	0.018803392
60	0xbde6f0de	-0.112764105
61	0x3d494a1c	0.04914294
62	0xbcaf4597	-0.021395488
63	0x3bde7d2d	0.0067898245
64	0xbe298433	-0.16554336
65	0x3bb73615	0.005591164
66	0x3b97bb32	0.0046304697
67	0x3e862142	0.2619725
68	0x3d6bd758	0.057578415
69	0xbda0a4e6	-0.07843952
70	0x3d371557	0.044698086
71	0x3cb10919	0.021610783
72	0xbdc8e427	-0.098091416
73	0xbcbd5507	-0.023111833
74	0x3e547ef0	0.20751548
75	0x3dbdd98d	0.0927001
76	0xbdb13688	-0.08652979
77	0xbdf487c2	-0.11939956
78	0xbe1b5472	-0.15168932
79	0x3e24e1d8	0.16101778
80	0x3e1b78c1	0.15182783
81	0x3dc16a2d	0.094440795
82	0x3dd7b219	0.10532016
83	0x3d0452c8	0.03230551
84	0xbd434fa7	-0.047683384
85	0xbe3eb233	-0.18622665
86	0xbc049d13	-0.00809409
87	0x3d78fda0	0.06078875
88	0xbda8ed8c	-0.082484335
89	0x3da0c2bd	0.078496434
90	0xbcb66d9e	-0.022269066
91	0x3d9fc182	0.078005806
92	0xbdb6f2cf	-0.08933031
93	0x3dad19c7	0.08452182
94	0x3c000af6	0.007815113
95	0xbd150b06	-0.036387466
96	0xbc2876a0	-0.010282189
97	0x3ca991da	0.02069943
98	0xbc04ac82	-0.00809777
99	0xbc9e339f	-0.019311724
100	0x3e335542	0.17512992
101	0x3d13c703	0.036078464
102	0xbd78f253	-0.060777973
103	0xbd8689c1	-0.06569243
104	0x3d8c3218	0.06845492
105	0x3dc1ba32	0.09459342
106	0xbc51af4c	-0.012798142
107	0xbd16aa92	-0.036783762
108	0xbd0d5b3e	-0.034510843
109	0x3d01b076	0.031662427
110	0x3e170e78	0.14751613
111	0xbeaf0f12	-0.34191185
112	0xbcca68fc	-0.024708264
113	0xbdd9b67f	-0.106305115
114	0xbc6f2877	-0.01459705
115	0x3d59c6aa	0.053167976
116	0x3b277405	0.002555133
117	0xbda695ae	-0.08134018
118	0xbd608607	-0.05481532
119	0x3db7e282	0.0897875
120	0xbd0e95b8	-0.03481075
121	0xbd29c45e	-0.041447036
122	0x3d4a0037	0.04931661
123	0x3d29afed	0.04142754
124	0xbe04ea16	-0.12979922
125	0x3e07144c	0.13191336
126	0x3e019ce1	0.12657501
127	0x3ded9057	0.11599796
128	0x3dd6e91d	0.104936816
129	0x3d45a6d9	0.04825482
130	0xbe0dcba3	-0.13847212
131	0x3d72e9dd	0.05930506
132	0xbc20e5aa	-0.009820381
133	0x3dfdd1be	0.12393521
134	0x3d9233df	0.071388
135	0xbdd803d0	-0.10547602
136	0xbd6bc88e	-0.05756431
137	0xbdb4aeab	-0.08822378
138	0x3deb12fe	0.11478232
139	0xbde12be5	-0.109947
140	0x3d732c33	0.059368324
141	0x3d478d80	0.04871893
142	0x3d8557d5	0.06510893
143	0xbdc860a4	-0.09784058
144	0x3d820cab	0.063500725
145	0x3d80792a	0.0627311
146	0xbdf3a09e	-0.1189587
147	0x3d9b8be9	0.07595045
148	0xbc9a9e98	-0.018874452
149	0x3dcd576f	0.10026442
150	0xbcc750e8	-0.024330571
151	0xbdb55842	-0.088547245
152	0x3e22fcdb	0.15916769
153	0x3d085053	0.03327973
154	0x3bc37d34	0.005965853
155	0xbcd58582	-0.026064638
156	0xbc8e207e	-0.017349478
157	0xbdb67753	-0.08909478
158	0x3da8dbf8	0.08245081
159	0xbb789a93	-0.003793393
160	0xbd6dbf94	-0.05804403
161	0x3e058faf	0.13043092
162	0x3d93c116	0.072145626
163	0x3dbe0643	0.09278538
164	0x3d99df7e	0.07513331
165	0xbd9c505c	-0.07632515
166	0x3d710fbe	0.058852904
167	0x3cd629cd	0.026142979
168	0x3d07a85b	0.03311954
169	0x3c5f90b0	0.013645336
170	0x3c89e71e	0.016833838
171	0x3d02d84c	0.031944558
172	0x3d555920	0.05208695
173	0xbe150c4c	-0.14555472
174	0xbd30c185	-0.043153305
175	0xbdce70ea	-0.100801304
176	0x3c93dc3a	0.018049348
177	0x3e26c898	0.16287458
178	0xbcd6875a	-0.026187588
179	0xbe69a84d	-0.22818108
180	0xbdcc9d3d	-0.09990928
181	0xbd917349	-0.07102067
182	0xbd877607	-0.06614309
183	0x3cc59c47	0.02412237
184	0xbdf2f713	-0.11863532
185	0xbd82081b	-0.06349202
186	0xbc903085	-0.01760126
187	0x3e8e6136	0.2780854
188	0x3dd1dd5b	0.10247298
189	0x3d0a5d83	0.033780586
190	0x3c514cc7	0.012774653
191	0xbde9caa7	-0.11415606
192	0xbd88ab34	-0.066732794
193	0xbd439c75	-0.04775663
194	0xbe09e47a	-0.13466063
195	0x3c76c325	0.0150611745
196	0x3db28d53	0.08718362
197	0xbe5dea71	-0.21671464
198	0xbdbacb55	-0.09120814
199	0xbe0a6e52	-0.13518646
200	0xbda0e343	-0.07855847
201	0x3c941c91	0.018080028
202	0xbc411565	-0.011784886
203	0x3d3f2880	0.046669483
204	0x3e0de21c	0.13855785
205	0xbdd4b1fa	-0.10385509
206	0xbc80e34f	-0.01573339
207	0xbc55a788	-0.013040431
208	0xbd3c5b0d	-0.04598527
209	0x3e055004	0.13018805
210	0x3e1f6e0d	0.15569325
211	0xbd00503b	-0.031326514
212	0xbd8d2927	-0.06892615
213	0xbd8f2c75	-0.069909014
214	0xbde6f011	-0.11276258
215	0xbd0128a1	-0.031532887
216	0xbdc96385	-0.09833435
217	0x3d73785c	0.059440956
218	0xbd763fd9	-0.060119484
219	0xbe0931d8	-0.1339792
220	0x3d65dc15	0.05611809
221	0x3d2048fa	0.039132096
222	0x3d8f83d0	0.07007563
223	0xbd378fae	-0.044814758
224	0xbd2cdb15	-0.04220112
225	0xbce1a3b9	-0.02754389
226	0xbde895b0	-0.113566756
227	0x3d6f44e5	0.058415312
228	0xbbfffb36	-0.007811929
229	0xba45f994	-0.00075521437
230	0x3dcfae3b	0.10140654
231	0x3d1fd7a8	0.039024025
232	0x3cb94511	0.022615941
233	0xbdb845bb	-0.08997675
234	0xbe2feba9	-0.17179741
235	0xbd833213	-0.06406035
236	0xbcc7eeaa	-0.024405796
237	0x3ccbbbfa	0.024869908
238	0xbc987b93	-0.018613612
239	0x3a2d3d15	0.0006608528
240	0x3cc00ec9	0.02344455
241	0x3d74ce86	0.05976727
242	0x3c6c5cf9	0.014426463
243	0x3dfc1a48	0.123097
244	0x3d5349b8	0.051583976
245	0x3e2da8e9	0.16958965
246	0xbd0348ef	-0.032051977
247	0xbd3ee6ae	-0.046606712
248	0x3d226f78	0.039657086
249	0x3cbdb2a5	0.023156473
250	0x3e243388	0.16035283
251	0xbdbea0c5	-0.09308008
252	0xbd8bae8b	-0.06820401
253	0xbd59a2be	-0.05313372
254	0x3d8fceb9	0.07021851
255	0xbb81116a	-0.0039388435

fc1.bias f4 [64]
0	0x3c3dd413	0.011586207
1	0xbd9c4d25	-0.07631902
2	0x3d53bbe5	0.051692862
3	0xbdbebec6	-0.09313731
4	0xbc35e391	-0.011101619
5	0x3cc3151a	0.023813773
6	0x3ea2a625	0.31767383
7	0xbd8b545d	-0.068032004
8	0x3d894643	0.067028545
9	0xbe001ed6	-0.12511763
10	0xbe04048a	-0.12892357
11	0x3d68ce87	0.056837585
12	0xbde61023	-0.112335466
13	0xbe097593	-0.13423757
14	0xbd346123	-0.04403795
15	0x3d109930	0.03530234
16	0xbde43c95	-0.111443676
17	0x3db0724b	0.0861555
18	0x3d6f8438	0.058475703
19	0x3d68d3b7	0.056842532
20	0x3d52a56e	0.051427297
21	0x3c043fc9	0.008071848
22	0xbc66c8ec	-0.014085989
23	0xbd9a98f6	-0.07548706
24	0x3b27323a	0.0025512115
25	0xbc214d49	-0.009845086
26	0x3d834fd8	0.06411713
27	0x3bcbdf58	0.006221693
28	0xbe0421fd	-0.1290359
29	0xbddc0357	-0.107428245
30	0x3c2e11a9	0.010624328
31	0x3d342770	0.043982923
32	0xbda4fa8f	-0.08055603
33	0x3d197ee2	0.03747452
34	0xbd77f988	-0.060540706
35	0xba410916	-0.00073637196
36	0xbde6c334	-0.11267701
37	0xbd232541	-0.03983045
38	0xbc5915c3	-0.013249817
39	0xbd992890	-0.0747844
40	0xbdd728eb	-0.10505851
41	0xbdf70ec4	-0.12063363
42	0x3bb26cbd	0.0054450915
43	0xbdbe51c1	-0.09292937
44	0xbe13223f	-0.14368533
45	0x3e24eb64	0.1610542
46	0x3d42f18a	0.04759363
47	0x3cf37cdb	0.029722622
48	0x3d4d8563	0.050176036
49	0xbbb2ee9e	-0.0054605743
50	0xbd431847	-0.047630575
51	0x3c8fdbae	0.017560806
52	0xbdb1dc0b	-0.08684548
53	0x3c512b50	0.012766674
54	0xbcb60a6a	-0.022221763
55	0x3d594cd3	0.05305178
56	0x3cd4d9e3	0.025982803
57	0xbad03303	-0.0015884343
58	0xbd53a0a8	-0.051666886
59	0xbd68d224	-0.05684103
60	0x3ded5757	0.115889244
61	0x3c88c051	0.016693266
62	0x3d0347e1	0.03205097
63	0x3d808d90	0.06277001

bn2.weight f4 [64]
0	0x3fa8face	1.320154
1	0x3f9c1afe	1.2195737
2	0x3f9c11b1	1.2192899
3	0x3f97c3e4	1.1856656
4	0x3fa9c796	1.3264034
5	0x3f942aa4	1.1575513
6	0x3f8bacb1	1.0912076
7	0x3f9bbe79	1.2167503
8	0x3f958c9c	1.1683536
9	0x3f979297	1.1841611
10	0x3f94e3ef	1.163206
11	0x3fa05376	1.252547
12	0x3fa9c39a	1.3262818
13	0x3fa15c4f	1.2606295
14	0x3fa9ab62	1.3255427
15	0x3fa8c4bd	1.318504
16	0x3fc4318a	1.5327618
17	0x3fb48f28	1.4106188
18	0x3f9e7e9b	1.2382387
19	0x3faf57ce	1.3698671
20	0x3fa45089	1.2837077
21	0x3f94f834	1.1638246
22	0x3fb64516	1.4239833
23	0x3f981121	1.1880227
24	0x3fbcf9e8	1.4763765
25	0x3f96c35e	1.1778371
26	0x3f965528	1.1744738
27	0x3fa76eee	1.3080728
28	0x3f912cb4	1.1341767
29	0x3f9f308b	1.2436689
30	0x3fb002f0	1.3750896
31	0x3f9304e5	1.1485869
32	0x3fa30cac	1.2738242
33	0x3fb4bb7a	1.4119713
34	0x3fa79902	1.3093569
35	0x3fa4e6ac	1.2882895
36	0x3f950e60	1.1645012
37	0x3f84d13f	1.0376357
38	0x3f9b8619	1.2150298
39	0x3f97b142	1.185097
40	0x3f93c94b	1.1545805
41	0x3f94c883	1.1623691
42	0x3fa6ff32	1.304663
43	0x3f947075	1.1596819
44	0x3f973fc6	1.1816337
45	0x3f845c45	1.0340658
46	0x3f9b93d6	1.2154491
47	0x3fbc56d3	1.4713997
48	0x3fb97472	1.4488661
49	0x3f9983b0	1.1993313
50	0x3f909f55	1.1298624
51	0x3f9b14f4	1.2115769
52	0x3f8cafe0	1.0991173
53	0x3f960702	1.1720889
54	0x3fa8ace9	1.3177768
55	0x3fac6d6a	1.347089
56	0x3fb25a60	1.393383
57	0x3f9c2380	1.2198334
58	0x3f955dc0	1.1669235
59	0x3f91f124	1.1401715
60	0x3f933605	1.150086
61	0x3f936b2b	1.151708
62	0x3fb0956c	1.37956
63	0x3f95bc3e	1.1698072

bn2.bias f4 [64]
0	0x3bfdda9c	0.0077470075
1	0xbbd7bbcd	-0.006583667
2	0xbbf5a59e	-0.0074965497
3	0xbc00ef30	-0.007869527
4	0x3bee23f2	0.0072674686
5	0xbbd86c47	-0.0066047045
6	0xbbf18440	-0.0073705018
7	0xbbb49d72	-0.005511933
8	0xbbcdb395	-0.0062775114
9	0xbbd86acc	-0.006604528
10	0x3bc3322d	0.005956909
11	0xbbe0cb0b	-0.006860142
12	0xbbee2e16	-0.0072686775
13	0x3bd3c801	0.0064630513
14	0x3c92b5e1	0.017908992
15	0xbc3ebb48	-0.011641331
16	0xbbcd37de	-0.0062627634
17	0xbbe04e0c	-0.0068452414
18	0xbbd722fc	-0.0065654498
19	0xbbcc681e	-0.0062379977
20	0xbbf426c7	-0.0074509117
21	0xbbda1f62	-0.006656573
22	0x3c0e0fa1	0.008670718
23	0x3bf3ddca	0.007442211
24	0x3bd06d37	0.0063606757
25	0xbbd8181b	-0.0065946705
26	0xbbd27b41	-0.0064233844
27	0xbbe23673	-0.0069034635
28	0xbbdfadf5	-0.006826157
29	0x3bdf4bd7	0.0068144607
30	0x3c0aabfa	0.008463854
31	0xbbd65083	-0.0065403595
32	0x3b8f90ea	0.004381289
33	0x3c1e0aa3	0.009646091
34	0xbbba2bae	-0.0056814766
35	0x3bf1537c	0.0073646884
36	0xbbd92f8b	-0.006627982
37	0xbbcc585a	-0.0062361183
38	0x3bf0f2c2	0.0073531577
39	0xbc0bb10c	-0.008526098
40	0xbbe73a85	-0.0070565366
41	0x3bcc79cb	0.006240105
42	0x3bf96e3d	0.0076120184
43	0xbbfffa16	-0.007811795
44	0x3be75dfb	0.007060764
45	0xbc132fd6	-0.008983573
46	0xbbe62628	-0.0070235915
47	0x3beb6683	0.007183851
48	0x3c11dcb4	0.008902717
49	0xbbe14062	-0.00687413
50	0xbbea951a	-0.0071588876
51	0xbc01620d	-0.007896912
52	0xbbd9b435	-0.006643797
53	0xbbd996ad	-0.0066402764
54	0x3bdf1a49	0.0068085534
55	0x3bce832e	0.006302259
56	0x3c00c8b6	0.007860353
57	0xbbdcae5c	-0.0067346524
58	0xbbf38988	-0.0074321665
59	0xbbcd9f1b	-0.0062750704
60	0xbbe391fa	-0.006944892
61	0xbbdc008f	-0.006713934
62	0xbc01384f	-0.00788696
63	0xbbe450ed	-0.006967655

bn2.running_mean f4 [64]
0	0x3d0da5b1	0.034581844
1	0x3c5878ad	0.013212365
2	0x3d962240	0.073307514
3	0x3aa2c80b	0.0012419237
4	0x3ca73004	0.020408638
5	0x3d65b902	0.05608464
6	0x3ea62c30	0.32455587
7	0x3c8fd533	0.017557716
8	0x3d87819c	0.06616518
9	0x3bdd34f3	0.006750697
10	0x3aa4f03c	0.0012583802
11	0x3d9f8c5a	0.07790442
12	0x3cc24316	0.02371363
13	0x3a4edea7	0.0007891454
14	0x3c53c6f6	0.012925854
15	0x3dadf7b3	0.084945105
16	0x378a2cec	1.64718e-05
17	0x3dcfb1f6	0.10141365
18	0x3da8db21	0.082449205
19	0x3d80a3c1	0.062812336
20	0x3d846ebf	0.06466436
21	0x3ce9c66c	0.028536998
22	0x3d36390d	0.044488
23	0x3c77341b	0.0150881065
24	0x3d742fd5	0.05961593
25	0x3cb64269	0.022248464
26	0x3da46be9	0.08028395
27	0x3cdc5968	0.026898101
28	0x3a08c4c9	0.00052173116
29	0x3c348bbc	0.011019643
30	0x3d0069b0	0.03135079
31	0x3d58b84d	0.052910138
32	0x3c4ab718	0.0123727545
33	0x3d566fc4	0.05235268
34	0x3ac1ed9c	0.0014795545
35	0x3cab17f1	0.02088544
36	0x3c4c8a6a	0.012484172
37	0x3ce6f4e9	0.028192954
38	0x3cd2ebfc	0.025747292
39	0x3c411f81	0.011787296
40	0x3bfd6625	0.007733124
41	0x39ff7b38	0.00048729195
42	0x3cdbc3aa	0.026826698
43	0x3cc19dd5	0.02363483
44	0x3ab594fb	0.0013853604
45	0x3e1b2efa	0.15154639
46	0x3d35668d	0.044287253
47	0x3d6f2142	0.058381326
48	0x3d801a07	0.06254964
49	0x3d3d83ba	0.046268202
50	0x3cd68921	0.026188435
51	0x3d0ca830	0.034340084
52	0x3c76c737	0.015062145
53	0x3d1882cf	0.037234124
54	0x3cf5cdb3	0.030005312
55	0x3da07378	0.07834524
56	0x3d2add8d	0.041715194
57	0x3d08b76c	0.03337805
58	0x3ca76409	0.020433443
59	0x3c4ac8b0	0.012376949
60	0x3deadb15	0.11467568
61	0x3d2f229f	0.042757627
62	0x3d6dc9c7	0.058053758
63	0x3daa9105	0.083284415

bn2.running_var f4 [64]
0	0x3b205771	0.0024466182
1	0x3a7f00aa	0.0009727577
2	0x3bd9e035	0.006649042
3	0x382a5b0c	4.0615952e-05
4	0x3af42ad8	0.0018628491
5	0x3b95232c	0.004551312
6	0x3c48c7ec	0.012254696
7	0x3a96fa73	0.0011518731
8	0x3bb0c17d	0.0053941594
9	0x39d4868b	0.00040536033
10	0x384bcc08	4.858899e-05
11	0x3b8ead1f	0.0043541337
12	0x3b286a97	0.0025698298
13	0x383ad01c	4.4539673e-05
14	0x3a643957	0.0008706054
15	0x3be0bffb	0.0068588234
16	0x34cf5d23	3.862452e-07
17	0x3bc6c29c	0.0060656797
18	0x3c09e30f	0.008415951
19	0x3b571d5b	0.0032823894
20	0x3b69f80e	0.003570083
21	0x3acb5c20	0.0015515126
22	0x3b79430f	0.0038034355
23	0x3a9d3c3a	0.0011996098
24	0x3be190bc	0.0068837088
25	0x3ab2d217	0.0013642934
26	0x3bd4726f	0.006483368
27	0x3b1ea457	0.002420684
28	0x3797e152	1.8105526e-05
29	0x3a3d78f8	0.00072278036
30	0x3afe4e99	0.0019402086
31	0x3b61763b	0.0034402746
32	0x3a51af1a	0.00079988095
33	0x3b3f249c	0.0029166108
34	0x38aa3ade	8.1171966e-05
35	0x3acadc0e	0.0015476958
36	0x3a9bc6ff	0.0011884867
37	0x3adefce4	0.0017012623
38	0x3ad803ae	0.0016480589
39	0x3a42b6f0	0.00074277725
40	0x3a145a45	0.0005659203
41	0x37855c25	1.5897744e-05
42	0x3ae3c9c1	0.0017378853
43	0x3b07cf6f	0.0020723005
44	0x38a06036	7.647315e-05
45	0x3bc6f535	0.0060717114
46	0x3b1e4e4b	0.0024155553
47	0x3bad3d7b	0.00528687
48	0x3bb5170d	0.0055264295
49	0x3b837ea8	0.0040129013
50	0x3b12f29f	0.0022422445
51	0x3b2de779	0.0026535674
52	0x3a94187b	0.00112988
53	0x3b54a3d3	0.003244628
54	0x3b3ff922	0.0029292782
55	0x3c0c74ab	0.008572738
56	0x3b64fcc0	0.003494069
57	0x3b272827	0.002550611
58	0x3abe6ce6	0.0014528304
59	0x3a2d5872	0.00066126056
60	0x3bb4d313	0.005518326
61	0x3b70c9d5	0.0036741395
62	0x3b901d1f	0.0043980028
63	0x3bf5d4a9	0.0075021577

fc2.weight f4 [1, 64]
0	0x3ed2d540	0.41178322
1	0xbe5cb417	-0.21553074
2	0xbe748f67	-0.23882829
3	0xbe40a831	-0.1881416
4	0x3ecefd95	0.40427843
5	0xbe8309cf	-0.2559342
6	0xbe10cfd2	-0.14141777
7	0xbe66e824	-0.22549492
8	0xbe9369f9	-0.28791788
9	0xbe821710	-0.2540822
10	0x3e7dfff8	0.24804676
11	0xbea06ace	-0.31331486
12	0xbecbe638	-0.3982408
13	0x3eb657b6	0.35613793
14	0x3e949761	0.29021743
15	0xbea724c4	-0.32645237
16	0xbf1a3c69	-0.6024843
17	0xbeeaa03f	-0.45825383
18	0xbe96cfab	-0.29455313
19	0xbec8c110	-0.39209795
20	0xbea83096	-0.32849568
21	0xbe85b873	-0.26117286
22	0x3efcedd8	0.4940021
23	0x3e73fbd8	0.2382654
24	0x3f158959	0.584127
25	0xbe7901ad	-0.24317046
26	0xbe59c404	-0.2126618
27	0xbeb53818	-0.3539436
28	0xbe39d390	-0.18147111
29	0x3e9d3b35	0.30709234
30	0x3ebe4718	0.37163615
31	0xbe34c431	-0.17652966
32	0x3eac66e6	0.33672255
33	0x3ed0786b	0.40716872
34	0xbeb9f7f7	-0.36321995
35	0x3ea3b131	0.31971124
36	0xbe566504	-0.20936972
37	0xbe1d5179	-0.1536311
38	0x3eaa6c79	0.33285883
39	0xbe4476f1	-0.19185998
40	0xbe3f6943	-0.18692498
41	0x3e8084f7	0.25101444
42	0x3ec3a5c7	0.38212416
43	0xbe2bbda9	-0.16771568
44	0x3e816cf2	0.2527843
45	0xbdd26458	-0.10273045
46	0xbe7a39a0	-0.24436045
47	0x3f09bde6	0.5380539
48	0x3eed3811	0.46331838
49	0xbea250ed	-0.31702366
50	0xbe6373ed	-0.22212191
51	0xbe633780	-0.2218914
52	0xbe28109c	-0.16412586
53	0xbe538b29	-0.20658554
54	0x3ee135da	0.43986398
55	0x3ec51b5a	0.3849743
56	0x3ed5fb93	0.41793498
57	0xbe825241	-0.2545338
58	0xbe52bd1f	-0.20579956
59	0xbe75a1c7	-0.23987494
60	0xbe76af44	-0.24090296
61	0xbe8cf321	-0.27529243
62	0xbee0c7ae	-0.43902344
63	0xbe894a70	-0.26814604
