result/dee_phage/1200_1800/fold_1/20250501-101432/1800_0.0001_32_model_best.pt (torch, 31679 bytes, 13 tensors)

conv.weight f4 [64, 4, 6]
0	0xbe41966f	-0.18905042
1	0x3d973091	0.0738231
2	0xbd0f760c	-0.035024688
3	0xbb4fc5e5	-0.0031703648
4	0xbd8be5c3	-0.06830933
5	0xbe9d7142	-0.3075047
6	0xbeb8d8aa	-0.36102802
7	0xbe8de77c	-0.2771567
8	0x3def0313	0.11670508
9	0xbc5b2048	-0.013374396
10	0xbc8e5f30	-0.017379373
11	0x3e0672af	0.13129686
12	0xbe7a920d	-0.24469776
13	0x3bd856ef	0.00660216
14	0xbdc20c76	-0.09475033
15	0x3e3fcf19	0.18731345
16	0xbd81a59d	-0.06330416
17	0xbb5cf2cc	-0.0033714054
18	0xbd5249d2	-0.05133993
19	0xbe7071f8	-0.23480976
20	0x3daa88aa	0.08326848
21	0xbd94dba0	-0.07268453
22	0xbdfcb8c1	-0.123399265
23	0x3da57e95	0.08080784
24	0x3e14a4f8	0.14516056
25	0xbd3f2499	-0.04666576
26	0xbd848189	-0.06470019
27	0x3ca399f8	0.019970879
28	0xbc3cc4d9	-0.0115215415
29	0x3ddda0fa	0.108217195
30	0x3d991f49	0.0747667
31	0xbe609a4d	-0.21933861
32	0x3e2f6987	0.17130099
33	0xbdbfb9b8	-0.09361595
34	0xbe25dbaf	-0.16197084
35	0xbd982471	-0.07428826
36	0xbb8106f1	-0.003937595
37	0x3e466018	0.19372594
38	0xbe38e255	-0.18055089
39	0xbd8dfee6	-0.06933384
40	0xbe272b08	-0.16325009
41	0x3dccefd9	0.10006685
42	0xbd748d4c	-0.059705064
43	0xbedd7002	-0.43249518
44	0x3c22fc88	0.009947903
45	0x3c966eb4	0.018363334
46	0xbdaeca46	-0.08534674
47	0xbda1e038	-0.079040945
48	0x3e0ca7b1	0.13735844
49	0xbab49b46	-0.0013779185
50	0x3dc9a73b	0.0984635
51	0xbeb1acd5	-0.34702173
52	0xbdd37918	-0.10325831
53	0x3debd6cc	0.11515579
54	0xbe0ec218	-0.13941228
55	0x3e360d97	0.17778622
56	0xbcbc94ca	-0.023020167
57	0x3e7953c6	0.24348363
58	0xbafdf40c	-0.00193751
59	0xbe753ac2	-0.23948196
60	0x3e1d743a	0.15376368
61	0x3b3765ea	0.002798433
62	0x3cbfcf55	0.023414293
63	0x3d82bdc0	0.06383848
64	0xbec481d2	-0.38380295
65	0xbda68cc4	-0.08132318
66	0xbe690eb9	-0.22759522
67	0x3dc3b7be	0.095565304
68	0xbc2a84a3	-0.0104076
69	0x3e027228	0.1273886
70	0xbe1faf22	-0.15594152
71	0xbddd2950	-0.10798895
72	0x3da53108	0.080659926
73	0xbd677c05	-0.05651476
74	0xbcbe0a38	-0.023198232
75	0x3e2f0e17	0.17095219
76	0xbdaa1560	-0.08304858
77	0xbda1f3d6	-0.07907836
78	0x3e2564ee	0.16151783
79	0x3e0d461f	0.1379628
80	0xbccba5c6	-0.02485932
81	0xbe92f247	-0.28700468
82	0x3d924261	0.07141567
83	0xbdb422b1	-0.08795679
84	0xbe960f85	-0.29308715
85	0xbe7f523e	-0.24933717
86	0x3e144624	0.14479882
87	0xbebfc3dd	-0.3745412
88	0x3dc77a5e	0.097401366
89	0x3d1c68a2	0.038185723
90	0x3e8015af	0.25016543
91	0xbe6e5cd8	-0.23277605
92	0x3dae8a76	0.08522503
93	0xbd262140	-0.040559053
94	0xbd1b8e4f	-0.037977513
95	0xbdc6c98d	-0.097064115
96	0xbe9d227b	-0.3069037
97	0x3e04db4c	0.1297428
98	0x3cb63e12	0.022246394
99	0xbec5f9cc	-0.38667142
100	0xbe54412c	-0.20727986
101	0xbd2bd13d	-0.041947592
102	0x3d754f41	0.059890036
103	0xbd706de9	-0.05869857
104	0xbe0ecfb1	-0.13946415
105	0x3d98e70f	0.07465946
106	0x3c56373a	0.0130746905
107	0xbdee994c	-0.11650333
108	0x3ddd1fc0	0.107970715
109	0x3df45df0	0.1193198
110	0xbe76ced9	-0.24102344
111	0xbdc62400	-0.09674835
112	0x3d3ba62d	0.045812774
113	0xbd8da834	-0.06916848
114	0xbddade77	-0.10686963
115	0xbe224690	-0.1584723
116	0x3c199b56	0.009375414
117	0x3db05a1d	0.08610938
118	0xbea6c12d	-0.32569256
119	0xbdec7542	-0.11545803
120	0x3cec6971	0.028858872
121	0xbda85c9f	-0.08220791
122	0xbc3559bb	-0.011068757
123	0x3d4027d7	0.046912994
124	0x3e0ffe91	0.14061953
125	0xbd4d38cf	-0.050103005
126	0xbe21a6e9	-0.15786327
127	0xbe6dff52	-0.23241928
128	0xbba39a9f	-0.0049927975
129	0xbc3ea46f	-0.011635884
130	0xbe88be8b	-0.26707873
131	0xbc847472	-0.016168807
132	0xbe585b0b	-0.2112848
133	0xbea8c9c8	-0.32966447
134	0xbd86e109	-0.06585891
135	0x3db4380b	0.08799752
136	0xbb8ac361	-0.0042347168
137	0xbe252099	-0.16125716
138	0xbe2e99dd	-0.17050882
139	0x3dd9e932	0.106401816
140	0xbd1164d1	-0.035496537
141	0x3d10fe9e	0.035399072
142	0xbd5a1ed2	-0.05325205
143	0x3e81b5dd	0.25334063
144	0xbe4b6abe	-0.19864938
145	0xbcbf7b83	-0.023374325
146	0x3d741d8b	0.059598487
147	0xbdb8b7a2	-0.090194
148	0xbe4ded68	-0.20110095
149	0xbd7a9635	-0.061178405
150	0xbc2d85af	-0.010590955
151	0x3db55a74	0.08855143
152	0x3e039dea	0.12853208
153	0x3ddb61ae	0.1071199
154	0xbe04c342	-0.1296511
155	0x3e5826d7	0.21108566
156	0xbe2b91b3	-0.16754799
157	0xbc7ad04f	-0.015308454
158	0x3d6a2f2d	0.057173897
159	0xbe03e544	-0.12880427
160	0xbe9a443f	-0.30130193
161	0xbd90f11a	-0.070772365
162	0xbceb3f10	-0.028716594
163	0x3cf98c17	0.030462308
164	0x3d2a1334	0.04152222
165	0xbe16b151	-0.14716078
166	0x3e088184	0.13330656
167	0xbe0c0cc3	-0.13676743
168	0xbd14a8cf	-0.0362938
169	0xbd960c1f	-0.07326531
170	0xbe3f3c4c	-0.18675345
171	0x3db11658	0.0864684
172	0xbe901ed2	-0.28148514
173	0x3e1fec00	0.1561737
174	0x3d3a0ac6	0.04542043
175	0xbe4e57b1	-0.20150639
176	0xbdd80a20	-0.10548806
177	0xbdf2e668	-0.11860353
178	0x3daff870	0.085923076
179	0xbe5d9347	-0.21638213
180	0x3cf59085	0.029976139
181	0xba2301d0	-0.00062182266
182	0xbd5bc073	-0.05365033
183	0xbd930f60	-0.07180667
184	0xbd65dd49	-0.056119237
185	0x3e13a28a	0.14417472
186	0x3d1abd1f	0.037778016
187	0xbc6ddc8c	-0.0145179145
188	0xbd42c37a	-0.047549702
189	0xbba094bb	-0.0049005426
190	0xbe60a7f6	-0.21939072
191	0xbe77c81e	-0.24197432
192	0x3d4a4006	0.049377464
193	0x3c92d53c	0.017923944
194	0x3e2cf59c	0.16890568
195	0xbd8f354d	-0.06992588
196	0xbe1c3383	-0.15254025
197	0x3df12d09	0.11776168
198	0x3df1b7cf	0.11802637
199	0xbdb3fe40	-0.08788729
200	0xbdc1d2b5	-0.09464017
201	0x3de168bb	0.11006304
202	0xbdacc839	-0.08436627
203	0xbd1a34f5	-0.03764816
204	0xbe3fd0dc	-0.18732017
205	0xbe539110	-0.20660806
206	0xbe843e56	-0.2582881
207	0x3c7a2286	0.01526702
208	0x3dd41ec9	0.10357434
209	0x3dfc9b1d	0.12334273
210	0xbe1835ab	-0.14864223
211	0xbde6125d	-0.11233971
212	0x3e39e319	0.18153037
213	0xbcc5fb9c	-0.024167828
214	0xbe478bc3	-0.19486909
215	0xbe86580b	-0.26239046
216	0xbd2e5965	-0.042565722
217	0x3d8fe126	0.070253655
218	0xbd28cea2	-0.041212685
219	0x3e24a9d5	0.16080411
220	0xbc8436c8	-0.016139403
221	0x3da18d4c	0.07888278
222	0xbe590408	-0.21192944
223	0x3d48fc05	0.04906847
224	0xbe036fb9	-0.12835588
225	0xbcfba227	-0.030716969
226	0xbbd87fd8	-0.006607037
227	0x3e0bbc07	0.13645945
228	0x3ca14fdc	0.0196914
229	0xbea97bba	-0.33102208
230	0x3e174464	0.14772183
231	0xbdda65e7	-0.106639676
232	0x3ded6c9d	0.11592982
233	0xbec68eb3	-0.38780746
234	0x3d8b92cd	0.068151094
235	0xbe5e8501	-0.21730424
236	0x3dda0120	0.10644746
237	0xbdd3832a	-0.10327752
238	0x3e42d41a	0.19026223
239	0xbd3eeede	-0.04661452
240	0x3dad678f	0.08467018
241	0xbe7b0be7	-0.24516259
242	0x3e0c1135	0.13678439
243	0x3dd23101	0.10263253
244	0xbe8c5ea0	-0.27415943
245	0xbcaeac59	-0.021322416
246	0xbdd7db0e	-0.10539828
247	0xbdab6491	-0.08368791
248	0xbea743e7	-0.32668993
249	0x3de09bca	0.109672144
250	0x3d8b1fd5	0.06793181
251	0xbd967137	-0.07345813
252	0x3d151a21	0.03640187
253	0x3cd77053	0.026298678
254	0x3dfb14b9	0.12259812
255	0x3e2237df	0.15841626

conv.bias f4 [64]
0	0x3d813e95	0.06310765
1	0xbd43d7ad	-0.047813106
2	0xbe4e1440	-0.20124912
3	0xbe41f903	-0.18942647
4	0x3dd22f37	0.10262912
5	0xbe7091d0	-0.23493123
6	0xbe643cda	-0.22288838
7	0x3d14aba9	0.03629652
8	0x3d630222	0.055421956
9	0xbe25f468	-0.16206515
10	0xbe45fb9f	-0.19334267
11	0xbe66b12a	-0.2252852
12	0xbe1b4724	-0.15163857
13	0x3d806dbe	0.06270932
14	0xbe92cb86	-0.286709
15	0xbe41d99b	-0.18930666
16	0x3df3b537	0.11899798
17	0xbdffcebb	-0.124906026
18	0xbe0ffab2	-0.14060476
19	0xbe58ec4c	-0.2118389
20	0xbe2becae	-0.16789505
21	0xbd9d105b	-0.07669135
22	0xbe631335	-0.22175296
23	0x3eca70a4	0.39539063
24	0xbe2fe02c	-0.17175359
25	0xbe0c88f2	-0.13724115
26	0xbe4a24bd	-0.19740577
27	0xbe02fe2d	-0.12792273
28	0xbddae32c	-0.10687861
29	0xbdcde821	-0.10054041
30	0x3cb53ce8	0.022123769
31	0xbd7e3e57	-0.06207117
32	0x3d12de13	0.035856318
33	0x3d93dec7	0.07220226
34	0xbe3b44a5	-0.18287905
35	0x3d0ba071	0.034088556
36	0x3d23757b	0.03990696
37	0xbe682520	-0.22670412
38	0xbe91ec32	-0.28500515
39	0x3d40fe53	0.047117542
40	0x3df7a543	0.12092068
41	0x3dbda36e	0.09259687
42	0xbe448857	-0.19192635
43	0xbe8e7261	-0.2782164
44	0xbd9a6939	-0.07539601
45	0x3daf1b9d	0.08550189
46	0xbe8159f6	-0.25263947
47	0xbe3b6e5d	-0.18303819
48	0x3c6285b8	0.013825826
49	0xbe4fab8b	-0.20280282
50	0xbe490f12	-0.19634655
51	0xbe70a1eb	-0.23499267
52	0xbe11acb3	-0.14226036
53	0xbe31f70a	-0.17379394
54	0xbdc55032	-0.09634437
55	0x3c9e0351	0.01928869
56	0x3dda798c	0.106677145
57	0xbd9b5cb5	-0.07586042
58	0xbe30cd32	-0.17265776
59	0xbe53eda8	-0.20696127
60	0xbe6438d0	-0.22287297
61	0x3f0712e7	0.5276322
62	0x3d8e3b20	0.06944871
63	0x3d4553d2	0.04817564

bn1.weight f4 [64]
0	0x3f818046	1.0117271
1	0x3f6be35b	0.9214379
2	0x3f7869ae	0.97036254
3	0x3f88d8c5	1.0691153
4	0x3f693ffa	0.91113245
5	0x3f74937c	0.95537543
6	0x3f9311f0	1.1489849
7	0x3f6cd982	0.9251939
8	0x3f5131c8	0.81716585
9	0x3f749fc6	0.95556295
10	0x3f713113	0.94215506
11	0x3f8a2a02	1.079407
12	0x3f5535ef	0.8328542
13	0x3f60e4f7	0.8784937
14	0x3f83fd34	1.0311646
15	0x3f92dc87	1.147355
16	0x3f91d64d	1.1393524
17	0x3f7d1444	0.9885905
18	0x3f810485	1.0079504
19	0x3f8ea0df	1.1142844
20	0x3f90e98e	1.1321275
21	0x3f870819	1.0549346
22	0x3f8fbb57	1.1229047
23	0x3f6333a9	0.887507
24	0x3f801fdc	1.0009723
25	0x3f8a5a34	1.0808778
26	0x3f734fcb	0.9504363
27	0x3f725ffe	0.9467772
28	0x3f83a6e7	1.028531
29	0x3f8adacd	1.0848023
30	0x3f8a0f0a	1.078584
31	0x3f8467ff	1.0344237
32	0x3f82be3f	1.0214309
33	0x3f58941a	0.84600985
34	0x3f8399d6	1.0281322
35	0x3f75d942	0.96034634
36	0x3f8ffccd	1.1249024
37	0x3f8b0fe9	1.086423
38	0x3f862b40	1.0481949
39	0x3f6ab0a7	0.916758
40	0x3f73a5cd	0.95174867
41	0x3f7c1ab4	0.98478246
42	0x3f787ced	0.9706562
43	0x3f64e849	0.8941694
44	0x3f898cf6	1.0746143
45	0x3f70be1f	0.940401
46	0x3f89789f	1.0739936
47	0x3f8463af	1.0342921
48	0x3f6c9e39	0.9242893
49	0x3f7f012e	0.99611175
50	0x3f6fd115	0.9367841
51	0x3f8ace83	1.0844272
52	0x3f747a45	0.9549907
53	0x3f720846	0.94543874
54	0x3f6240db	0.8838021
55	0x3f6dfff8	0.929687
56	0x3f83aec7	1.0287713
57	0x3f502d41	0.8131905
58	0x3f86fa26	1.0545089
59	0x3f6e6d4b	0.9313552
60	0x3f6b9cd0	0.9203615
61	0x3f6b873c	0.92003226
62	0x3f8da4fa	1.1065972
63	0x3f78d98c	0.9720695

bn1.bias f4 [64]
0	0xbcce6549	-0.02519478
1	0x3cc964d6	0.024584215
2	0x3ba99d15	0.0051761963
3	0x3bc5ad08	0.00603259
4	0x3d0ca1bc	0.03433393
5	0x3d616a2f	0.055032905
6	0xba84a76f	-0.00101207
7	0xbbf60b49	-0.0075086695
8	0xbcb10fc0	-0.021613955
9	0x3d37f76c	0.044913694
10	0x3b69eda9	0.0035694635
11	0xbcd4242c	-0.025896154
12	0xbbe0bcc2	-0.006858439
13	0xbc4890d3	-0.01224156
14	0x3d038c98	0.032116503
15	0xbb73c6ea	-0.003719742
16	0x3c968e82	0.0183785
17	0xbcc8a343	-0.024491912
18	0x3befb776	0.0073155714
19	0xbce69132	-0.028145406
20	0xbc5b341a	-0.013379121
21	0x3d11a60d	0.03555875
22	0x3cd18a4d	0.025578642
23	0x3cfd880a	0.030948658
24	0x3ce96851	0.028492125
25	0xbc857a17	-0.016293569
26	0x3c5b9375	0.013401856
27	0x3cdbbdeb	0.026823958
28	0x3d2fffcc	0.042968556
29	0x3ce85980	0.02836299
30	0x3b46bb96	0.0030324212
31	0xbc7e54dd	-0.015523163
32	0xbd720816	-0.059089743
33	0xbc6a4c04	-0.01430035
34	0x3b47af5e	0.0030469517
35	0x3ccc2d28	0.024923876
36	0x3ca2786a	0.019832809
37	0x3d4f6fb8	0.050643653
38	0x3cb6fb11	0.022336515
39	0xbb264bfe	-0.0025374885
40	0xbcefe1fe	-0.029282566
41	0xbcec5201	-0.028847696
42	0x3ba24482	0.0049520144
43	0x3d26d7da	0.040733196
44	0x3d0a1107	0.033707645
45	0x3c43b9b7	0.011946133
46	0xbb820864	-0.0039682854
47	0x3cb6717b	0.022270909
48	0x3d300da7	0.04298177
49	0xbbd6bd2c	-0.0065533128
50	0xbc26d596	-0.010182759
51	0x3c4c4f4f	0.0124700805
52	0xba3503cb	-0.0006905167
53	0x3c95dd43	0.018293982
54	0x3be786ca	0.0070656287
55	0x3d0d54d2	0.03450472
56	0x3d33c4ac	0.043888733
57	0xbcf9ba8a	-0.030484457
58	0xbcd838d1	-0.02639428
59	0xbc28efbb	-0.010311062
60	0x3be1b6c6	0.0068882434
61	0xbcdc3dca	-0.026884932
62	0x3cf236f5	0.029567221
63	0x3c001bfc	0.007819172

bn1.running_mean f4 [64]
0	0x3d5b3c52	0.053524323
1	0x3d9451a6	0.07242136
2	0x3d66412b	0.056214493
3	0x3d872f34	0.066008
4	0x3d95d299	0.07315559
5	0x3c4d1957	0.0125182485
6	0x3c458c41	0.012057365
7	0x3d3b2234	0.045686916
8	0x3e004682	0.12526897
9	0x3d9ed894	0.07756153
10	0x3dba6f3f	0.0910325
11	0x3cb18836	0.021671396
12	0x3e6d6312	0.23182324
13	0x3d973005	0.07382206
14	0x3c06eb61	0.00823483
15	0x3d663ebc	0.056212172
16	0x3da8be87	0.08239465
17	0x3d0e9610	0.03481108
18	0x3da70653	0.08155503
19	0x3c7e92cc	0.015537929
20	0x3d4543c2	0.048160322
21	0x3d8a62bd	0.06757114
22	0x3cd41128	0.025887087
23	0x3ebd2d65	0.36948696
24	0x3d355958	0.044274658
25	0x3c398e41	0.01132542
26	0x3d56e60d	0.052465487
27	0x3d8e0dea	0.06936248
28	0x3c998104	0.018738277
29	0x3db38707	0.08765989
30	0x3d019e16	0.031644903
31	0x3d3cfd34	0.04613991
32	0x3d35d72f	0.04439467
33	0x3d79e060	0.061004996
34	0x3c43ba42	0.011946263
35	0x3da14871	0.07875145
36	0x3d27a553	0.04092915
37	0x3b8648fc	0.004098056
38	0x3cb69551	0.022287996
39	0x3deeb086	0.11654763
40	0x3dc77a6d	0.09740148
41	0x3dc873cc	0.097877115
42	0x3c9fc862	0.01950473
43	0x3cc306d0	0.02380696
44	0x3b7b9e6e	0.0038393992
45	0x3d9b7bff	0.0759201
46	0x3ca72ead	0.020407999
47	0x3b9a19b0	0.004702769
48	0x3d2a2fc7	0.04154947
49	0x3b1f7995	0.0024333943
50	0x3cf87eb2	0.03033385
51	0x3d00f5f8	0.031484574
52	0x3d2d869d	0.042364705
53	0x3d59eee2	0.053206332
54	0x3db01041	0.0859685
55	0x3cb1a9d7	0.021687431
56	0x3daad093	0.083405636
57	0x3e458ac9	0.19291224
58	0x3cc8cdd9	0.024512218
59	0x3cd4f294	0.025994577
60	0x3d3d8f0a	0.04627899
61	0x3f08081b	0.5313737
62	0x3d60107f	0.054703232
63	0x3d449221	0.047990922

bn1.running_var f4 [64]
0	0x3bde3940	0.006781727
1	0x3c572796	0.013131997
2	0x3c2aaa5f	0.010416596
3	0x3c5df08c	0.01354612
4	0x3c21fe71	0.009887324
5	0x3b078b31	0.002068233
6	0x3b09e5d5	0.0021041532
7	0x3bb5fcf0	0.005553834
8	0x3cb14d25	0.02164323
9	0x3c67fa9d	0.014158872
10	0x3c567227	0.0130887395
11	0x3b568ba5	0.0032737043
12	0x3d4746aa	0.048651375
13	0x3c258481	0.010102392
14	0x3aa33a2d	0.0012453251
15	0x3c2395b7	0.009984425
16	0x3c17eb34	0.009272385
17	0x3bc4f17e	0.0060102334
18	0x3c85b690	0.016322404
19	0x3b2ec4a5	0.0026667502
20	0x3c2690a9	0.010166326
21	0x3c23409e	0.009964136
22	0x3badd5bb	0.0053050197
23	0x3c974dec	0.018469773
24	0x3bce4cb9	0.006295767
25	0x3af4d418	0.0018678932
26	0x3c175e3c	0.009238776
27	0x3c5c1177	0.013431898
28	0x3b6a58be	0.003575846
29	0x3c7a0dde	0.015262095
30	0x3b9a642f	0.00471165
31	0x3bd5d9c8	0.0065262057
32	0x3bd64e2f	0.006540082
33	0x3bf1ba21	0.0073769246
34	0x3b0a79fc	0.0021129837
35	0x3c5beaa6	0.013422644
36	0x3b9bb77b	0.004752097
37	0x3a15c6e0	0.00057135336
38	0x3b84e2f3	0.004055375
39	0x3c9947fc	0.018711083
40	0x3c5ad8a2	0.013357313
41	0x3c1f6b3f	0.009730159
42	0x3b4191ac	0.002953629
43	0x3b60163b	0.0034192938
44	0x3a05bfd6	0.0005102133
45	0x3c207f34	0.009795953
46	0x3b46bb7f	0.0030324159
47	0x3a33ee86	0.0006863851
48	0x3c05a815	0.00815775
49	0x399d369d	0.00029986064
50	0x3b914926	0.004433769
51	0x3baa9186	0.005205336
52	0x3c090513	0.008363026
53	0x3c0679fb	0.008207793
54	0x3c836980	0.016041517
55	0x3b593510	0.00331432
56	0x3c447c6d	0.011992556
57	0x3d212cd1	0.03934938
58	0x3b83b67b	0.004019556
59	0x3b9440a3	0.004524307
60	0x3c1c08dd	0.009523598
61	0x3c8fda14	0.017560042
62	0x3be1f239	0.0068953303
63	0x3c026952	0.007959681

fc1.weight f4 [64, 64]
0	0xbd9a9b83	-0.07549193
1	0xbe2d9ad8	-0.169536
2	0x3ddd4842	0.10804798
3	0x3d775016	0.06037911
4	0x3de69cc3	0.11260369
5	0xbc71be62	-0.014754863
6	0x3d809684	0.062787086
7	0x3d3c4073	0.0459599
8	0x3db1f96b	0.08690151
9	0xbe2e06e9	-0.16994824
10	0x3dca5806	0.098800704
11	0xbca92538	-0.02064763
12	0x3da538cb	0.08067473
13	0x3d9bdc45	0.076103725
14	0x3d55b607	0.052175548
15	0x3e4da027	0.20080625
16	0xbd1736e6	-0.03691759
17	0xbc677b22	-0.014128478
18	0xbd926490	-0.07148087
19	0xbd15718b	-0.036485236
20	0xbe14c373	-0.14527683
21	0x3df56fbe	0.11984204
22	0xbe9ba89d	-0.3040208
23	0x3d34f977	0.04418322
24	0xbddc99f8	-0.10771555
25	0x3cec51bb	0.028847566
26	0xbe448298	-0.19190443
27	0xbcb42961	-0.021992387
28	0xbcba6288	-0.022752061
29	0xbcaf08dc	-0.02136653
30	0xbd3e8477	-0.046513047
31	0x3cdf21fb	0.027237883
32	0xbde2f006	-0.11080937
33	0x3dbb4021	0.09143091
34	0x3d544a00	0.051828384
35	0xbcf8210c	-0.030289195
36	0xbc7bc296	-0.015366217
37	0x3dd94a5f	0.10609888
38	0x3e0fd363	0.14045481
39	0x3e433cc3	0.19066148
40	0x3ce46127	0.027878357
41	0x3d6d588a	0.057945766
42	0x3c95d2d6	0.018289011
43	0x3b7f9cb0	0.0039003305
44	0x3d7643fe	0.060123436
45	0x3dc88b45	0.097921886
46	0xbab2e939	-0.0013649828
47	0xbe693ea7	-0.22777806
48	0x3d919272	0.0710801
49	0x3cde4a35	0.027134994
50	0x3d107a64	0.03527297
51	0xbcb1ccaf	-0.021704046
52	0x3b7554cf	0.0037434583
53	0xbc3d0e19	-0.011539006
54	0xbd8b7564	-0.068095
55	0x3df23c1d	0.11827872
56	0xbdf0a192	-0.11749567
57	0xbd931daf	-0.07183396
58	0x3dd603b4	0.10449925
59	0x3ca2aaa8	0.019856766
60	0xbdd59000	-0.104278564
61	0x3d68d211	0.05684096
62	0xbc9ce046	-0.01914991
63	0x3bf56784	0.0074891467
64	0xbe327dba	-0.17430773
65	0x3c8f9049	0.017524855
66	0x3cc8e11b	0.024521401
67	0x3e83c2c8	0.25734544
68	0x3d8190af	0.06326424
69	0xbd90bc78	-0.070671976
70	0x3d2e0a62	0.04249037
71	0x3c4ff8b3	0.012693572
72	0xbdd3bbf9	-0.10338587
73	0xbc0f6a68	-0.008753397
74	0x3e60acd8	0.21940935
75	0x3dd1df43	0.10247662
76	0xbdb3f958	-0.08787793
77	0xbde3c7ab	-0.11122068
78	0xbe0752a4	-0.13215119
79	0x3e2e1fc3	0.17004304
80	0x3e161b0a	0.14658752
81	0x3dbb2944	0.0913873
82	0x3d8899ed	0.06669984
83	0x3d185e4d	0.037199307
84	0xbd817789	-0.06321628
85	0xbe3a7872	-0.18210009
86	0x3caaf796	0.020870011
87	0x3d91a549	0.07111604
88	0xbd989b62	-0.07451512
89	0x3da39aa2	0.07988478
90	0xbc7461f4	-0.014915932
91	0x3db762d2	0.08954395
92	0xbd8d6bd7	-0.069053344
93	0x3da7c9a0	0.08192754
94	0xbbb4d309	-0.0055183214
95	0xbd4b3799	-0.04961357
96	0xbcaaee19	-0.020865487
97	0x3cafcfe9	0.021461444
98	0xbc0bd140	-0.008533776
99	0xbcc802a5	-0.024415324
100	0x3e1f6b3e	0.15568253
101	0x3d5e6c56	0.054302536
102	0xbd92c7fb	-0.071670495
103	0xbd84056a	-0.06446345
104	0x3d8a5d1e	0.06756042
105	0x3dcf650d	0.10126696
106	0xbcab9ea7	-0.020949675
107	0xbc51bfd0	-0.012802079
108	0xbd144190	-0.036195338
109	0x3c456079	0.012046927
110	0x3e26fa0e	0.16306326
111	0xbeaa920c	-0.3331455
112	0xbc5c3fd8	-0.013442956
113	0xbde81842	-0.11332752
114	0xbd0f8507	-0.035038974
115	0x3d6c0ee1	0.057631377
116	0x3aa3357b	0.0012451852
117	0xbdc89fa2	-0.097960725
118	0xbd6cff6a	-0.05786077
119	0x3db978ff	0.09056281
120	0xbcd0a9a4	-0.025471516
121	0xbcc6bf97	-0.024261279
122	0x3d6d8269	0.057985697
123	0x3d20b3b8	0.039233893
124	0xbdf75683	-0.12077048
125	0x3ddaca4a	0.10683115
126	0x3e0303df	0.12794445
127	0x3def8248	0.11694771
128	0x3dc2adc9	0.09505803
129	0x3d5f807f	0.054565903
130	0xbe11faae	-0.14255783
131	0x3d6cbfa6	0.057799958
132	0xbc067caf	-0.008208438
133	0x3e017d8f	0.12645553
134	0x3da040df	0.07824873
135	0xbdd63dc3	-0.10460999
136	0xbd63d41f	-0.055622216
137	0xbdad913f	-0.08474969
138	0x3dce4582	0.10071851
139	0xbdd208c0	-0.10255575
140	0x3d749faa	0.05972258
141	0x3d2b78eb	0.041863363
142	0x3d7f4eb8	0.06233093
143	0xbdb48447	-0.088142924
144	0x3d5d029f	0.053957578
145	0x3d7e4b7c	0.062083706
146	0xbdffd4b5	-0.124917425
147	0x3da0ae42	0.07845737
148	0x3b42a482	0.0029700105
149	0x3dda2c42	0.10652973
150	0xbcd58b90	-0.026067525
151	0xbdcb1fb1	-0.09918154
152	0x3e1efc72	0.15525988
153	0x3d1eaac1	0.038737062
154	0x3c101588	0.008794196
155	0xbc82b54e	-0.015955593
156	0xbce0dcc3	-0.027449017
157	0xbdae7359	-0.085180946
158	0x3daa0bec	0.08303055
159	0xbb340674	-0.0027469667
160	0xbd2f89f0	-0.042856157
161	0x3dfac4b5	0.1224455
162	0x3d8f4d3b	0.069971524
163	0x3da746d6	0.08167808
164	0x3db60232	0.088871375
165	0xbd943171	-0.07235993
166	0x3d5ac514	0.053410605
167	0x3c836766	0.016040515
168	0x3d32646b	0.043552797
169	0x3c12dbac	0.008963507
170	0x3cf890eb	0.03034254
171	0x3d02d6d3	0.031943154
172	0x3d3e2522	0.04642213
173	0xbe121ffe	-0.14270017
174	0xbd2eb518	-0.042653173
175	0xbdba346c	-0.0909203
176	0x3c8621fe	0.01637363
177	0x3e1eceb9	0.15508546
178	0xbce575b2	-0.028010223
179	0xbe69c12b	-0.22827594
180	0xbdb56c41	-0.088585384
181	0xbd8f3c8b	-0.069939695
182	0xbd8ed60c	-0.0697442
183	0x3cc6aae6	0.024251413
184	0xbe048e8f	-0.12945007
185	0xbd5d5b62	-0.054042228
186	0xbc42c911	-0.011888758
187	0x3e8cdddd	0.27513018
188	0x3dd6bda8	0.10485393
189	0x3cccbdab	0.024992784
190	0x3c984f93	0.018592631
191	0xbdde8d54	-0.108668
192	0xbd9f7611	-0.07786191
193	0xbd517587	-0.051137473
194	0xbe0646b3	-0.13112907
195	0x3ca0a682	0.019610647
196	0x3db12ede	0.08651517
197	0xbe5e1fc3	-0.21691804
198	0xbdba6a01	-0.0910225
199	0xbe09694b	-0.13419072
200	0xbd83dc98	-0.06438559
201	0x3c62b770	0.01383768
202	0xbc807ab6	-0.015683513
203	0x3d4e201b	0.050323587
204	0x3e02e2fb	0.12781899
205	0xbdd81ebc	-0.10552737
206	0xbcefc733	-0.02926979
207	0xbc9e182c	-0.019298635
208	0xbcdaa9ef	-0.026692359
209	0x3e046497	0.12928997
210	0x3e0f94a4	0.14021546
211	0xbd0a5160	-0.03376901
212	0xbd6901af	-0.05688637
213	0xbd5f4c04	-0.054515854
214	0xbdd4772b	-0.10374292
215	0xbcf7020c	-0.030152343
216	0xbda6e295	-0.08148686
217	0x3d7a99e2	0.06118191
218	0xbd8362ca	-0.06415327
219	0xbe092a55	-0.13395055
220	0x3d27663e	0.04086899
221	0x3d40fb69	0.047114763
222	0x3d7d8df2	0.061902948
223	0xbcf9a4a6	-0.030474018
224	0xbd25efdf	-0.040511962
225	0xbc661961	-0.014044137
226	0xbde34c63	-0.11098554
227	0x3d5e9057	0.054336872
228	0xbce4c7a4	-0.027927227
229	0x3a7c1e85	0.0009617585
230	0x3dad0e57	0.08450001
231	0x3c7b71bf	0.015346943
232	0x3d1c9240	0.038225412
233	0xbd9ca5db	-0.07648822
234	0xbe39e091	-0.18152072
235	0xbd877d99	-0.06615753
236	0xbc88cecd	-0.016700173
237	0x3cce5ef7	0.025191767
238	0xbcd1dcad	-0.025617922
239	0x3b3bc12b	0.0028649073
240	0x3ca9566d	0.020671094
241	0x3d74110d	0.059586573
242	0x3d030075	0.031982858
243	0x3df34df4	0.11880103
244	0x3d0843dd	0.033267844
245	0x3e0cb2a2	0.13740018
246	0xbd1c9986	-0.03823235
247	0xbd901a38	-0.07036251
248	0x3d19354e	0.03740435
249	0x3ce733b0	0.028222889
250	0x3e215923	0.15756659
251	0xbdd384f5	-0.10328094
252	0xbd646367	-0.05575886
253	0xbd09f223	-0.033678185
254	0x3d7e74e6	0.0621232
255	0x3c41bc7d	0.011824724

fc1.bias f4 [64]
0	0x3c5c7857	0.013456426
1	0xbd8f09a0	-0.06984258
2	0x3d50c0c4	0.050965086
3	0xbdd6b89f	-0.104844324
4	0xbc187160	-0.009304374
5	0x3cc58e5c	0.024115734
6	0x3e9d85c0	0.30766106
7	0xbd93c741	-0.07215739
8	0x3d758ac3	0.059946787
9	0xbe0302c1	-0.1279402
10	0xbdf94fc0	-0.12173414
11	0x3d47ded5	0.048796494
12	0xbdeb884f	-0.11500608
13	0xbe0a8c5a	-0.13530102
14	0xbd3107aa	-0.0432202
15	0x3d267b41	0.040644888
16	0xbddf7126	-0.10910253
17	0x3da3f226	0.080051705
18	0x3d819dcf	0.06328928
19	0x3d673c19	0.056453798
20	0x3d3fa9e8	0.046792895
21	0x3bd5dc71	0.006526523
22	0xbcb63bbb	-0.022245279
23	0xbd97dd57	-0.07415264
24	0x3b1f6b3a	0.0024325387
25	0xbc11def9	-0.0089032585
26	0x3d88a3ed	0.06671891
27	0x3b77911c	0.00377757
28	0xbe01bf4e	-0.12670633
29	0xbdcfb1a3	-0.101413034
30	0x3c8db809	0.017299669
31	0x3d3b4821	0.045723084
32	0xbda5f5a2	-0.08103491
33	0x3d23d07b	0.039993744
34	0xbd69af28	-0.057051808
35	0x3aad98ef	0.001324443
36	0xbde24f20	-0.11050248
37	0xbd37dd92	-0.04488904
38	0xbc52bb1e	-0.012861995
39	0xbd9c33f4	-0.07627097
40	0xbddbf6ea	-0.107404545
41	0xbdeed3e7	-0.11661511
42	0x3bd1eeac	0.0064066257
43	0xbdb991e9	-0.09061033
44	0xbe129bd8	-0.14317262
45	0x3e195fa0	0.14977884
46	0x3d2ecfd0	0.042678654
47	0x3cebbebd	0.028777475
48	0x3d5df244	0.05418612
49	0xbbf5793c	-0.007491259
50	0xbd4598a9	-0.04824129
51	0x3c2df952	0.010618525
52	0xbdaa2a6b	-0.08308872
53	0x3c3b3726	0.011426723
54	0xbcaebe86	-0.021331083
55	0x3d61bbde	0.055110805
56	0x3cf4bb67	0.029874517
57	0xba614742	-0.0008593687
58	0xbd56b290	-0.052416384
59	0xbd4cb0ff	-0.049973484
60	0x3ddeedcc	0.108852
61	0x3bdadc1d	0.0066790716
62	0x3d077f34	0.033080295
63	0x3d875e0e	0.066097364

bn2.weight f4 [64]
0	0x3fa87225	1.3159834
1	0x3f9c5bcb	1.2215513
2	0x3f9ac088	1.2090006
3	0x3f994598	1.1974363
4	0x3fa8445e	1.3145864
5	0x3f92f650	1.1481419
6	0x3f8a2c44	1.0794759
7	0x3f9b74cb	1.2145017
8	0x3f9535fe	1.1657102
9	0x3f98442b	1.1895803
10	0x3f96be1f	1.177677
11	0x3f9e71af	1.2378443
12	0x3fa90615	1.3204981
13	0x3fa29433	1.2701477
14	0x3faa3e92	1.3300345
15	0x3fa8281c	1.313724
16	0x3fc339f9	1.5252067
17	0x3fb1d172	1.3892043
18	0x3f9b8d6d	1.2152535
19	0x3fae1406	1.3599861
20	0x3fa41c0f	1.2821063
21	0x3f944d4d	1.158609
22	0x3fb47ad6	1.4099987
23	0x3f97193c	1.1804576
24	0x3fba78f4	1.4568162
25	0x3f963810	1.1735859
26	0x3f953389	1.1656352
27	0x3fa60ab8	1.2972021
28	0x3f8f56d0	1.1198368
29	0x3f9dafee	1.2319314
30	0x3fae1952	1.3601477
31	0x3f924e74	1.1430192
32	0x3fa246e1	1.267788
33	0x3fb3f3f7	1.4058827
34	0x3fa69cb6	1.3016574
35	0x3fa2bbae	1.2713525
36	0x3f9407ba	1.1564858
37	0x3f858a60	1.0432854
38	0x3f9b65f1	1.2140485
39	0x3f969439	1.1763984
40	0x3f951d75	1.1649615
41	0x3f94613e	1.1592176
42	0x3fa59c99	1.2938415
43	0x3f93eb1f	1.1556128
44	0x3f988558	1.1915693
45	0x3f835b3b	1.0262216
46	0x3f9971c6	1.1987846
47	0x3fb8ee58	1.4447737
48	0x3fb7b50a	1.4352124
49	0x3f991184	1.195847
50	0x3f90e912	1.1321127
51	0x3f998ab0	1.1995449
52	0x3f8b56b1	1.0885831
53	0x3f95bebe	1.1698835
54	0x3fa70719	1.3049041
55	0x3faa3b85	1.3299414
56	0x3fb18344	1.3868184
57	0x3f9b206c	1.2119269
58	0x3f94b39f	1.1617316
59	0x3f91cca8	1.1390581
60	0x3f92ba53	1.1463112
61	0x3f936af0	1.151701
62	0x3fafe79a	1.3742554
63	0x3f93f583	1.1559299

bn2.bias f4 [64]
0	0x3bfaef0b	0.0076578907
1	0xbbd9d0f3	-0.006647223
2	0xbbf5ff7f	-0.007507264
3	0xbc001897	-0.007818363
4	0x3bee8d33	0.007280016
5	0xbbd924c2	-0.0066266963
6	0xbbf156df	-0.007365092
7	0xbbb46291	-0.005504914
8	0xbbcd2173	-0.006260091
9	0xbbd77c4c	-0.0065760966
10	0x3bc28fba	0.0059375437
11	0xbbdee660	-0.006802365
12	0xbbec8208	-0.0072176494
13	0x3bd653a9	0.006540735
14	0x3c910cb3	0.01770625
15	0xbc3ef00f	-0.011653914
16	0xbbcc91af	-0.006242953
17	0xbbdfef45	-0.006833943
18	0xbbd52ff9	-0.006505963
19	0xbbcabab2	-0.0061868066
20	0xbbf5e890	-0.0075045303
21	0xbbda20f7	-0.0066567617
22	0x3c0c94eb	0.008580427
23	0x3bf64731	0.007515811
24	0x3bcf7444	0.0063309986
25	0xbbd58380	-0.00651592
26	0xbbceebe9	-0.006314744
27	0xbbe0e7f5	-0.006863589
28	0xbbe1e91e	-0.006894245
29	0x3bdeb1d6	0.006796102
30	0x3c0a6d2a	0.008448878
31	0xbbd3e80b	-0.0064668707
32	0x3b905b98	0.00440545
33	0x3c1cafd9	0.00956341
34	0xbbbbf3da	-0.0057358565
35	0x3befc336	0.007316972
36	0xbbd934bf	-0.0066286023
37	0xbbd02321	-0.006351844
38	0x3bf0d921	0.0073501025
39	0xbc0c332a	-0.00855712
40	0xbbe79d8c	-0.0070683416
41	0x3bcb8c5b	0.0062118
42	0x3bf68e90	0.007524319
43	0xbc0053d3	-0.007832485
44	0x3be6cee1	0.007043705
45	0xbc10551b	-0.008809353
46	0xbbe3753f	-0.006941467
47	0x3bea8949	0.007157479
48	0x3c10dd8d	0.008841884
49	0xbbe10339	-0.0068668392
50	0xbbe8b551	-0.0071016927
51	0xbc00b433	-0.007855463
52	0xbbdf1ea3	-0.006809072
53	0xbbd7046c	-0.0065618064
54	0x3bdd14ee	0.00674688
55	0x3bcc7aa1	0.0062402044
56	0x3bff1b9b	0.0077852733
57	0xbbdbe115	-0.0067101815
58	0xbbf58465	-0.0074925893
59	0xbbcf7cb0	-0.0063320026
60	0xbbe13990	-0.006873317
61	0xbbd9ad25	-0.006642955
62	0xbc00d9ba	-0.00786441
63	0xbbe334fc	-0.0069338065

bn2.running_mean f4 [64]
0	0x3d11369f	0.03545248
1	0x3c95ff07	0.018310083
2	0x3d8f4389	0.06995303
3	0x39f12746	0.00045996363
4	0x3cd1f1ff	0.025628088
5	0x3d65724a	0.056017198
6	0x3ea105a1	0.31449607
7	0x3c89e73d	0.016833896
8	0x3d70295c	0.058633193
9	0x3bbed96c	0.0058242586
10	0x3bb21e58	0.005435746
11	0x3d89da3f	0.0673108
12	0x3ca0e622	0.019640986
13	0x39d0db26	0.0003983613
14	0x3c2dc92d	0.010607046
15	0x3daf678a	0.085646704
16	0x39c49fc5	0.0003750307
17	0x3dd0cf1c	0.10195753
18	0x3dba7be7	0.09105664
19	0x3d74e1d5	0.059785683
20	0x3d546700	0.05185604
21	0x3cd55ee2	0.02604622
22	0x3d15b833	0.03655262
23	0x3c2a3ce7	0.010390497
24	0x3d5505d5	0.052007515
25	0x3c8796e0	0.016551435
26	0x3d9b8aea	0.07594855
27	0x3ce0dc3e	0.02744877
28	0x39e29b3f	0.00043221746
29	0x3c5f9248	0.013645716
30	0x3d0f045e	0.034916274
31	0x3d517b0b	0.051142734
32	0x3c66e1bc	0.014091905
33	0x3d67eed7	0.05662426
34	0x3b18d8f4	0.0023322674
35	0x3ca48b21	0.020085873
36	0x3c731b93	0.014838117
37	0x3cd4d8e5	0.02598233
38	0x3caecbc7	0.021337403
39	0x3c491fa0	0.012275606
40	0x3bc27253	0.0059340387
41	0x39f1e558	0.00046137976
42	0x3cf251a8	0.029579952
43	0x3cee364e	0.029078629
44	0x3b00fd2e	0.0019682157
45	0x3e128aa6	0.14310703
46	0x3d334017	0.043762293
47	0x3d5e624a	0.054292955
48	0x3d7950fc	0.06086825
49	0x3d1c1bcc	0.038112447
50	0x3cdb9f9f	0.026809512
51	0x3d05808d	0.0325933
52	0x3c8506b2	0.016238544
53	0x3d173216	0.036913
54	0x3cf4be9e	0.02987605
55	0x3daa97f7	0.08329766
56	0x3d23f308	0.040026695
57	0x3d03d46f	0.032185014
58	0x3ca72251	0.020402106
59	0x3c5a8027	0.013336218
60	0x3ddc395a	0.107531264
61	0x3d1ea3d7	0.03873047
62	0x3d5abc40	0.053402185
63	0x3db53482	0.08847906

bn2.running_var f4 [64]
0	0x3b32d320	0.0027286485
1	0x3abe0a8b	0.0014498992
2	0x3bc1b9f4	0.00591206
3	0x3801a22e	3.090704e-05
4	0x3b2b8585	0.0026172113
5	0x3b94f384	0.004545631
6	0x3c65407e	0.013992427
7	0x3a977170	0.0011554193
8	0x3b9bdb0d	0.0047563375
9	0x39c827ba	0.0003817657
10	0x39c87835	0.00038236534
11	0x3b6f9c82	0.0036561792
12	0x3b0328f0	0.0020013414
13	0x37e07edf	2.676196e-05
14	0x3a26c971	0.00063624146
15	0x3bdfb959	0.006827515
16	0x37dbe63a	2.6214042e-05
17	0x3bc4fb26	0.0060113845
18	0x3c2a7d6f	0.010405882
19	0x3b4c1da7	0.0031145604
20	0x3b3ca4f9	0.0028784855
21	0x3aa702da	0.0012741939
22	0x3b6a2c3c	0.0035731932
23	0x3a55be5a	0.000815367
24	0x3bc04b62	0.0058683613
25	0x3a7863f0	0.0009475341
26	0x3baec627	0.00533368
27	0x3b3401ab	0.0027466814
28	0x375d4b1f	1.3190117e-05
29	0x3a806f89	0.0009798865
30	0x3b089088	0.00208381
31	0x3b4f12d1	0.0031596909
32	0x3a936cb5	0.0011247607
33	0x3b4c9453	0.0031216338
34	0x3928781a	0.0001606647
35	0x3ad43c4c	0.0016192286
36	0x3aadfa5d	0.0013273467
37	0x3ad53eb1	0.0016269294
38	0x3ab3ceb3	0.0013718217
39	0x3a50ac4f	0.00079602463
40	0x39dcff3e	0.0004215184
41	0x37788cda	1.48147465e-05
42	0x3afc5780	0.0019252151
43	0x3b3ddbc7	0.0028970109
44	0x38daf27f	0.000104402185
45	0x3bb2dae8	0.0054582246
46	0x3b2181af	0.0024643948
47	0x3b982ab9	0.004643765
48	0x3bbfc78d	0.0058526457
49	0x3b43be08	0.0029867906
50	0x3b087f5b	0.0020827863
51	0x3b2834a6	0.0025666147
52	0x3a98c37b	0.0011654937
53	0x3b605324	0.0034229243
54	0x3b213583	0.0024598546
55	0x3c01a293	0.007912296
56	0x3b480ef5	0.0030526493
57	0x3b331f77	0.0027331987
58	0x3ac6d6e9	0.0015170249
59	0x3a522feb	0.00080180046
60	0x3b9c4f78	0.0047702156
61	0x3b725a8a	0.0036980235
62	0x3b613055	0.0034361084
63	0x3c1077e9	0.008817651

fc2.weight f4 [1, 64]
0	0x3ed0b03a	0.4075945
1	0xbe5e8c10	-0.21733117
2	0xbe69c689	-0.22829641
3	0xbe4cd21c	-0.20002025
4	0x3ec8e90d	0.39240304
5	0xbe7c3aad	-0.24631758
6	0xbe0427f1	-0.12905861
7	0xbe646ce6	-0.22307166
8	0xbe91ff3e	-0.28515047
9	0xbe84c9ec	-0.25935304
10	0x3e866010	0.26245165
11	0xbe98d481	-0.29849628
12	0xbec8e8ea	-0.392402
13	0x3ebb4941	0.36579326
14	0x3e96e380	0.29470444
15	0xbea4a09d	-0.32153788
16	0xbf186b1b	-0.5953843
17	0xbedfa381	-0.4367943
18	0xbe8afb15	-0.27144685
19	0xbec3a934	-0.3821503
20	0xbea74e25	-0.32676807
21	0xbe82fa61	-0.2558165
22	0x3ef5c378	0.48000693
23	0x3e6c2032	0.23059157
24	0x3f108733	0.564563
25	0xbe746ea2	-0.23870328
26	0xbe506c48	-0.20353806
27	0xbeaf9b87	-0.34298345
28	0xbe2b5929	-0.1673323
29	0x3e972c63	0.29526052
30	0x3eb69927	0.3566372
31	0xbe2eb102	-0.1705971
32	0x3ea942de	0.33058828
33	0x3ecd52c5	0.4010221
34	0xbeb63410	-0.35586596
35	0x3e9b027d	0.30275336
36	0xbe4de552	-0.2010701
37	0xbe22b9fc	-0.1589126
38	0x3ea9e530	0.3318267
39	0xbe3b6299	-0.18299331
40	0xbe49cd1a	-0.19707146
41	0x3e7deec3	0.24798112
42	0x3ebe165c	0.37126434
43	0xbe271565	-0.16316755
44	0x3e8684e3	0.2627326
45	0xbdc09867	-0.094040684
46	0xbe68fe23	-0.22753195
47	0x3f02ed8f	0.51143736
48	0x3ee636c9	0.44963673
49	0xbea07d56	-0.31345624
50	0xbe657f40	-0.22411823
51	0xbe56a086	-0.20959672
52	0xbe1cedae	-0.15325043
53	0xbe510463	-0.2041183
54	0x3eda9dc0	0.4269848
55	0x3ebc49df	0.3677511
56	0x3ed29b6d	0.41134205
57	0xbe7c51a5	-0.2464052
58	0xbe4d16e8	-0.2002827
59	0xbe7463ea	-0.23866239
60	0xbe729bab	-0.23692195
61	0xbe8cdbdc	-0.2751149
62	0xbede09d6	-0.4336688
63	0xbe821776	-0.25408524
