result/dee_phage/400_800/fold_1/20250501-015405/800_0.0001_32_model.pt (torch, 31483 bytes, 13 tensors)

conv.weight f4 [64, 4, 6]
0.05852349 0.173028 -0.018409431 0.0717337 -0.027996434 0.12725452 -0.30134484 0.061650578
-0.29499614 0.15566395 -0.046129733 -0.377049 0.0945952 -0.119569 -0.14855348 -0.16677107
0.031933866 0.117483236 -0.16272189 -0.32925105 0.083867274 0.06438495 -0.3524052 -0.3683006
0.084549576 0.03158473 -0.14836383 -0.4867706 -0.04198594 -0.020503476 -0.22681771 -0.073345356
0.11090974 0.07292453 -0.112924986 -0.1318092 -0.23654282 -0.30203292 -0.16342248 -0.15673658
0.07414465 0.101672895 -0.056644343 0.04572412 -0.024062302 0.019782407 -0.5108804 -0.12835343
0.08937689 0.09117812 -0.2467098 0.048077796 -0.15166387 -0.12520899 -0.18785179 -0.32059744
0.14755945 0.11419743 -0.23120522 -0.13160034 -0.20399448 -0.1873205 0.08808754 0.15337148
-0.46113837 -0.13350976 -0.2266875 0.07425412 -0.025557153 -0.30821282 -0.0037805215 0.08938948
-0.061284527 0.016791515 0.04556901 0.024653114 -0.36262205 -0.0030048536 0.1037654 -0.21305959
-0.015283308 -0.27287808 0.14137839 -0.16690531 0.115126364 -0.21821906 -0.02149181 -0.18694812
0.1300979 -0.101015896 -0.35869998 0.011620339 -0.005263888 0.01603219 -0.36825567 0.029459875
0.12209077 -0.31064004 0.095460564 -0.2220775 0.020483691 -0.47710958 0.0966546 -0.12020426
0.16228768 -0.080264755 -0.0190402 0.017641174 0.0923235 -0.005827962 -0.13324696 0.1219861
0.01573436 0.05545431 -0.39230445 0.19867675 -0.27069676 0.040496387 -0.20719312 0.11411893
-0.14135689 -0.0057814447 0.00837306 0.17926866 -0.35498887 -0.18691498 -0.031393446 -0.170875
0.21341723 -0.5040639 -0.09913204 0.07948945 0.054886464 -0.009890779 -0.12405722 -0.044621825
-0.41662958 0.03091755 -0.04589499 -0.08446141 -0.4166552 -0.020692136 0.2632234 -0.12542129
-0.21164371 0.0385955 -0.3839109 0.19502078 0.2714636 -0.065826684 -0.14056517 -0.22932155
0.0365297 -0.11167974 -0.24683149 -0.076031886 -0.24911243 -0.015747063 0.1051392 0.07135856
-0.1795834 -0.15188697 0.021744378 -0.01787462 -0.41207102 0.074170366 -0.24968763 0.013166745
-0.009251594 -0.099355936 0.05461245 -0.20143498 -0.08942268 -0.13050173 -0.20000061 0.078354575
-0.3502067 -0.06179056 -0.0060094106 0.04879847 -0.26350388 -0.37981305 0.14736 -0.0057121953
0.022812547 0.0029715877 -0.03345671 0.047605928 -0.2189706 0.09337272 0.08390939 -0.5340122
0.044819694 -0.18196195 -0.12356208 -0.17301792 -0.19263536 -0.15429845 0.04543951 -0.008639711
-0.18200544 -0.09599017 0.041031323 -0.1978631 0.038638 -0.070230275 -0.020467054 -0.05754956
-0.075929694 -0.15841687 0.045716476 -0.08003947 -0.01167652 -0.14462204 -0.08572484 -0.14263268
0.0550064 -0.105138764 -0.06415462 -0.0027762502 0.013599104 -0.21073544 -0.1662474 0.014989133
-0.06672149 -0.06757519 -0.04021336 -0.047368493 -0.063226104 0.11321837 -0.24960881 -0.1540538
0.16358972 -0.1458133 0.06741896 -0.61164474 0.063669555 0.08860079 -0.59897935 0.15608802
0.11993834 -0.65348047 -0.41804895 -0.031796258 0.1333454 -0.01259835 -0.14534876 -0.13515404
-0.052669972 0.16032569 -0.015190345 0.00916912 -0.108344674 -0.2593438 0.03505566 0.08109173
00000000: 54b6 6f3d 412e 313e 60cf 96bc 1ee9 923d
00000010: c758 e5bc 024f 023e df49 9abe 5185 7c3d
00000020: bc09 97be 5f66 1f3e 88f2 3cbd 910c c1be
00000030: 21bb c13d 98e0 f4bd 671e 18be 09c6 2abe
00000040: 16cd 023d 0d9b f03d 91a0 26be 9893 a8be
00000050: 9bc2 ab3d 42dc 833d 746e b4be e591 bcbe
00000060: 5428 ad3d fd5e 013d b0ec 17be ff39 f9be
00000070: 73f9 2bbd e8f6 a7bc e742 68be 1736 96bd
00000080: a524 e33d 7559 953d 3745 e7bd fef8 06be
00000090: 4838 72be 0fa4 9abe 3958 27be 8e7f 20be
000000a0: 26d9 973d e139 d03d e603 68bd 3749 3b3d
000000b0: 4e1e c5bc b70e a23c 0fc9 02bf 156f 03be
000000c0: 3b0b b73d 98bb ba3d 7ea1 7cbe 39ed 443d
000000d0: c64d 1bbe c936 00be 385c 40be 5925 a4be
000000e0: d319 173e 58e0 e93d 10c1 6cbe 3dc2 06be
000000f0: eee3 50be f2d0 3fbe 3d67 b43d 6a0d 1d3e
00000100: 541a ecbe c8b6 08be c520 68be 8b12 983d
00000110: 3c5d d1bc 12ce 9dbe a0c2 77bb d511 b73d
00000120: 7c05 7bbd 5c8e 893c 92a6 3a3d 54f5 c93c
00000130: 99a9 b9be 14ed 44bb f482 d43d 4b2c 5abe
00000140: d766 7abc adb6 8bbe 7fc5 103e 3ae9 2abe
00000150: 5fc7 eb3d d174 5fbe 980f b0bc 546f 3fbe
00000160: 6238 053e 6ce1 cebd 86a7 b7be 3c63 3e3c
00000170: b17c acbb f055 833c 028c bcbe d655 f13c
00000180: ba0a fa3d 360c 9fbe d480 c33d 4968 63be
00000190: 6acd a73c b547 f4be d9f2 c53d a72d f6bd
000001a0: be2e 263e d961 a4bd 32fa 9bbc 3984 903c
000001b0: 1a14 bd3d 7df8 bebb e471 08be d9d3 f93d
000001c0: 58e5 803c 0f24 633d 21dc c8be eb71 4b3e
000001d0: c498 8abe 8adf 253d 6f2a 54be 30b7 e93d
000001e0: dcbf 10be 4672 bdbb 292f 093c 3492 373e
000001f0: 1ac1 b5be a466 3fbe 6a96 00bd dbf9 2ebe
00000200: 0c8a 5a3e 550a 01bf bd05 cbbd 5dcb a23d
00000210: a1d0 603d ef0c 22bc b611 febd 60c5 36bd
00000220: 7950 d5be cd46 fd3c 63fc 3bbd 1bfa acbd
00000230: d553 d5be 8e82 a9bc 38c5 863e 706e 00be
00000240: 21b9 58be 5116 1e3d f88f c4be 87b3 473e
00000250: 47fd 8a3e 24d0 86bd 51f0 0fbe 45d3 6abe
00000260: 2ba0 153d 59b8 e4bd 65c1 7cbe 9bb6 9bbd
00000270: 5417 7fbe fcff 80bc 3953 d73d 7024 923d
00000280: b6e4 37be 4288 1bbe 4421 b23c cc6d 92bc
00000290: f9fa d2be a2e6 973d 1dae 7fbe 55b9 573c
000002a0: ff93 17bc 207b cbbd 4eb1 5f3d f944 4ebe
000002b0: 3d23 b7bd 3fa2 05be f6cc 4cbe 5d78 a03d
000002c0: 4b4e b3be 1918 7dbd 97ea c4bb e8e0 473d
000002d0: fbe9 86be db76 c2be 8ae5 163e 5e2d bbbb
000002e0: 61e1 ba3c f8be 423b e709 09bd 6ffe 423d
000002f0: d439 60be 323a bf3d b0d8 ab3d 06b5 08bf
00000300: db94 373d 3c54 3abe 1e0e fdbd 9c2b 31be
00000310: 3442 45be 6a00 1ebe c81e 3a3d 938d 0dbc
00000320: a25f 3abe 7f96 c4bd 7610 283d a09c 4abe
00000330: e142 1e3d e4d4 8fbd 86aa a7bc 16b9 6bbd
00000340: 0781 9bbd 0838 22be 3341 3b3d bceb a3bd
00000350: e04e 3fbc cd17 14be 8190 afbd 4d0e 12be
00000360: 644e 613d fe52 d7bd 7f63 83bd c0f1 35bb
00000370: c7ce 5e3c 08cb 57be c23c 2abe fb94 753c
00000380: 47a5 88bd dc64 8abd c4b6 24bd 7705 42bd
00000390: b07c 81bd 08df e73d 7499 7fbe 48c0 1dbe
000003a0: 1084 273e 1550 15be f412 8a3d c094 1cbf
000003b0: 2f65 823d 5574 b53d b656 19bf 8ad5 1f3e
000003c0: 3ba2 f53d 7f4a 27bf 830a d6be cb3c 02bd
000003d0: b28b 083e 4f69 4ebc 4ed6 14be d265 0abe
000003e0: 78bc 57bd 6b2c 243e ede0 78bc 143a 163c
000003f0: d0e3 ddbd b6c8 84be 8696 0f3d 6c13 a63d

conv.bias f4 [64]
-0.1864149 0.03832845 0.061845545 0.12350635 -0.16776417 -0.12722546 -0.12820582 0.043627482
-0.08488901 0.15286635 0.05115983 -0.24417506 -0.298919 0.07422114 -0.24796161 -0.2221423
0.17337365 -0.2862945 0.014348778 0.07069565 -0.2354023 0.099986784 0.15170236 -0.17743453
0.10751554 -0.13903752 0.039393272 0.106962435 -0.18445325 0.13528337 -0.32113358 0.06678694
-0.13398327 -0.15029867 -0.30032423 -0.2506131 -0.16383792 -0.17016774 -0.23185712 -0.15826802
0.10841736 0.15047333 -0.19173132 -0.26867998 -0.3455525 -0.20708485 -0.110627785 -0.15800534
-0.14815083 -0.16842583 0.17396924 0.06041528 -0.21078174 -0.239214 -0.3269401 -0.1739024
-0.21247692 -0.2793801 -0.118001364 -0.2470772 0.024455572 0.15294933 -0.22064193 0.06833018
00000000: 8ce3 3ebe 4bfe 1c3d c151 7d3d e6f0 fc3d
00000010: 5fca 2bbe 6447 02be 6348 03be bbb2 323d
00000020: 4ada adbd ff88 1c3e f88c 513d 0709 7abe
00000030: e90b 99be 4101 983d a6e9 7dbe 4579 63be
00000040: dd88 313e 3195 92be 2317 6b3c e2c8 903d
00000050: 4d0d 71be dfc5 cc3d dd57 1b3e 66b1 35be
00000060: 1c31 dc3d da5f 0ebe d75a 213d 1f0f db3d
00000070: 50e1 3cbe b987 0a3e 9f6b a4be 97c7 883d
00000080: e932 09be e5e7 19be 19c4 99be 5c50 80be
00000090: 21c5 27be 7440 2ebe f46b 6dbe 0311 22be
000000a0: ec09 de3d ae15 1a3e 3755 44be 6c90 89be
000000b0: 42ec b0be 0d0e 54be d290 e2bd 27cc 21be
000000c0: dab4 17be d277 2cbe fe24 323e 0376 773d
000000d0: 2bd7 57be 84f4 74be b164 a7be 7913 32be
000000e0: 8d93 59be e90a 8fbe b3aa f1bd ce01 7dbe
000000f0: 0d57 c83c c09e 1c3e f5ef 61be b2f0 8b3d

bn1.weight f4 [64]
0.90985405 0.97421515 0.99796504 1.0937399 0.9830622 1.0466722 0.90488154 0.9559846
0.9312221 0.96969897 1.0074385 0.981064 0.97580874 1.0988437 1.0217037 0.9779669
0.91489565 1.1738755 1.2185961 0.8976548 1.0438323 1.1056199 0.958914 1.0857393
0.94920325 0.94035345 0.823011 0.9909579 1.0037597 0.99747753 0.95932543 0.93634
0.9176111 1.0357139 1.0796788 0.9528789 0.9585583 1.269504 1.136655 0.9637392
1.0039823 0.8686792 0.9517091 1.161207 1.0370129 0.8765752 0.9095479 1.0684265
1.0828935 1.0977523 1.0767751 1.0657469 0.8468127 0.9754492 0.9693564 1.0148857
0.782814 0.95706147 1.0639879 1.0589763 0.9182629 0.98599213 1.0084481 1.1672306
00000000: 32ec 683f 2a66 793f a37a 7f3f abff 8b3f
00000010: f7a9 7b3f 5bf9 853f 51a6 673f 68bb 743f
00000020: 9264 6e3f 313e 783f bff3 803f 0327 7b3f
00000030: 9ace 793f e9a6 8c3f 30c7 823f 0a5c 7a3f
00000040: 9a36 6a3f 8d41 963f f5fa 9b3f b4cc 653f
00000050: 4c9c 853f f484 8d3f 637b 753f 81f9 8a3f
00000060: fcfe 723f 01bb 703f d9b0 523f 6baf 7d3f
00000070: 337b 803f b05a 7f3f 5a96 753f fab3 6f3f
00000080: 90e8 6a3f 4692 843f ea32 8a3f dfef 733f
00000090: 1464 753f 1b7f a23f e97d 913f 9db7 763f
000000a0: 7e82 803f c361 5e3f 35a3 733f 6ea2 943f
000000b0: d7bc 843f 3b67 603f 22d8 683f 33c2 883f
000000c0: 419c 8a3f 2683 8c3f c4d3 893f 656a 883f
000000d0: b8c8 583f 0ab7 793f be27 783f c6e7 813f
000000e0: 8066 483f fb01 753f c130 883f 898c 873f
000000f0: 4713 6b3f fb69 7c3f d414 813f d067 953f

bn1.bias f4 [64]
0.03486943 0.024660127 0.04590626 -0.009217523 0.037331425 0.021797225 0.03520527 -0.0031712411
0.000328688 0.009173863 0.03998597 0.001323887 0.052772477 0.031654947 -0.00096618355 0.0155819645
0.0054217344 0.0026346531 0.016331036 0.007516333 0.025736632 0.008651502 0.0092426725 0.017446073
0.010688013 -0.018886833 -0.0038695945 -0.023164434 0.039319303 -0.006976522 0.0063479417 -0.038118273
0.051748917 0.0660671 0.0011134977 -0.014841435 0.095910825 0.044362415 0.0982094 0.01880811
-0.023331096 -0.0009624774 0.04204632 0.10043869 0.008413424 0.0054010516 0.014183739 -0.012937297
0.033605766 -0.0060018837 0.009589538 0.0048065055 0.0066006575 0.016165929 0.021688633 0.026520362
0.0488367 0.015524076 0.028380735 -0.011692658 0.011725492 -0.03866215 0.028265204 0.010648013
00000000: 3fd3 0e3d 0904 ca3c 3408 3c3d 1805 17bc
00000010: d6e8 183d 1890 b23c 6733 103d 99d4 4fbb
00000020: c253 ac39 f84d 163c 54c8 233d 4786 ad3a
00000030: f427 583d 9ea8 013d 7b47 7dba 7f4b 7f3c
00000040: cea8 b13b 25aa 2c3b aac8 853c 924b f63b
00000050: a1d5 d23c 08bf 0d3c 946e 173c 11eb 8e3c
00000060: c71c 2f3c 8fb8 9abc 0699 7dbb 57c3 bdbc
00000070: 470d 213d 4f9b e4bb 6502 d03b e821 1cbd
00000080: acf6 533d 304e 873d c8f2 913a 7d29 73bc
00000090: e56c c43d 5db5 353d 0322 c93d 7713 9a3c
000000a0: db20 bfbc c44e 7cba c338 2c3d cdb2 cd3d
000000b0: 75d8 093c 4efb b03b ea62 683c f5f6 53bc
000000c0: 33a6 093d 73ab c4bb 701d 1d3c e47f 9d3b
000000d0: 544a d83b 696e 843c 5cac b13c 3b41 d93c
000000e0: fe08 483d b258 7e3c b77e e83c 9092 3fbc
000000f0: 471c 403c 345c 1ebd 6e8c e73c 0175 2e3c

bn1.running_mean f4 [64]
0.02701265 0.030132767 0.05861809 0.10984916 0.05289095 0.036544114 0.025776044 0.04893243
6e-45 0.16907099 0.0668842 0.03981919 0.008345471 0.07273679 0.0007790782 0.033250067
0.17178018 0.004354457 0.025388757 0.08362335 0.02627388 0.08950058 0.14542666 0.020379877
0.11707544 0.012920371 0.042654853 0.07627716 0.027124489 0.10854312 0.025043527 0.06031085
0.043676045 0.06519047 0.019561592 0.011548372 0.015308311 0.04236571 0.004374407 0.058766298
0.122279085 0.13826725 0.01083002 0.004502234 0.0471969 0.048885938 0.063235275 0.026544088
0.02243395 0.0637223 0.13046311 0.08140919 0.044690844 0.007989591 0.0434925 0.03206892
0.023372239 0.04940386 0.02274079 0.042266086 0.06605372 0.14003965 0.02722457 0.059954595
00000000: a249 dd3c fed8 f63c 8619 703d 99f8 e03d
00000010: 2ea4 583d 48af 153d 4828 d33c 5f6d 483d
00000020: 0400 0000 f220 2d3e 95fa 883d 7219 233d
00000030: 71bb 083c 07f7 943d 0e3b 4c3a 3931 083d
00000040: 25e7 2f3e d5af 8e3b 15fc cf3c b842 ab3d
00000050: 523c d73c 154c b73d baea 143e b3f3 a63c
00000060: 40c5 ef3d f7af 533c dbb6 2e3d 3337 9c3d
00000070: 2d34 de3c db4b de3d 1528 cd3c 8308 773d
00000080: a7e5 323d 9582 853d a23f a03c 6235 3d3c
00000090: b6cf 7a3c ab87 2d3d 3057 8f3b eeb4 703d
000000a0: 756d fa3d ee95 0d3e 6570 313c 7a87 933b
000000b0: 8951 413d 9f3c 483d 7f81 813d fd72 d93c
000000c0: 67c7 b73c d680 823d 1f98 053e ddb9 a63d
000000d0: bf0d 373d c6e6 023c 3125 323d b35a 033d
000000e0: 2377 bf3c b45b 4a3d e54a ba3c 341f 2d3d
000000f0: 2c47 873d 8e66 0f3e 1006 df3c f392 753d

bn1.running_var f4 [64]
0.0055085327 0.0037071572 0.009150625 0.014267096 0.012342861 0.009143216 0.0056218687 0.006592612
6e-45 0.02364781 0.010986579 0.0087199565 0.0012148427 0.010819509 8.0480335e-05 0.008305566
0.021066379 0.00071026105 0.0049476414 0.015512331 0.0067148223 0.011123634 0.019844823 0.00422976
0.019952172 0.002631289 0.0061443285 0.0094737 0.0048925285 0.013489745 0.005279936 0.009643987
0.010103555 0.01189333 0.003997293 0.0019197818 0.0031685492 0.008478007 0.00075140945 0.013829042
0.014419474 0.018723467 0.0025013715 0.0008205299 0.011701609 0.009772152 0.016577518 0.0050555705
0.0047355304 0.015116854 0.017214723 0.014680122 0.010183803 0.0012718047 0.010651664 0.0072639296
0.004913782 0.010371506 0.004727265 0.009810452 0.015970485 0.017113762 0.0048392806 0.007915751
00000000: ec80 b43b c7f3 723b 81ec 153c 8ac0 693c
00000010: b639 4a3c 6dcd 153c a737 b83b d606 d83b
00000020: 0400 0000 0db9 c13c 0d01 343c 26de 0e3c
00000030: 5b3b 9f3a 4f44 313c 8dc7 a838 1214 083c
00000040: 6693 ac3c d030 3a3a d31f a23b 6f27 7e3c
00000050: 0308 dc3b e73f 363c 9c91 a23c cc99 8a3b
00000060: bd72 a33c b471 2c3b 5d56 c93b 9437 1b3c
00000070: 8151 a03b 1704 5d3c 5003 ad3b d001 1e3c
00000080: 6289 253c 3edc 423c b9fb 823b 30a1 fb3a
00000090: 6fa7 4f3b 57e7 0a3c 3cfa 443a 3593 623c
000000a0: a83f 6c3c f561 993c 0dee 233b d418 573a
000000b0: 1bb8 3f3c 601b 203c 93cd 873c 33a9 a53b
000000c0: 822c 9b3b aeac 773c e405 8d3c e584 703c
000000d0: f7d9 263c afb2 a63a 5184 2e3c 4206 ee3b
000000e0: ca03 a13b 40ed 293c 2ce7 9a3b 05bc 203c
000000f0: 89d4 823c 2932 8c3c d492 9e3b 11b1 013c

fc1.weight f4 [64, 64]
0.009369716 -0.007928087 -0.060197555 -0.025595507 -0.07222388 0.040593516 -0.10670239 -0.12581186
-0.051685885 -0.10511336 -0.074222855 -0.11919222 0.012035477 0.11518099 -0.17563647 -0.30349874
0.0070318463 -0.010403747 -0.08105981 0.054866485 0.09602138 0.22721583 0.029152703 0.016209358
0.07199207 -0.07309158 0.060979888 0.07128464 0.13337013 0.15021369 -0.053959243 -0.07325374
0.10659571 -0.079339586 -0.0030496116 0.05512127 0.21581435 -0.14402647 0.11757238 0.13510756
-0.05758171 -0.044909123 0.05664928 -0.014390703 -0.13092987 0.199643 -0.110531285 0.096309125
0.12450844 0.13990189 0.3601523 0.10894338 0.013529697 -0.07478614 0.17175287 0.01889051
-0.126294 0.21661182 -0.03746682 0.027556023 -0.0626638 0.081450246 -0.0054526245 -0.009297522
-0.16541867 0.09841754 -0.058254853 -0.13010016 -0.00053887605 -0.060505405 0.019286564 0.03574214
0.029985398 0.13024089 -0.13835406 0.08048233 -0.14661057 -0.10931976 -0.03244641 -0.023254618
0.047811937 -0.04020949 -0.11714694 0.11933363 0.10117975 -0.13815524 0.0927848 0.07458662
-0.027099794 -0.25108987 -0.12520954 0.15563118 0.15763146 -0.17376645 0.082278855 -0.08398075
0.07814567 -0.18354079 0.059129857 -0.038746603 0.16527355 -0.2669107 -0.026747916 0.09472367
0.061563753 -0.004739294 0.085110486 0.016782481 -0.08201078 -0.0073660742 -0.008914597 0.03013793
-0.07743574 0.16780269 -0.10046472 -0.030311955 -0.020172471 -0.042292614 0.074848175 0.036395866
0.049924362 0.20936431 -0.03448229 0.0031287035 -0.04570951 0.22573328 -0.18489641 0.06857616
-0.12928168 0.12561591 0.18180108 0.030920792 -0.15585826 -0.059438802 -0.14858039 -0.07368037
-0.03709987 -0.20253798 -0.11333643 -0.07202707 -0.13719693 -0.06470775 -0.0515281 0.120049685
-0.13574164 -0.06015053 -0.043938164 0.124339245 0.11353608 -0.068589345 0.042244792 0.08063157
0.023988387 -0.07685251 0.12474509 0.07688973 0.18873098 -0.035751168 0.18964966 -0.07726079
0.046579424 -0.15701725 0.13828176 -0.0244629 0.06558646 0.18432927 -0.07055262 -0.119608
-0.10502923 -0.18130922 -0.0030967253 -0.20988075 -0.14635243 -0.10640729 0.2085222 0.037245717
0.07329828 -0.17802262 0.054992262 -0.30702758 -0.07790252 -0.022630109 -0.05896728 0.19970602
-0.049905624 0.18671848 0.051844977 -0.16075797 0.02247396 -0.020105863 0.0842807 0.053522594
-0.044052817 -0.116984494 0.15169227 0.08755469 -0.051936116 -0.048354696 -0.014554467 -0.05539009
-0.110470526 0.0028321806 -0.23558085 -0.31518063 -0.030610576 -0.007038018 -0.056726772 -0.07425425
-0.043439787 0.15096755 0.09857547 0.102503054 0.07802301 0.08039112 -0.031931438 0.05293166
-0.14387764 -0.01143433 -0.06620574 0.020952648 0.042765357 -0.20169158 -0.0012588844 0.0061778664
-0.026586156 0.05483415 0.00839174 0.2303676 -0.1936752 0.17753947 0.05630444 -0.02215742
-0.20846853 0.08297046 -0.12846479 0.059916694 -0.013245228 -0.0021822369 -0.25787967 0.16046864
-0.03148887 0.16047415 -0.25386602 -0.20513514 0.107588895 -0.10164069 -0.054313798 -0.11747508
-0.14194818 -0.13975061 -0.057252724 0.059636366 -0.018400434 -0.054034315 0.049959995 0.19145413
00000000: 7083 193c cfe4 01bc b691 76bd abad d1bc
00000010: 1dea 93bd 6345 263d c886 dabd d3d4 00be
00000020: 94b4 53bd ac45 d7bd 2702 98bd 0d1b f4bd
00000030: 7330 453c 03e4 eb3d 0cda 33be 3064 9bbe
00000040: 676b e63b 7a74 2abc b002 a6bd aebb 603d
00000050: dba6 c43d 44ab 683e a6d1 ee3c 7dc9 843c
00000060: 9470 933d 0ab1 95bd 0cc6 793d aefd 913d
00000070: 2e92 083e 9ed1 193e 5e04 5dbd 0f06 96bd
00000080: da4e da3d cb7c a2bd fedb 47bb d7c6 613d
00000090: 70fe 5c3e ad7b 13be cac9 f03d a359 0a3e
000000a0: cdda 6bbd a1f2 37bd 1309 683d fcc6 6bbc
000000b0: 7b12 06be 376f 4c3e 3a5e e2bd b83d c53d
000000c0: 48fe fe3d 7142 0f3e e265 b83e b51d df3d
000000d0: aaab 5d3c 7a29 99bd fcdf 2f3e 45c0 9a3c
000000e0: 3753 01be 7dcf 5d3e cf76 19bd 2bbd e13c
000000f0: e155 80bd 63cf a63d eeab b2bb a254 18bc
00000100: 8363 29be 238f c93d a49c 6ebd fa38 05be
00000110: 5c43 0dba 84d4 77bd dbfe 9d3c 5a66 123d
00000120: f0a3 f53c de5d 053e b0ac 0dbe ebd3 a43d
00000130: 1521 16be 0ae3 dfbd 87e6 04bd 7880 bebc
00000140: 73d6 433d b5b2 24bd bcea efbd 3165 f43d
00000150: 5437 cf3d 9178 0dbe f505 be3d dfc0 983d
00000160: 6300 debc da8e 80be ee36 00be c85d 1f3e
00000170: 246a 213e d5ef 31be d181 a83d 19fe abbd
00000180: d60a a03d 1ef2 3bbe 2632 723d c2b4 1ebd
00000190: 783d 293e 85a8 88be 721e dbbc 7cfe c13d
000001a0: 462a 7c3d 144c 9bbb 684e ae3d 6a7b 893c
000001b0: 45f5 a7bd 1c5f f1bb 880e 12bc d2e3 f63c
000001c0: a196 9ebd 78d4 2b3e 72c0 cdbd c750 f8bc
000001d0: bd40 a5bc 053b 2dbd 004a 993d d513 153d
000001e0: 7d7d 4c3d 9963 563e 4d3d 0dbd ef0a 4d3b
000001f0: e539 3bbd a026 673e 7c55 3dbe a871 8c3d
00000200: 6b62 04be 75a1 003e 102a 3a3e 9a4d fd3c
00000210: 4f99 1fbe 1a76 73bd 7525 18be bce5 96bd
00000220: 09f6 17bd 1e66 4fbe ee1c e8bd ee82 93bd
00000230: 5a7d 0cbe 7f85 84bd 210f 53bd 9cdc f53d
00000240: dbff 0abe 6760 76bd 81f8 33bd 93a5 fe3d
00000250: 9b85 e83d 9278 8cbd e008 2d3d 2a22 a53d
00000260: 4b83 c43c d964 9dbd 5b7a ff3d 5d78 9d3d
00000270: b242 413e d16f 12bd 8533 423e e83a 9ebd
00000280: 11ca 3e3d 21c9 20be bc99 0d3e 6b66 c8bc
00000290: 3252 863d d0c0 3c3e e47d 90bd 0af5 f4bd
000002a0: 9119 d7bd 20a9 39be 6ef2 4abb fbea 56be
000002b0: 69dd 15be 11ec d9bd d886 553e f78e 183d
000002c0: 691d 963d 904b 36be 913f 613d b832 9dbe
000002d0: 5b8b 9fbd c762 b9bc ad87 71bd bc7f 4c3e
000002e0: d769 4cbd 2133 3f3e 665b 543d bd9d 24be
000002f0: 4f1b b83c 0db5 a4bc 5c9b ac3d 823a 5b3d
00000300: ba70 34bd 9195 efbd 3855 1b3e e04f b33d
00000310: f7ba 54bd 930f 46bd dc75 6ebc b8e0 62bd
00000320: 5f3e e2bd 1b9c 393b 1b3c 71be 5b5f a1be
00000330: 08c3 fabc 2d9f e6bb 555a 68bd 9d12 98bd
00000340: ebed 31bd 3d97 1a3e f0e1 c93d 1fed d13d
00000350: 87ca 9f3d 19a4 a43d 8aca 02bd dece 583d
00000360: a954 13be 0e57 3bbc e096 87bd e3a4 ab3c
00000370: ba2a 2f3d 3d88 4ebe 2701 a5ba b36f ca3b
00000380: 36cb d9bc c699 603d 827d 093c 7ce5 6b3e
00000390: cb52 46be e8cc 353e 7c9f 663d 7a83 b5bc
000003a0: c678 55be 6bec a93d 468c 03be 356b 753d
000003b0: 8302 59bc dc03 0fbb ce08 84be e451 243e
000003c0: 79fa 00bd 5653 243e bafa 81be f20e 52be
000003d0: 9157 dc3d fe28 d0bd 2578 5ebd c696 f0bd
000003e0: dd5a 11be c91a 0fbe d581 6abd 4345 743d
000003f0: 82bc 96bc 1653 5dbd daa2 4c3d 8d0c 443e

fc1.bias f4 [64]
0.033349995 0.109753236 0.027560605 -0.07093568 -0.018614287 0.13517484 -0.14654852 0.09038536
0.004699356 -0.057596877 0.075973436 -0.07471164 0.050477043 0.027796282 -0.08313316 0.050783858
0.05078802 0.06436269 -0.068652675 -0.15135804 0.08513879 -0.07914992 0.019104801 0.050104335
0.12966415 -0.15404117 -0.04747624 0.09377949 -0.080457024 0.0015828477 -0.01750718 -0.13562495
0.018144602 0.028628437 -0.11477299 0.07382014 0.14079806 0.11947548 0.078149766 -0.20905866
-0.0101566 -0.15071222 -0.06449946 -0.08827304 0.009281872 -0.18179569 0.09358098 0.02153152
-0.087884046 0.047161687 -0.048243012 0.15132713 -0.106608495 0.14470506 -0.16315597 -0.15576264
-0.13070475 -0.052623533 -0.17325513 -0.032110978 0.110331245 0.0018988707 0.057649694 0.0793289
00000000: 019a 083d 4ec6 e03d c7c6 e13c ba46 91bd
00000010: fd7c 98bc 466b 0a3e d110 16be f61b b93d
00000020: 0efd 993b b4ea 6bbd f697 9b3d 6b02 99bd
00000030: 04c1 4e3d 07b5 e33c b841 aabd bc02 503d
00000040: 1907 503d 96d0 833d c699 8cbd 9afd 1abe
00000050: 3f5d ae3d 5a19 a2bd ac81 9c3c 343a 4d3d
00000060: aec6 043e f8bc 1dbe 7276 42bd 760f c03d
00000070: a7c6 a4bd 8e77 cf3a 386b 8fbc 44e1 0abe
00000080: fda3 943c 2f86 ea3c 1a0e ebbd 032f 973d
00000090: 5e2d 103e 8faf f43d fc0c a03d 7913 56be
000000a0: de67 26bc 4e54 1abe 4b18 84bd 7fc8 b4bd
000000b0: fe12 183c a628 3abe 63a7 bf3d df62 b03c
000000c0: 8dfc b3bd 9d2c 413d 779a 45bd 80f5 1a3e
000000d0: 8e55 dabd 902d 143e 5c12 27be 3e80 1fbe
000000e0: 77d7 05be c68b 57bd cb69 31be cd86 03bd
000000f0: 59f5 e13d 87e3 f83a 1622 6c3d 3177 a23d

bn2.weight f4 [64]
1.2037512 1.2679404 1.2074655 1.0996847 1.3567919 1.3143504 1.2863457 1.1653162
1.1241453 1.1180631 1.2130849 1.1663376 1.2185603 1.206941 1.0787977 1.2083304
1.1516455 1.2827151 1.2363151 1.248467 1.2030637 1.2108599 1.2612412 1.2246461
1.1859801 1.08235 1.0660218 1.2128602 1.1620191 1.2630527 1.1941705 1.1037153
1.2089773 1.1687155 1.1795752 1.2360548 1.3824512 1.2767272 1.2956454 1.1587611
1.158522 1.0610988 1.116679 1.3549039 1.257296 1.5287129 1.27552 1.2090585
1.2093136 1.1838335 1.2000868 1.360766 1.1198415 1.2748181 1.0835248 1.0697818
1.0592867 1.1458725 1.1265359 1.3138235 1.1996971 1.3360044 1.216582 1.2663169
00000000: 8514 9a3f df4b a23f 3b8e 9a3f 78c2 8c3f
00000010: 5bab ad3f a23c a83f faa6 a43f 1529 953f
00000020: fee3 8f3f b11c 8f3f 5e46 9b3f 8d4a 953f
00000030: c9f9 9b3f 0b7d 9a3f 0b16 8a3f 92aa 9a3f
00000040: 1f69 933f 0230 a43f 933f 9e3f c4cd 9f3f
00000050: fefd 993f 75fd 9a3f 5a70 a13f 34c1 9c3f
00000060: 32ce 973f 728a 8a3f 6773 883f 013f 9b3f
00000070: 0bbd 943f b6ab a13f 94da 983f 8b46 8d3f
00000080: c5bf 9a3f 7898 953f 52fc 963f 0b37 9e3f
00000090: 29f4 b03f cc6b a33f b5d7 a53f 4952 943f
000000a0: 734a 943f 16d2 873f 56ef 8e3f 7e6d ad3f
000000b0: 13ef a03f ddac c33f 3d44 a33f 6ec2 9a3f
000000c0: caca 9a3f db87 973f 729c 993f 952d ae3f
000000d0: f756 8f3f 3d2d a33f f1b0 8a3f 9cee 883f
000000e0: b596 873f f3ab 923f 5432 903f 5e2b a83f
000000f0: ad8f 993f 3102 ab3f f5b8 9b3f ac16 a23f

bn2.bias f4 [64]
0.0005875539 0.0003193052 -0.000776268 -0.00071220903 0.00012975965 -0.0005762143 -0.0005998837 0.0006517784
0.003333223 0.0013852401 -0.0006118602 -0.00075465004 0.0009622888 0.00053192675 0.0021533028 0.0013636474
4.564199e-05 -0.0010165707 0.00010915631 0.005004905 -2.5488413e-05 -0.0013049627 0.00041183227 0.0004765234
0.0006159543 -0.00061578595 0.0013207474 5.3159107e-05 -0.000897315 0.0010585253 0.0028670684 -0.00018646276
0.0016166004 0.002038952 -0.007734153 0.0016402378 0.00041685486 0.0004896439 2.2301561e-05 0.00026129602
-6.394539e-05 0.00015527572 -0.001636169 -0.011484178 -0.00034199166 0.0010221438 0.00020954381 0.000110773384
-9.8393604e-05 -0.00029300243 -0.00081209885 -0.00011558734 -0.0012090921 -0.00022166666 0.0020485085 -0.0006233078
0.0020845374 0.0009002757 -0.0010901288 7.864783e-05 0.00047615016 0.00044372465 -0.0010928044 0.0017914466
00000000: 1306 1a3a 6b68 a739 777e 4bba 8ab3 3aba
00000010: 1710 0839 160d 17ba 8341 1dba 1cdc 2a3a
00000020: 3472 5a3b f290 b53a 3e65 20ba b5d3 45ba
00000030: 1c42 7c3a 0071 0b3a 6d1e 0d3b 6abc b23a
00000040: b76f 3f38 743e 85ba d9ea e438 3000 a43b
00000050: f3cf d5b7 480b abba 31eb d739 e3d5 f939
00000060: fe77 213a b26c 21ba ee1c ad3a 28f7 5e38
00000070: ca39 6bba 37be 8a3a 6de5 3b3b 3785 43b9
00000080: 1ce4 d33a f09f 053b c76e fdbb 3ffd d63a
00000090: 508d da39 725b 003a 3d14 bb37 8ffe 8839
000000a0: 6b1a 86b8 82d1 2239 b974 d6ba 2228 3cbc
000000b0: 584d b3b9 74f9 853a fdb8 5b39 024f e838
000000c0: aa58 ceb8 1f9e 99b9 08e3 54ba 7b67 f2b8
000000d0: 667a 9eba 316f 68b9 4540 063b 7a65 23ba
000000e0: bc9c 083b 7b00 6c3a a7e2 8eba bbef a438
000000f0: cba3 f939 b7a3 e839 6e3c 8fba f9ce ea3a

bn2.running_mean f4 [64]
0.08772306 0.11217856 0.08558633 0.036283184 0.119056046 0.18014672 0.042004097 0.11047831
0.027197685 0.03297248 0.094976835 0.019847792 0.0879575 0.076308995 0.0072813923 0.071012445
0.10593573 0.098274425 0.04241453 0.001206131 0.09143636 0.040106647 0.048560206 0.10606064
0.14563707 0.017489817 0.0094014155 0.12360062 0.042081885 0.081181064 0.036329783 0.010419225
0.06924084 0.05328384 0.027956694 0.11179255 0.1460431 0.14496851 0.12196274 0.00070602715
0.05041844 0.013447757 0.04000644 0.0524772 0.10208113 0.0002251209 0.13564618 0.09231476
0.038863454 0.10657776 0.052713957 0.16520841 0.030518627 0.14235277 0.0014897143 0.024198648
0.0026387952 0.04588017 0.025854412 0.04775632 0.12749486 0.07137381 0.116737 0.10205396
00000000: 26a8 b33d dfbd e53d e347 af3d ad9d 143d
00000010: a8d3 f33d 6278 383e 7d0c 2c3d 7442 e23d
00000020: aecd de3c 270e 073d 3783 c23d d697 a23c
00000030: 1023 b43d e447 9c3d bf98 ee3b f96e 913d
00000040: d5f4 d83d 1a44 c93d dcba 2d3d 0a17 9e3a
00000050: fc42 bb3d de46 243d 11e7 463d 5236 d93d
00000060: e221 153e ce46 8f3c 6508 1a3c 5222 fd3d
00000070: 0e5e 2c3d 4242 a63d 8ace 143d 66b5 2a3c
00000080: 24ce 8d3d 2840 5a3d 7005 e53c 7ef3 e43d
00000090: 538c 153e a072 143e 9ac7 f93d ae14 393a
000000a0: 9183 4e3d fb53 5c3c cbdd 233d 55f2 563d
000000b0: e90f d13d 6e0e 6c39 d5e6 0a3e 850f bd3d
000000c0: 492f 1f3d 7145 da3d 97ea 573d 652c 293e
000000d0: 3302 fa3c edc4 113e 8442 c33a 3e3c c63c
000000e0: a3ef 2c3b d8ec 3b3d a2cc d33c 229c 433d
000000f0: 038e 023e 6f2c 923d cf13 ef3d ab01 d13d

bn2.running_var f4 [64]
0.011521508 0.012426446 0.013389419 0.0044573713 0.014794986 0.023679605 0.008648289 0.008445665
0.0028162103 0.0039953734 0.0116297575 0.002139885 0.008617808 0.008551458 0.0006033471 0.0094938325
0.0087923445 0.009238055 0.0055812276 0.00013648673 0.009156348 0.007219764 0.007260225 0.014001821
0.019314447 0.0018626481 0.000752663 0.0135802 0.005483938 0.011150515 0.004074461 0.00093948736
0.008273696 0.0076496718 0.0034010743 0.01045348 0.019907152 0.022563985 0.019713128 4.1177376e-05
0.0066826562 0.0017394143 0.004881207 0.00817583 0.026704721 1.2757918e-05 0.016940042 0.013138045
0.008941103 0.015323046 0.0068488633 0.017652322 0.003571772 0.012773047 0.00013752494 0.0035107553
0.00024564806 0.007192305 0.0038785778 0.010301995 0.014756693 0.016602254 0.01864411 0.011529621
00000000: b5c4 3c3c 4b98 4b3c 4b5f 5b3c 240f 923b
00000010: ab66 723c bbfb c13c 8eb1 0d3c b05f 0a3c
00000020: 2b90 383b 9feb 823b bd8a 3e3c 503d 0c3b
00000030: b531 0d3c 6a1b 0c3c f029 1e3a 058c 1b3c
00000040: c40d 103c 365b 173c bbe2 b63b e11d 0f39
00000050: 8204 163c c593 ec3b 2ee7 ed3b e567 653c
00000060: 5539 9e3c 1924 f43a 5c4e 453a 7d7f 5e3c
00000070: 9bb2 b33b a6b0 363c 0e83 853b ee47 763a
00000080: 658e 073c 19aa fa3b 8fe4 5e3b 1345 2b3c
00000090: 5314 a33c 1bd8 b83c 6d7d a13c dfb5 2c38
000000a0: 2ffa da3b 0ffd e33a 88f2 9f3b ebf3 053c
000000b0: dcc3 da3c d70a 5637 d8c5 8a3c f440 573c
000000c0: b47d 123c 830d 7b3c 6e6c e03b 9a9b 903c
000000d0: 6414 6a3b 0b46 513c 9234 1039 b314 663b
000000e0: 53ca 8039 6dad eb3b bd2f 7e3b b3c9 283c
000000f0: 0ec6 713c 7301 883c 88bb 983c bce6 3c3c

fc2.weight f4 [1, 64]
0.3227845 0.32914323 -0.2857515 -0.17796269 -0.37782106 0.3978231 -0.38729498 0.24401775
-0.14805968 -0.1527575 0.24248423 0.19203015 0.3059456 -0.28598663 0.115537964 0.3292551
0.25765732 -0.30036667 0.3205725 -0.23420343 0.27784595 0.29075253 -0.32538703 0.31596032
-0.28567764 -0.16755159 0.15158568 -0.33765388 0.2264033 0.34698263 -0.19112891 -0.23091006
0.24419942 0.28751352 0.2007227 0.3379288 -0.39333123 0.39826238 -0.32351995 0.2353201
-0.26791382 -0.14416666 0.21496657 -0.3687324 0.36912227 -0.55412364 0.35364437 -0.27749798
0.27592257 -0.29666084 -0.25061727 -0.39796948 0.22935419 -0.356565 0.1272451 0.18914032
0.14197983 -0.24789847 -0.21272781 -0.35994717 0.31219906 0.45965973 -0.28849855 0.35519543
00000000: 0344 a53e 7685 a83e 054e 92be da3b 36be
00000010: c371 c1be 78af cb3e 874b c6be cadf 793e
00000020: f59c 17be 766c 1cbe c94d 783e 8da3 443e
00000030: e7a4 9c3e d76c 92be 2b9f ec3d 2094 a83e
00000040: a9eb 833e a9c9 99be 1422 a43e 06d3 6fbe
00000050: d341 8e3e 84dd 943e 2199 a6be 8dc5 a13e
00000060: 5744 92be a592 2bbe 4739 1b3e f8e0 acbe
00000070: 44d6 673e b5a7 b13e 4cb7 43be b073 6cbe
00000080: 6a0f 7a3e f934 933e 408a 4d3e 0105 ad3e
00000090: b662 c9be 0ce9 cb3e 68a4 a5be c1f7 703e
000000a0: 002c 89be 6da0 13be 3220 5c3e 7eca bcbe
000000b0: 98fd bc3e 0cdb 0dbf e010 b53e 3714 8ebe
000000c0: b945 8d3e eee3 97be e850 80be a8c2 cbbe
000000d0: d3db 6a3e b08f b6be 8a4c 023e 00ae 413e
000000e0: 2963 113e 19d9 7dbe 52d5 59be ff4a b8be
000000f0: 8ed8 9f3e 8558 eb3e 15b6 93be 2ddc b53e
