result/dee_phage/400_800/fold_1/20250501-015405/800_0.0001_32_model_best.pt (torch, 31657 bytes, 13 tensors)

conv.weight f4 [64, 4, 6]
00000000: bceb 4a3d 89d1 343e 0a89 0cbd b963 843d
00000010: 7a19 37bd 75c2 013e cd84 72be de83 473d
00000020: 934f 9cbe 15e6 1f3e ffa0 21bd 8aa3 bcbe
00000030: caf5 bd3d 9511 fbbd f573 0ebe 33c8 0abe
00000040: dea1 063d dd2a e43d 89c4 2bbe f3ba a5be
00000050: c530 ab3d 00ef 5c3d 9478 a7be aba8 b1be
00000060: 6c86 983d bfc3 1d3d 9192 0cbe ff39 f9be
00000070: 79af 14bd 35a7 3dbd 3f06 69be 7037 aabd
00000080: 5ec8 b83d 51d5 8b3d bb78 b0bd 0d1f e7bd
00000090: f23a 44be ca4e 9fbe 85ea 22be 5e37 0dbe
000000a0: 3db6 473d a678 ef3d a12e 22bd 7d68 783d
000000b0: 545a 1fbc 27a9 963c 0fc9 02bf ebad 0cbe
000000c0: 0816 a43d 42fa bf3d 0a26 79be 48e2 3b3d
000000d0: a425 1fbe 983c fcbd 400c 51be ab0c 95be
000000e0: b286 0e3e 1efe d73d 6107 88be 986a 04be
000000f0: 5ec0 39be f616 47be 609f a83d affb 173e
00000100: 3e89 d7be 4e48 12be f1f9 52be c209 8a3d
00000110: 5005 cebc c275 93be f945 05bc 6045 9a3d
00000120: d63a 2bbd 48ee e53c 5ece 1f3d 7984 823c
00000130: 0bd2 b0be 037b ff3b ba1e e03d b45e 5cbe
00000140: c386 97bb 6e2a 89be 9886 173e 0a5d 1fbe
00000150: 0031 cf3d da1f 56be 4488 2cbc 1a6d 35be
00000160: fc1e 0c3e 8798 d2bd 343d aebe 4543 9d3b
00000170: 26f5 36bc 8def 923c 11d6 b4be 7a97 da3c
00000180: 7fdf ea3d abf6 aabe de32 bf3d c368 54be
00000190: 8a3f bc3c 87ff edbe b188 b63d c403 f0bd
000001a0: a0eb 213e 76e9 8bbd c9b4 19bd d018 883c
000001b0: 749b ed3d 1921 813b f16a fdbd 9538 f33d
000001c0: 7f99 ae3c aa7d 653d 97e2 c0be 8d39 493e
000001d0: 8093 83be 7e8d ff3c 0431 3bbe 192f e83d
000001e0: fb1b 13be cef6 a2bc 1e2e 6b3b 1d25 2c3e
000001f0: e447 b6be 4aab 3abe 5b60 15bd ff4c 1abe
00000200: da67 563e ae0f fbbe 8e73 c0bd acd1 a73d
00000210: d175 743d 4711 6abb e048 d9bd 0d8c 27bd
00000220: a773 cfbe 370f 6a3c d7f3 41bd f07d bbbd
00000230: 2cd1 d2be dcce 42bc 25d1 843e 2824 02be
00000240: 27d6 54be aff5 213d 9e34 b3be ab7d 383e
00000250: a247 883e b7a8 a7bd 5c41 0ebe 9055 69be
00000260: 40ee 123d 7993 d4bd 90e9 5ebe b0e0 8dbd
00000270: 6e6e 84be 8171 8dbc 0c69 d03d c1b8 723d
00000280: c6a1 1fbe 5ddf 18be 6e03 433b ed1d fdbc
00000290: b02e c5be 3656 cc3d 909d 29be 1d64 4e3c
000002a0: 5d74 8dbc 0a9d 97bd 220a 303d adbc 1cbe
000002b0: e168 43bd 4924 a5bd 91ec 49be 62f3 973d
000002c0: 46b0 aebe ddce 6fbd f105 29bc 7221 123d
000002d0: 33bf 70be f064 c1be c9b8 303e 223c dbbc
000002e0: 6ebb 9c3c a217 93bc cdb5 31bd e8bb 373d
000002f0: a849 7cbe 1591 cb3d 89a8 963d 06b5 08bf
00000300: db94 373d 3c54 3abe 1e0e fdbd 9c2b 31be
00000310: 3442 45be 6a00 1ebe c81e 3a3d 938d 0dbc
00000320: a25f 3abe 7f96 c4bd 7610 283d a09c 4abe
00000330: e142 1e3d e4d4 8fbd 86aa a7bc 16b9 6bbd
00000340: 0781 9bbd 0838 22be 3341 3b3d bceb a3bd
00000350: e04e 3fbc cd17 14be 8190 afbd 4d0e 12be
00000360: 411a 643d 5c13 dbbd 4548 82bd 8439 1cbc
00000370: 5dac 6b3c 260e 4fbe c8ad 24be b7b4 a33c
00000380: 982c 84bd c818 76bd 88de 47bd 4179 3ebd
00000390: 0258 7bbd 7efe ef3d 4fcb 6ebe 6f79 19be
000003a0: 9f69 2c3e 7769 03be ca38 923d 4844 15bf
000003b0: 76b4 843d d75f c93d 655f 0abf 343a 143e
000003c0: 2372 ed3d d5fd 23bf 9721 bbbe 62b2 0cbd
000003d0: 2dd7 ec3d df0a 16bd 8415 06be b731 f9bd
000003e0: 226e 81bd ba0c 363e 83cd e63a b74d 383c
000003f0: 0353 f8bd a627 8dbe 69f6 0d3d ed10 823d
0.04954122 0.17658056 -0.034310378 0.06464333 -0.04470203 0.12671836 -0.23683472 0.048709743
-0.3052946 0.15615113 -0.03946018 -0.3684352 0.09275396 -0.12259213 -0.13911422 -0.13552932
0.032869212 0.11140988 -0.16774191 -0.32369193 0.083589114 0.053938866 -0.3270918 -0.34698996
0.07447514 0.038516756 -0.13727786 -0.4867706 -0.036300156 -0.04630204 -0.22756289 -0.08311355
0.09022592 0.06827796 -0.086167775 -0.11285219 -0.19163111 -0.311148 -0.15909775 -0.13790652
0.04875778 0.11692934 -0.03959525 0.060646523 -0.009726126 0.018391205 -0.5108804 -0.1373822
0.080120146 0.09373905 -0.24330917 0.045870095 -0.15541703 -0.12316245 -0.20414829 -0.29111227
0.1391857 0.10546516 -0.2656813 -0.12931287 -0.18139789 -0.19442353 0.08233523 0.14842103
-0.42096895 -0.14285395 -0.20603158 0.067401424 -0.025149018 -0.2880078 -0.008134359 0.075327635
-0.041804157 0.028067723 0.039015166 0.015932309 -0.3453525 0.0077966466 0.109433606 -0.21520501
-0.004624219 -0.26790184 0.14797437 -0.15562835 0.10116768 -0.20910588 -0.010530535 -0.177174
0.13683695 -0.102829985 -0.3403107 0.004799279 -0.011166846 0.017936492 -0.3531957 0.026683558
0.1146841 -0.33391318 0.09335874 -0.20743088 0.022979517 -0.46484014 0.089127906 -0.11719468
0.1581254 -0.068316385 -0.037525926 0.016613394 0.11601916 0.003940713 -0.12373913 0.118760265
0.021313427 0.056028046 -0.37672874 0.1965086 -0.2569847 0.031195398 -0.18280417 0.11337108
-0.14366142 -0.019893076 0.0035885642 0.16811033 -0.35601723 -0.18229404 -0.036468845 -0.15068434
0.20938054 -0.490354 -0.0939704 0.081942886 0.05968267 -0.0035715865 -0.10609603 -0.040905047
-0.40517923 0.014285854 -0.047351684 -0.0915488 -0.4117521 -0.011890139 0.25940815 -0.12709105
-0.20784818 0.039540943 -0.3500108 0.18016689 0.26617151 -0.08186477 -0.1389212 -0.22786546
0.035871744 -0.10379691 -0.21768785 -0.06927621 -0.258655 -0.017266037 0.10176286 0.059258226
-0.15589055 -0.14928956 0.0029756683 -0.030898059 -0.38512182 0.09977381 -0.16564012 0.012597111
-0.0172674 -0.07403 0.042978413 -0.15306349 -0.047707442 -0.080635615 -0.19719149 0.074194685
-0.3411886 -0.05854689 -0.010316358 0.035676427 -0.23510437 -0.37772322 0.1725799 -0.026762072
0.019132342 -0.017955605 -0.04338627 0.044856936 -0.24637473 0.099397816 0.07356364 -0.5340122
0.044819694 -0.18196195 -0.12356208 -0.17301792 -0.19263536 -0.15429845 0.04543951 -0.008639711
-0.18200544 -0.09599017 0.041031323 -0.1978631 0.038638 -0.070230275 -0.020467054 -0.05754956
-0.075929694 -0.15841687 0.045716476 -0.08003947 -0.01167652 -0.14462204 -0.08572484 -0.14263268
0.0556891 -0.10697052 -0.063614406 -0.009535197 0.014384356 -0.20220241 -0.16081917 0.019983632
-0.06453818 -0.060082227 -0.048796207 -0.046502355 -0.061363228 0.117184624 -0.23319744 -0.1498773
0.16837166 -0.128332 0.07139738 -0.58307314 0.06479733 0.09832733 -0.5405181 0.14475328
0.115940355 -0.6405919 -0.36549065 -0.034349807 0.11564479 -0.03663146 -0.13094145 -0.121676855
-0.06319834 0.17778292 0.0017608855 0.011248997 -0.12125208 -0.27569312 0.034658823 0.063508846

conv.bias f4 [64]
00000000: 59d9 45be e163 3b3d 3a1b 863d ca1f f03d
00000010: 0b5a 26be ef5e fabd 0132 02be 9bf9 463d
00000020: 4ada adbd 8280 103e b57d 563d 4ff8 7dbe
00000030: 94e4 96be 66c0 973d 9aa6 80be d150 68be
00000040: a8a5 2e3e c281 93be d319 423c 5432 873d
00000050: fc1b 6dbe f423 d73d ec2d 183e fe13 2bbe
00000060: 718b c03d d4ec 0abe b95a 403d 4879 b73d
00000070: dfda 39be 12f0 113e ac4a a5be 0ed4 9c3d
00000080: a401 0cbe fc2d 19be e1fe 93be 5f35 6ebe
00000090: 48e7 24be ad12 2abe f585 66be bf56 1ebe
000000a0: 7ca3 003e 26b7 133e 271b 37be e77d 86be
000000b0: f608 aebe 5032 58be 465c cfbd d64a 25be
000000c0: 947b 1abe 5fa2 22be 8618 2d3e 5719 793d
000000d0: c9e0 4fbe abf9 6dbe a59a a3be 90be 2cbe
000000e0: 7056 57be c20c 86be bca0 e1bd 768d 74be
000000f0: 16e5 d73c 5743 193e 9e3c 60be 5f0f 9b3d
-0.19321193 0.04574955 0.06548162 0.11724813 -0.16245286 -0.122251384 -0.12714387 0.048577886
-0.08488901 0.14111522 0.052365977 -0.24801753 -0.29471266 0.07409744 -0.25127107 -0.22687079
0.1705538 -0.28809935 0.011846977 0.06601396 -0.23155206 0.105049044 0.14861268 -0.16706845
0.09401596 -0.13566905 0.04696152 0.089586794 -0.18149899 0.14251736 -0.32283533 0.07657634
-0.13672501 -0.14958948 -0.28905395 -0.23262547 -0.16103852 -0.16608687 -0.22512038 -0.15462779
0.12562364 0.14425334 -0.17881452 -0.2626793 -0.33991212 -0.21112943 -0.10125022 -0.16141829
-0.15086204 -0.15882252 0.16903886 0.06081518 -0.20300592 -0.23239772 -0.31953922 -0.16869569
-0.21029067 -0.26181608 -0.11016986 -0.23882088 0.026354354 0.14967094 -0.21898124 0.07571291

bn1.weight f4 [64]
00000000: 5fa9 693f 0a8c 743f 606c 813f 8d20 893f
00000010: fa5b 7c3f 51b1 843f ca05 673f 5217 763f
00000020: 9264 6e3f 25a7 783f c328 7f3f 47bd 7b3f
00000030: 3996 773f 371e 8d3f 9285 843f ceb8 7c3f
00000040: ee8d 6e3f f046 963f 9c96 993f 4dae 593f
00000050: fe31 873f 7ce0 8b3f fac4 7c3f dda9 8b3f
00000060: 8cf2 723f ffa8 723f 90b3 593f a282 7c3f
00000070: 546f 7b3f f483 803f 24ad 7d3f 3bb0 743f
00000080: 58ee 693f 263d 843f d39b 893f c5bf 6a3f
00000090: 48dc 753f dec6 a33f 23a3 8f3f 6ba2 783f
000000a0: 87b7 813f ad39 5b3f 0644 713f a337 933f
000000b0: 7a11 843f 41e4 613f 2a59 673f a922 863f
000000c0: 5960 8a3f 61fd 883f 0ecc 873f 3721 8c3f
000000d0: d4ee 5a3f bfe6 803f 5566 763f f3d6 7c3f
000000e0: e3d5 4a3f b00a 773f 1071 893f 0c27 893f
000000f0: 0ccd 6a3f cdf1 7d3f 02c8 823f 9774 963f
0.91274065 0.9552618 1.0111198 1.0713059 0.98577845 1.0366613 0.9024321 0.96129334
0.9312221 0.9713004 0.9967157 0.9833569 0.96713597 1.1024846 1.0353262 0.9871949
0.9318532 1.1740398 1.1999087 0.85031587 1.0562131 1.0927882 0.9873806 1.0911213
0.9490135 0.9478912 0.85039616 0.9863683 0.9821675 1.0040269 0.99092317 0.95581406
0.9137931 1.0331161 1.0750679 0.9169887 0.9603925 1.2795064 1.122166 0.9712283
1.0134133 0.8563488 0.9424442 1.1501354 1.0317833 0.8823891 0.9037043 1.0479327
1.0810653 1.0702325 1.0609148 1.0947636 0.8552067 1.0070418 0.96249896 0.98765486
0.79232615 0.9650068 1.0737629 1.0715041 0.91719127 0.99197084 1.0217288 1.175433

bn1.bias f4 [64]
00000000: d19e e43c 1a5d b23c d94a 383d 8558 53bc
00000010: ba2a 233d a3c0 c73c 7b81 f33c c4c6 98bb
00000020: 6a8b d23b 8a06 223c 8bc1 1a3d 03f6 603b
00000030: b8c5 413d 1477 e53c 0c3c 06ba 6f24 b43c
00000040: 0048 933b 46c8 7cba fb9b 9a3c fba9 103c
00000050: c532 b13c 79e6 0a3c 7ff8 be3b bec5 983c
00000060: 2287 fb3b 616d 9dbc 4912 063a 5bc4 71bc
00000070: 44d7 293d 7e38 16bc 8c15 913b 57d3 18bd
00000080: ae4a 3c3d 0a6f 823d f77b 053c 5792 8fbc
00000090: 0e2b c13d 3d56 243d fb2a bf3d 622a 493c
000000a0: 36d3 9dbc aa11 af3b d02d 153d 376f d33d
000000b0: 4c11 653c eaa0 d03b 9db4 863c 8cc9 85bc
000000c0: fd63 103d 2055 82bb 936a 913c 1fcf 9f3b
000000d0: 79e3 c83b f2dd 9c3c 6785 553c 64e8 f83c
000000e0: 3a13 483d cc21 5a3c d023 c43c 59bc 29bc
000000f0: bdf7 ee3b 1682 10bd 2b98 af3c 5fe9 413c
0.02790776 0.02177291 0.044993255 -0.012899523 0.03983567 0.024383849 0.029724827 -0.0046623666
0.006425311 0.009889254 0.037782233 0.0034326322 0.0473077 0.028010882 -0.0005120642 0.02199003
0.004494667 -0.000964288 0.018873205 0.008829589 0.021630654 0.0084778005 0.005827963 0.018648978
0.007676021 -0.019217195 0.0005114419 -0.014756287 0.04146506 -0.009168742 0.0044276174 -0.037310924
0.045969658 0.06368835 0.008147231 -0.017525835 0.0943204 0.040121306 0.0933437 0.012278171
-0.019265752 0.005342682 0.036420643 0.10323947 0.013981175 0.0063668387 0.016443545 -0.016331457
0.035251606 -0.003977433 0.017751014 0.0048769857 0.0061306325 0.0191488 0.013032294 0.03038425
0.04884646 0.013313722 0.023942858 -0.010359847 0.0072927163 -0.03528031 0.021434864 0.011835425

bn1.running_mean f4 [64]
00000000: bc50 b93c 5156 073d 0282 5a3d 2162 e33d
00000010: 180f 663d 642f 0f3d d0bb b53c 0046 613d
00000020: 0400 0000 5779 283e a599 883d ec7f 123d
00000030: 0884 ee3b c058 8a3d d4f4 de39 488c f43c
00000040: aab3 233e d576 593b fed0 a93c 3e0f bd3d
00000050: 8d2e cd3c 29ae ad3d f59c 0e3e bbc5 cd3c
00000060: fc87 da3d 57d0 433c 01ba 3d3d fa9c 843d
00000070: 856c e53c aecd f13d 415d b53c 50aa 853d
00000080: c559 173d 5007 5e3d 6b34 ac3c 73de 6c3c
00000090: a83a 8a3c e17b 2e3d ef93 873b d6d1 713d
000000a0: 5ed0 fd3d c5ea 0a3e 6ace 4f3c 6d77 913b
000000b0: df9b 453d 5312 2e3d fabb 8c3d 0c83 a73c
000000c0: 1108 a23c 6bfa 8b3d b919 fe3d 8085 a23d
000000d0: 848d 4a3d 7c32 0f3c f2aa 343d af47 023d
000000e0: 75db b03c fdf5 6b3d 4007 ab3c 0175 2e3d
000000f0: 0573 883d 78d2 093e d0ae b43c 525c 823d
0.022621505 0.033041302 0.05334664 0.11102701 0.05616674 0.034957305 0.022184283 0.054998398
6e-45 0.16452537 0.0666993 0.035766527 0.007278923 0.06755209 0.0004252555 0.029852048
0.15986505 0.0033182402 0.020729538 0.09231423 0.025046611 0.08480484 0.13927062 0.0251187
0.10670468 0.011951528 0.046319965 0.064752534 0.028005848 0.118068084 0.022139193 0.06526625
0.036950845 0.054206192 0.021021089 0.014457333 0.016873673 0.04259861 0.004137508 0.059038006
0.123932585 0.1356612 0.01268349 0.0044392855 0.048244353 0.042497944 0.06871791 0.02044823
0.019779237 0.06834873 0.1240725 0.07935619 0.049451366 0.008740064 0.04410834 0.031806644
0.02158902 0.05760764 0.02087748 0.042592052 0.06662563 0.13459194 0.022056013 0.06365265

bn1.running_var f4 [64]
00000000: 8a12 8f3b 3602 763b fb16 f93b ddd1 643c
00000010: 7fa9 503c c972 0a3c 667a 913b ea56 e33b
00000020: 0400 0000 53d5 ba3c 842a 2d3c 50ca ee3b
00000030: 146b 873a e233 1d3c c69b 2b38 6bbc e13b
00000040: 1c0d 9b3c 01e6 003a 2987 793b 0c3f 8e3c
00000050: 7534 c83b 3ab4 1f3c b425 943c ebbc ac3b
00000060: cbd5 913c 307b 183b 7463 c73b bddb f63b
00000070: de3c 9c3b 12a7 673c b7bb 913b 0f9b 1f3c
00000080: f0a9 023c 71f4 163c b795 893b 2a8c 1b3b
00000090: 1070 673b 141e 083c 7807 323a 1905 5c3c
000000a0: 50ee 563c 4b12 953c a8db 3c3b 0e21 503a
000000b0: 7ee5 3e3c 746f 043c 4572 8b3c adc4 6e3b
000000c0: 2bc2 763b ac2b 873c b2f0 833c 1c7d 5d3c
000000d0: e81d 353c 6693 b03a 335d 2b3c d592 e43b
000000e0: 5189 903b 8ca1 413c 440c 883b c79b 1a3c
000000f0: 3f19 823c d96d 813c 0514 713b 34be fd3b
0.0043662237 0.003753794 0.0076016164 0.013966051 0.0127357235 0.0084502185 0.00443964 0.006937851
6e-45 0.022806799 0.010569219 0.007287301 0.0010331594 0.009594889 4.0914652e-05 0.0068889163
0.01892715 0.0004917086 0.0038074946 0.017364047 0.006109769 0.009747559 0.018084385 0.005271544
0.01780214 0.0023266785 0.006084854 0.007533519 0.004767998 0.014138954 0.004447426 0.009741559
0.007975087 0.009213553 0.0041987556 0.0023734667 0.0035314597 0.008307952 0.0006791274 0.01342895
0.013118342 0.0181972 0.0028817449 0.0007939496 0.011651395 0.008083213 0.017022261 0.0036433146
0.0037652354 0.016500317 0.016105983 0.013518598 0.0110544935 0.0013471663 0.010459232 0.0069755116
0.0044109006 0.011818301 0.004151853 0.009436554 0.015881179 0.01579945 0.0036785614 0.0077436212

fc1.weight f4 [64, 64]
00000000: 7aca bcba 7423 d03c 5d14 4cbd 6980 efbc
00000010: 053d b7bd 2c83 4e3d 81da 01be 8a71 d3bd
00000020: a3b8 61bd c1de d0bd 8465 8dbd cc89 e2bd
00000030: cca7 3d3c 4d9d d13d b851 27be e6fe 92be
00000040: c97a 893c ba3f bbbc 3e68 9dbd faa1 4e3d
00000050: 0792 c83d 1f91 573e 1e41 0c3d 33b8 0cbc
00000060: 6b37 9a3d c3f1 96bd 016f 9d3d 33e0 933d
00000070: 31b1 ea3d 1e94 243e ba1e 8abd b622 85bd
00000080: 4026 dd3d 2737 91bd b06a cdbb cf48 643d
00000090: 9425 4c3e 85ac 16be d2d9 dc3d 97c5 013e
000000a0: 5df3 37bd c2b2 37bd 3d68 413d 0621 01bc
000000b0: c670 e4bd 2423 4b3e 6423 eebd dcf0 bf3d
000000c0: 5707 e93d dc1d 213e e1fc ab3e 59ae af3d
000000d0: 3c66 483c 91fb 94bd 4e56 363e 5131 3f3c
000000e0: 0780 b2bd 4ddf 5e3e aa37 42bd 4d8c c03c
000000f0: 7dcc babc 17a5 ae3d 6a19 4abb 1d8d 33bc
00000100: 9a1a 21be a756 d53d facc 64bd 945f febd
00000110: e910 d93c df8d 4cbd 7dda 0e3d 93ff f53c
00000120: 05a5 8c3d b862 f63d 108f 0dbe 0b2b b23d
00000130: 26be 09be 5c5c d7bd 899a 45bd 83dd d9bc
00000140: 6017 6e3d 3b72 46bd dcce eebd 0fcf e73d
00000150: 9468 b23d b058 06be 8585 b93d 2a3d 8e3d
00000160: 3766 46bd 0737 7dbe 5dbd f7bd 1b8e 1a3e
00000170: 30b2 123e 9c33 29be 2b53 9e3d ebf7 a3bd
00000180: 9626 ba3d ac37 26be 415d 593d 1c7e 8abd
00000190: 1a41 0c3e 028b 78be 9833 e5bc a280 9c3d
000001a0: c70f 273d 16cd 22bb 4ba3 b03d 612b 773c
000001b0: 1fe8 9fbd e60e 353b a7a0 d8bc 356b 383d
000001c0: 68d2 8dbd d4a5 1d3e d22b dbbd 6673 05bd
000001d0: ef5f b7bc 88d3 87bd f40b 973d 15d4 433d
000001e0: 95db 613d 6d2a 5b3e 0644 1fbd d2a4 193c
000001f0: fefc eabc 9094 5b3e c682 32be fee7 c03d
00000200: c84b fbbd 5d3c e63d 1ffe 3c3e 394a b33c
00000210: 4194 cdbd 7bb3 8cbd 9427 23be a451 b9bd
00000220: dd65 68bd 6942 53be ea6c d6bd 6fe3 b8bd
00000230: 79c2 efbd 4ab3 9fbd 9a3c 9abd 28ea 153e
00000240: 2e1f f4bd 467f 7ebd 996f 3bbd 4e74 da3d
00000250: d451 e93d ff1e 32bd 3de0 2c3d f413 813d
00000260: 70f4 0c3d 6b2b a2bd 7b54 033e 49f7 873d
00000270: 125c 2c3e 37a6 35bd e8c2 373e e1ce ccbd
00000280: f221 1a3d 9e50 0fbe 0457 ec3d bc3e 6bbc
00000290: 22b0 383d 31e6 393e 94c4 afbd 244a afbd
000002a0: 00d7 a5bd b745 2cbe 3460 473c 7d56 90be
000002b0: 4f07 11be f222 b9bd 22f6 403e 8a8e d33c
000002c0: e809 973d d3cf 14be 394a 8d3d af27 95be
000002d0: dd7c 94bd 47c3 e7bb ba7c 80bd 88af 3c3e
000002e0: 9759 31bd e4c4 2b3e c37e 0f3d 58af 2fbe
000002f0: f48e a73c dc1a b0bc 4ab9 653d 254d 543d
00000300: ba66 51bd be44 e6bd ffe1 273e 9821 9c3d
00000310: b04b 6ebd 5420 93bd 8e1e 99bc b7da 96bd
00000320: 7917 02be c128 5cbc bcbf 68be 3147 9dbe
00000330: b735 0fbd 1702 34bc ea79 8abd 1564 a8bd
00000340: be26 89bd 09cd 1e3e 95f7 d13d d03f 693d
00000350: 0526 c23d b974 5d3d 5763 2bbd 7eca 6b3d
00000360: 2260 e0bd 0699 103c ef93 88bd 393f aa3c
00000370: a95e 2b3d b071 47be 9ebe 543c 14bc f43c
00000380: 04c7 a1bc e6ec 8a3c 03b9 603b b415 413e
00000390: e108 40be 701f 333e 2ce5 813d cad5 92bb
000003a0: d0b9 52be ae89 5d3d 8d2f 0dbe 7e19 863d
000003b0: c438 fdbc 6f71 acbc d200 7abe e2f6 2d3e
000003c0: cd74 f6bc 812f 033e 871d 5fbe 01af 35be
000003d0: c393 cc3d 3a2d febd 56c3 9ebd 8a1b fcbd
000003e0: 6c6b 1dbe 460f ffbd 7608 69bc 62fb 1b3d
000003f0: bfbc 28bd 7e52 7cbd 08f9 9e3d ada6 333e
-0.0014403604 0.02540753 -0.049824107 -0.029236035 -0.089471854 0.050418064 -0.12681009 -0.1032439
-0.055107724 -0.10198737 -0.06904128 -0.11061439 0.01157565 0.10235081 -0.16339767 -0.28710097
0.016782181 -0.022857536 -0.07685898 0.05044744 0.097934775 0.21051453 0.034241788 -0.008588838
0.075301014 -0.07370331 0.07687188 0.07220497 0.11459578 0.16072127 -0.06744142 -0.06500761
0.10798311 -0.070905976 -0.0062688217 0.0557335 0.1993621 -0.14714248 0.107837334 0.12673031
-0.044909824 -0.04484821 0.04721855 -0.007881409 -0.11154322 0.19837624 -0.11627844 0.09372112
0.11378353 0.15734047 0.3359137 0.08578176 0.012231406 -0.07274545 0.1780636 0.011669473
-0.087158255 0.2176487 -0.047416367 0.0235044 -0.022802586 0.08527582 -0.0030837902 -0.010958937
-0.15732804 0.10416918 -0.055859543 -0.12420574 0.026497321 -0.049939986 0.034876335 0.030029094
0.068674125 0.12030548 -0.13824105 0.08699616 -0.13451442 -0.10515663 -0.04824308 -0.026594883
0.05812776 -0.048448782 -0.11660549 0.1131879 0.08711353 -0.13119769 0.0905867 0.0694526
-0.048437323 -0.24728023 -0.12096665 0.15093271 0.14325786 -0.16523594 0.07730707 -0.08006271
0.09089391 -0.16232175 0.05306745 -0.06762335 0.1369671 -0.24271777 -0.027978703 0.07641722
0.04078653 -0.002484148 0.08624896 0.015086026 -0.078079455 0.0027627288 -0.026443793 0.045024116
-0.069248974 0.1539529 -0.107017174 -0.032580756 -0.022384612 -0.06632143 0.07375327 0.04780968
0.05514105 0.21402903 -0.03888323 0.009377675 -0.02868509 0.21443391 -0.17432699 0.09419249
-0.122703135 0.11241982 0.18456315 0.021885978 -0.10038043 -0.06870171 -0.15933067 -0.09048775
-0.05673777 -0.20630802 -0.104699925 -0.090277545 -0.117070146 -0.077978685 -0.0753109 0.14640105
-0.119200096 -0.062133096 -0.045760725 0.106667146 0.113925606 -0.04348659 0.042206038 0.06302634
0.0344128 -0.079184376 0.12825195 0.06638963 0.16831997 -0.044347968 0.17945445 -0.100003965
0.03763003 -0.13995597 0.115400344 -0.014358219 0.04508985 0.18154217 -0.08582416 -0.08559063
-0.080976486 -0.16823469 0.012168933 -0.28190985 -0.14162944 -0.090398684 0.18843892 0.025824804
0.07374936 -0.14532404 0.068989225 -0.2913184 -0.07250378 -0.0070728394 -0.0627379 0.18426335
-0.04329833 0.16774327 0.035033 -0.17156732 0.020453908 -0.021497183 0.05608491 0.051831383
-0.05112336 -0.1124358 0.16394804 0.07623595 -0.05817765 -0.071839005 -0.018691327 -0.07365935
-0.12704267 -0.013437451 -0.22729391 -0.30718377 -0.034963336 -0.010986826 -0.067615345 -0.08222214
-0.066968426 0.15507902 0.10252301 0.056945622 0.09479908 0.054066394 -0.041842785 0.05756616
-0.10955836 0.008825546 -0.06668841 0.0207821 0.04183832 -0.19476962 0.0129849 0.029874839
-0.019748218 0.016958665 0.0034289963 0.18855935 -0.18753387 0.17492461 0.06342539 -0.004481052
-0.20578694 0.05408638 -0.1378767 0.06547831 -0.030910857 -0.021050183 -0.24414375 0.1698871
-0.030084992 0.1281109 -0.21788608 -0.1774254 0.09989121 -0.1241097 -0.07752101 -0.1230994
-0.1537301 -0.12454085 -0.014223209 0.038081534 -0.041195627 -0.06160211 0.07762343 0.1754405

fc1.bias f4 [64]
00000000: 3646 e53c b83b dc3d 23aa f53c 3e73 89bd
00000010: 7768 b0bc b38e ff3d d152 0fbe 866e c93d
00000020: 47e2 813a 27f1 44bd a03c a03d bb33 8bbd
00000030: 596f 6a3d 5aeb a33c ce4f aebd 4b77 6e3d
00000040: 8b0d 4c3d 753e 903d 7e95 8bbd 6e1b 19be
00000050: 922c ac3d b54e a8bd f1df 583c a285 583d
00000060: 6a00 fe3d 7599 16be d8d9 1bbd 668d a63d
00000070: 6e48 9fbd eea5 143b c53e acbc 7492 07be
00000080: 3ba8 8e3c 0f77 a53c adba dcbd 02be a23d
00000090: 3338 043e ae78 fe3d 13df 8a3d 158a 4dbe
000000a0: eb2a 06bc efed 06be 4577 66bd 100e bebd
000000b0: 17ba d43b 2f47 35be bf1b c33d c872 ca3c
000000c0: 229a b2bd d9a3 2f3d 1da4 5abd b746 073e
000000d0: 8a72 c2bd c9d1 0e3e 698f 21be 7a9d 24be
000000e0: 53d1 f9bd 94bc 71bd e5ce 26be a112 d8bc
000000f0: dade dd3d ab68 df3a 99ec 363d 2afe 8a3d
0.02798758 0.10753578 0.029988354 -0.06711434 -0.021534188 0.124783896 -0.13996436 0.09835534
0.0009909355 -0.048081543 0.07824063 -0.06796976 0.057235096 0.020009685 -0.08511315 0.058219235
0.049817603 0.07043163 -0.06815623 -0.1495187 0.084069386 -0.08218137 0.013236986 0.052861817
0.12402423 -0.14706977 -0.03804955 0.08132438 -0.07777487 0.002268191 -0.021026025 -0.13239461
0.017414203 0.020198373 -0.10777793 0.07946397 0.12912063 0.124253616 0.06780829 -0.20072205
-0.008188943 -0.13176702 -0.056266088 -0.09280026 0.00649191 -0.17702936 0.095267765 0.024712935
-0.08720805 0.042880867 -0.053379167 0.1321057 -0.09494503 0.13947214 -0.15777363 -0.16075698
-0.121981286 -0.059017733 -0.16289862 -0.02637607 0.10833521 0.0017044743 0.04465923 0.06786759

bn2.weight f4 [64]
00000000: aae8 973f 9266 a03f 1248 973f bba1 893f
00000010: fbd2 ad3f bed8 a43f 061f a53f 38c6 943f
00000020: 5578 8f3f 7e03 8f3f a7f9 993f 7b73 953f
00000030: 73f5 9a3f b992 983f 5f8e 8b3f e1cd 9a3f
00000040: c3d6 913f e75c a33f 0a91 9c3f bb12 9f3f
00000050: 7318 983f 2917 9a3f 1dba a23f b0da 9a3f
00000060: a241 973f c475 8a3f 4fe6 883f 85e4 983f
00000070: 0aca 933f 925d a03f 88f0 983f 5e56 8d3f
00000080: d25b 9a3f d8ee 953f fe4a 963f 7370 9e3f
00000090: 1a7d af3f 4076 a13f 7389 a43f 5ad4 923f
000000a0: a9c7 953f 6ffc 823f f185 8d3f bdb9 ad3f
000000b0: 8c8d 9e3f 65ab c03f 8501 a13f 77fa 983f
000000c0: 7c44 993f 6119 953f bab0 983f 1a28 ad3f
000000d0: b9fb 8e3f 96bc a13f bd86 893f 0e41 883f
000000e0: d7bf 873f fab7 923f d60b 8e3f d2c5 a63f
000000f0: c435 9a3f 4206 a73f 22c8 9b3f 9555 a03f
1.1867878 1.2531302 1.1818869 1.0752481 1.3580011 1.2878644 1.2900093 1.1622992
1.1208597 1.1172941 1.2029313 1.1675867 1.2106155 1.1919776 1.0902823 1.2094079
1.1393665 1.2762727 1.2231762 1.2427591 1.1882461 1.2038318 1.2713047 1.2097988
1.1816905 1.0817189 1.0695285 1.1944739 1.1546032 1.2528555 1.1948404 1.1041982
1.2059271 1.1713514 1.1741636 1.2378067 1.3710053 1.2614212 1.2854446 1.1471055
1.1701556 1.0233287 1.1056501 1.3572308 1.2386947 1.5052305 1.2578589 1.1951436
1.1974025 1.164837 1.1928933 1.3527863 1.117057 1.2635677 1.0744244 1.0644853
1.060542 1.1462395 1.1097362 1.302912 1.2047658 1.3048785 1.2170451 1.2526118

bn2.bias f4 [64]
00000000: 30d0 123b 7bc2 fa3a de81 12bb 2c5f 12bb
00000010: 9a0b b1ba d0c4 913a a1bc 0cbb e849 053b
00000020: 13f5 f83a 1609 d6b8 2dd6 853a 85a2 4c3a
00000030: 2643 2e3b c115 90ba 39c9 863b 17f7 353b
00000040: 9850 d93a 511d 26bb 3a3b e03a 94fb 623b
00000050: eeec c83a 762e c139 b7c4 9bba 80c6 0f3b
00000060: e450 97ba c977 12bb 2078 443b 466d cfba
00000070: ef4f 5f3a d091 2f3b 7c9a a93a cc1e f7ba
00000080: af95 403b 1027 613b 9e6d c8bb 2e8f 4f3b
00000090: 8506 9bba 8e86 0e3b 9401 c2ba 87d7 f03a
000000a0: e419 e0ba 3d2a d3ba dcf1 5738 ef22 54bc
000000b0: 465e b73a ac88 feb9 a7f4 f13a 00c4 cfba
000000c0: 2206 cb3a 7032 d9ba 5f68 27bb 676e d1ba
000000d0: f900 023a e35d f8ba eab9 593b c9d9 553a
000000e0: 7c2b 533b fc07 70ba 3243 29bb 2d9d c0ba
000000f0: 3080 033b fc4e 083b b8b3 34bb ff95 5c3b
0.0022401921 0.0019131446 -0.002235524 -0.002233456 -0.0013507486 0.0011121277 -0.0021474736 0.002033824
0.0018993936 -0.000102060076 0.0010210924 0.00078062 0.0026590317 -0.0010992811 0.004113343 0.0027765685
0.0016579805 -0.0025347064 0.0017107495 0.0034634816 0.00153294 0.00036846445 -0.0011884187 0.0021938384
-0.0011544493 -0.002234923 0.0029978827 -0.0015825413 0.0008518686 0.0026789792 0.0012939717 -0.0018853783
0.0029386093 0.0034355558 -0.006116583 0.0031671035 -0.0011827504 0.0021747681 -0.0014801496 0.0018374779
-0.001709756 -0.001611061 5.1485244e-05 -0.012947782 0.0013989888 -0.00048548484 0.0018459753 -0.0015851259
0.0015489499 -0.0016570818 -0.0025544388 -0.0015978337 0.00049592514 -0.0018948879 0.0033222386 0.00081577577
0.0032221964 -0.0009156463 -0.0025827405 -0.001469528 0.002006542 0.0020799031 -0.002757294 0.003365874

bn2.running_mean f4 [64]
00000000: 9c50 9d3d 2296 ea3d f5a7 a83d 752b 1b3d
00000010: f9b4 ff3d 3ece 243e e997 143d 67ea f53d
00000020: e7c9 e63c 4cf0 143d ae99 c53d e054 c93c
00000030: 3906 d03d c358 953d 4587 023c 1a02 993d
00000040: 3be9 c33d 8d6e d23d 6636 1c3d 2ad1 153b
00000050: d63f bc3d a25b 213d dfc4 483d 1756 e33d
00000060: 8ffc 0c3e bbb9 9b3c 55ce 733c 816b d53d
00000070: f73c 023d 442c 923d 91b2 0e3d 778d 263c
00000080: 0936 873d feac 3a3d 126d 0b3d 2f41 e73d
00000090: cd2a 063e a177 193e b7d1 e83d b41c 833a
000000a0: e64a 693d 491a 583c ebbf 053d 09f3 593d
000000b0: 5002 d03d 01e0 5539 5a62 0b3e f410 b23d
000000c0: 6d13 233d 3800 be3d 6978 603d f123 173e
000000d0: a6bb cd3c e906 163e 04f2 003b bcdb 9b3c
000000e0: 5a26 583b 2fc1 263d ebe6 ad3c 199c 5b3d
000000f0: df58 ff3d f125 873d 7bc8 d13d 2565 c83d
0.07681391 0.11454417 0.0823516 0.03788324 0.1248569 0.160943 0.036277685 0.12007599
0.028172446 0.036361977 0.09648453 0.024576604 0.10157437 0.072923206 0.007966821 0.07471104
0.095659696 0.10274992 0.038137816 0.0022860267 0.09191863 0.03939403 0.049015876 0.11100405
0.13768218 0.019009462 0.014880736 0.10420895 0.03179642 0.07137349 0.034838263 0.010165564
0.06602103 0.045575134 0.034039564 0.1129173 0.13102265 0.14987041 0.11368125 0.0010003061
0.056956194 0.013189861 0.03265373 0.053210292 0.10156691 0.00020396711 0.13611737 0.0869464
0.039813448 0.092773855 0.054802332 0.14759804 0.025113892 0.14651074 0.0019675503 0.019025676
0.0032981844 0.040711578 0.021228274 0.053615663 0.12468123 0.065990336 0.10243317 0.09784917

bn2.running_var f4 [64]
00000000: 5b0d 213c a6fa 433c af4f 4b3c 19de 813b
00000010: 2b5a 843c 6fcf a03c 2970 ed3b fe4a 153c
00000020: 2300 473b 9093 883b dd25 403c 7f60 393b
00000030: 0b55 183c 5074 0b3c a98a 283a fcbe 203c
00000040: f812 003c e7ee 1a3c 9d64 963b e690 6339
00000050: d9f2 103c c1dd ce3b 2594 dd3b 15e5 6f3c
00000060: dce9 9f3c 31dc f93a 3d62 b03a eaec 253c
00000070: b418 703b 2ea9 113c 2ae5 5d3b 8d8a 5f3a
00000080: 8d4b f03b 3318 b33b 44f1 913b c65f 173c
00000090: 80c9 883c d408 b93c 653c 863c 0d5f 6038
000000a0: 874d fc3b 14fb d03a 8db7 593b bec5 fa3b
000000b0: 06cd ba3c 1292 d437 6aee 973c c501 3a3c
000000c0: e7f8 203c c104 483c 1918 df3b e839 6c3c
000000d0: d4b5 243b 0885 753c 932a 6639 0f60 263b
000000e0: 5892 6739 4ccd c53b c5fe 3f3b 1edb 233c
000000f0: 6e4d 723c b270 483c 2559 8f3c 244a 263c
0.009829844 0.011961615 0.012409135 0.0039632437 0.016156277 0.019630162 0.0072460365 0.009112118
0.0030365072 0.0041679814 0.011727777 0.0028286276 0.00929762 0.008511618 0.00064293534 0.009811159
0.0078170225 0.009456373 0.0045896308 0.00021702386 0.008846962 0.006313056 0.006762045 0.01464202
0.019520693 0.0019062815 0.0013457012 0.0101272855 0.0036635818 0.008890433 0.0033858516 0.00085274206
0.007333225 0.0054655313 0.00445381 0.009239143 0.016697645 0.022587217 0.01638622 5.3494285e-05
0.0076996717 0.0015943968 0.0033220977 0.0076529672 0.02280284 2.5340389e-05 0.018546302 0.011352961
0.009824968 0.012208165 0.0068082926 0.014418103 0.0025132792 0.01498533 0.0002195037 0.0025386845
0.00022084394 0.006036436 0.0029296142 0.010000972 0.0147889685 0.0122339 0.017498562 0.010149512

fc2.weight f4 [1, 64]
00000000: 8659 9c3e eeb1 a03e b4de 84be 04d6 1bbe
00000010: ede8 c1be e7f1 bd3e 4005 c8be 8e26 763e
00000020: b11b 13be d267 1abe 28f1 6c3e 0eed 443e
00000030: ea5a 983e 1d78 8abe 1ffc 003e f513 a93e
00000040: 37a6 7a3e da32 96be 813f 9d3e ed39 6bbe
00000050: 054e 863e b5f2 903e 5591 abbe 3eeb 993e
00000060: 4abc 8fbe c8c0 29be d1ef 1d3e 444c a3be
00000070: 0c4a 5f3e 744c ac3e 493d 43be 926b 6cbe
00000080: 3d34 763e 4066 943e 820f 473e 9fc0 ad3e
00000090: 3f51 c3be 5fea c33e a928 a0be e69d 653e
000000a0: 43d8 8ebe 2aff d6bd c607 503e dbcb bdbe
000000b0: eb43 b33e 305d 08bf a7c6 ab3e be90 86be
000000c0: b7d0 863e 2edf 8dbe 2d90 78be 0b87 c7be
000000d0: 2756 673e 7596 b0be 4034 f13d b45f 3b3e
000000e0: 5a3d 133e bda0 7dbe 2582 47be ef81 b2be
000000f0: cd33 a23e ee50 db3e 33a5 93be 5bb5 ae3e
0.3053705 0.3138575 -0.2595116 -0.15218359 -0.3787302 0.3709862 -0.39066505 0.24038145
-0.14366032 -0.15078667 0.23138869 0.19231054 0.29756862 -0.27044764 0.12596177 0.33023039
0.24477468 -0.29335672 0.30712512 -0.22971316 0.262314 0.2831017 -0.33509317 0.30062288
-0.2807334 -0.16577446 0.15423514 -0.31894124 0.2180559 0.3365208 -0.19066347 -0.2308791
0.24043365 0.2898426 0.1943951 0.3393602 -0.38147923 0.38264748 -0.3128102 0.22423515
-0.2789937 -0.104978874 0.20315465 -0.37069592 0.35012755 -0.5326719 0.33549997 -0.26282305
0.26331112 -0.27709335 -0.24273749 -0.38970217 0.22591458 -0.3448979 0.11777544 0.18298227
0.14378873 -0.24768348 -0.1948324 -0.34864756 0.31680146 0.42835182 -0.28836975 0.34122738
