result/dee_phage/1200_1800/fold_1/20250430-213846/1800_0.0001_32_model.pt (torch, 31505 bytes, 13 tensors)

conv.weight f4 [64, 4, 6]
0	0x3e329da8	0.17442954
1	0xbe3184c0	-0.17335796
2	0x3cad7985	0.02117611
3	0xbcf5e1a7	-0.030014826
4	0x3e0b6d54	0.13615924
5	0xbe0a1ad5	-0.13486798
6	0x3dca3ece	0.0987526
7	0xbe2f45fd	-0.17116542
8	0x3d16639e	0.036716096
9	0x3dcbcf9c	0.09951708
10	0x3dd9fa8d	0.10643492
11	0x3e07c27b	0.13257782
12	0x3e152914	0.14566451
13	0xbde1f4d2	-0.11033024
14	0x3e4de5e6	0.2010723
15	0xbe3e07bc	-0.18557638
16	0x3c2f60cf	0.010704233
17	0xbdbe674f	-0.09297048
18	0xbe5d0c37	-0.21586691
19	0x3e4aac5a	0.1979231
20	0x3e199319	0.1499752
21	0xbd64dd28	-0.055874974
22	0xbe2371bc	-0.15961355
23	0x3df0787e	0.11741732
24	0xbd361747	-0.044455793
25	0xbe1e9451	-0.15486266
26	0x3cfae5a9	0.030627089
27	0x3e29b733	0.16573791
28	0xbe2c22ce	-0.16810152
29	0x3da2c2eb	0.07947334
30	0x3dc110cd	0.094270326
31	0xbd244712	-0.04010684
32	0xbe1e8023	-0.15478568
33	0x3dffd759	0.12492246
34	0xbd4881be	-0.048951857
35	0xbe223f47	-0.15844451
36	0xbc85aa45	-0.016316542
37	0x3c8af688	0.016963258
38	0x3d9e952c	0.07743296
39	0x3e2f11fc	0.17096704
40	0xbddc89cc	-0.1076847
41	0xbe41ac9c	-0.18913502
42	0xbbe78579	-0.0070654717
43	0x3dbaf4a9	0.091286965
44	0xbdc383e7	-0.09546643
45	0xbdbf1331	-0.09329832
46	0x3e19b22c	0.15009373
47	0xbe277e27	-0.16356717
48	0x3e26090c	0.16214389
49	0xbda31820	-0.07963586
50	0x3da6d9f4	0.0814704
51	0xbe212544	-0.15736872
52	0xbc97ef10	-0.018546611
53	0xbdd143b0	-0.102179885
54	0xbcd8d49b	-0.026468566
55	0xbe14cc85	-0.14531143
56	0x3daaccf5	0.08339874
57	0xbe234856	-0.15945563
58	0x3d1480fc	0.03625582
59	0x3e1bc229	0.15210785
60	0xbddeeaf3	-0.10884657
61	0xbd80e61d	-0.062938906
62	0xbd61e0bb	-0.05514596
63	0xbe3ed371	-0.18635346
64	0xbdbc58bd	-0.09196613
65	0x3e2ef142	0.1708422
66	0x3e11c205	0.14234169
67	0xbe293453	-0.16523866
68	0x3c4482e8	0.011994101
69	0xbddcd37e	-0.107825264
70	0x3d85f4e9	0.065408535
71	0xbe3b4481	-0.18287851
72	0xbd23a781	-0.039954666
73	0xbb83ebbc	-0.0040259045
74	0xbd137ee5	-0.036009688
75	0xbe06ac95	-0.13151772
76	0x3d89cc24	0.0672839
77	0x3e1568ff	0.14590834
78	0xbe335e01	-0.17516328
79	0x3dc43a8b	0.09581479
80	0x3d10ae69	0.03532258
81	0xbce5bcc5	-0.028044114
82	0xbcf8846b	-0.03033658
83	0xbdfc8bd4	-0.123313576
84	0xbd099bdb	-0.0335959
85	0x3e0f9945	0.14023311
86	0x3da083e8	0.07837659
87	0xbcf9bb39	-0.030484783
88	0xbe3330e1	-0.17499115
89	0xbc41f388	-0.0118378475
90	0x3e34a6f6	0.17641816
91	0x3daa632b	0.08319696
92	0x3e12f020	0.14349413
93	0xbe4a332c	-0.19746083
94	0xbd1fe46c	-0.0390362
95	0x3d9bd096	0.07608144
96	0x3e43b3fa	0.19111624
97	0xbe2d5b39	-0.1692933
98	0x3e023a1c	0.1271748
99	0xbe4851db	-0.19562475
100	0xbe5a201c	-0.21301311
101	0xbdfcaa03	-0.12337115
102	0x3e118bd4	0.14213496
103	0xbcc10212	-0.023560558
104	0x3e429028	0.19000304
105	0x3d845447	0.06461387
106	0xbe234ef4	-0.15948087
107	0x3e2b62f6	0.1673697
108	0xbe2b966e	-0.16756603
109	0xbdb45d54	-0.088068634
110	0x3dd4639d	0.10370562
111	0x3daaf87f	0.08348178
112	0xbe0da770	-0.13833404
113	0x3e2a1e65	0.16613157
114	0x3e36d533	0.17854767
115	0xbc7afe3a	-0.015319401
116	0x3dc01e3f	0.09380769
117	0x3d959220	0.07303262
118	0x3d864662	0.06556393
119	0x3dc85a0e	0.097828016
120	0xbd4e9a9e	-0.050440423
121	0xbd618756	-0.055060707
122	0xbdd67164	-0.10470846
123	0xbc0c1990	-0.008551016
124	0xbe4584c1	-0.19288923
125	0xbd6ceb1f	-0.057841416
126	0xbe38671a	-0.1800808
127	0xbe4ded4c	-0.20110053
128	0xbce2f1a6	-0.027703118
129	0x3de9567c	0.11393449
130	0x3d8388cb	0.064225756
131	0xbd631ba7	-0.055446293
132	0xbdb88e3a	-0.090115026
133	0xbe248654	-0.16066867
134	0xbdc7a69b	-0.09748574
135	0x3d956edd	0.07296536
136	0xbd491efd	-0.04910182
137	0xbe22b377	-0.15888773
138	0x3d9066d5	0.07050864
139	0xbddc7dba	-0.10766168
140	0xbe2c0341	-0.16798116
141	0x3dc6b925	0.09703282
142	0x3e44b36f	0.19209073
143	0x3cfe8e72	0.031073783
144	0x3cd5d052	0.026100311
145	0x3e076206	0.13220987
146	0x3dc93ce7	0.09826069
147	0x3e33cf99	0.17559661
148	0xbd508974	-0.050912336
149	0xbd7fa3f5	-0.06241222
150	0x3a903f43	0.0011005182
151	0xbe05dfd6	-0.13073668
152	0xbe00a2e2	-0.12562135
153	0xbd64d00e	-0.05586248
154	0xbd2f8ab5	-0.04285689
155	0x3e255184	0.16144377
156	0xbd399a83	-0.04531337
157	0x3ca66926	0.02031381
158	0x3df586d6	0.119886085
159	0x3d12984e	0.03578978
160	0x3e188751	0.14895369
161	0xbdb3145d	-0.08744118
162	0xbdf78f9d	-0.12087939
163	0xbe2a2d92	-0.16618946
164	0xbe53f59f	-0.20699166
165	0xbe39a219	-0.18128242
166	0x3e1ca9be	0.15299127
167	0xbe20449b	-0.15651171
168	0x3dd2f12f	0.10299908
169	0xbcbf54de	-0.023355898
170	0xbe209775	-0.15682776
171	0xbe2808a3	-0.16409545
172	0xbe42597b	-0.18979447
173	0xbe1a3eec	-0.15063065
174	0xbe3b3ede	-0.182857
175	0x3e28ff14	0.16503555
176	0x3d4f4220	0.05060017
177	0x3e284158	0.16431177
178	0x3e049184	0.12946135
179	0xbdd5f738	-0.10447544
180	0x3b963c62	0.004584835
181	0x3db97db0	0.09057176
182	0xbdca070e	-0.09864627
183	0xbdf25c16	-0.1183397
184	0x3e434ac3	0.19071488
185	0xbdbae900	-0.091264725
186	0xbd03e044	-0.0321963
187	0xbe39ec03	-0.18156438
188	0x3d098bee	0.033580713
189	0xbbb2da84	-0.005458178
190	0x3e416d2c	0.18889302
191	0xbe3af79a	-0.18258515
192	0xbd15f191	-0.03660733
193	0x3e4011a2	0.18756726
194	0xbe04c83f	-0.12967013
195	0x3e0f7362	0.14008859
196	0x3d51b52d	0.051198173
197	0x3d094016	0.033508383
198	0x3de3af5f	0.11117434
199	0xbd810faf	-0.063018195
200	0x3dcd2994	0.10017696
201	0x3dca0378	0.09863943
202	0x3dc212fe	0.09476279
203	0xbe02b6a7	-0.12764989
204	0xbc41ab45	-0.011820619
205	0xbcc4a548	-0.024004593
206	0x3db522af	0.08844506
207	0x3dc7c3a9	0.09754116
208	0xbccaf168	-0.024773315
209	0x3dbba789	0.09162814
210	0x3d09983d	0.03359245
211	0x3d2d5824	0.042320386
212	0xbe28e669	-0.16494144
213	0xbe32711e	-0.17425963
214	0xbd7afe87	-0.061277892
215	0xbe300709	-0.17190184
216	0x3df63f25	0.120237626
217	0xbe352282	-0.17688945
218	0xbe0ac4ab	-0.13551585
219	0x3e3d03e2	0.18458512
220	0x3df145a2	0.117808595
221	0x3e0b0a38	0.13578117
222	0x3dbbd5c1	0.0917163
223	0xbd827791	-0.06370462
224	0xbe0b7efb	-0.13622658
225	0xbde76403	-0.112983726
226	0xbe065640	-0.1311884
227	0x3dd2bd7b	0.10290047
228	0x3e39270b	0.180813
229	0xbd2e0222	-0.042482503
230	0xbdb9e107	-0.09076124
231	0x3dceb086	0.10092263
232	0xbe3981ba	-0.18115893
233	0x3d4b504f	0.049637135
234	0xbe0f008d	-0.13965054
235	0x3e3a3f87	0.18188296
236	0xbd824c93	-0.063622616
237	0x3e3613e1	0.1778102
238	0x3df38032	0.11889686
239	0xbe1bb2d9	-0.15204944
240	0xbe2e59a0	-0.17026377
241	0x3e1ab1d3	0.15106897
242	0xbdda1a9f	-0.10649609
243	0xbd4c8acb	-0.04993705
244	0xbddd5d31	-0.108087905
245	0xbc15b9e4	-0.009138558
246	0x3de8718d	0.11349783
247	0x3e153d4a	0.14574161
248	0x3ccf7ca0	0.02532798
249	0x3d63c777	0.055610146
250	0x3def92dd	0.11697934
251	0xbc1eec09	-0.00969983
252	0xbccef15c	-0.025261573
253	0xbe030560	-0.12795019
254	0xbe00a54b	-0.12563054
255	0xbd140a60	-0.036142707

conv.bias f4 [64]
0	0xbcaa50e8	-0.020790532
1	0x3d6ad370	0.05733055
2	0x3c418376	0.011811128
3	0x3e199751	0.14999129
4	0xbe3ec89e	-0.18631217
5	0xbba95909	-0.0051680845
6	0xbd304935	-0.043038566
7	0xbd826e6d	-0.06368718
8	0x3d86cf4d	0.06582508
9	0x3d66d66e	0.05635684
10	0xbdef313a	-0.11679311
11	0x3deb72ff	0.11496543
12	0x3e3df827	0.18551694
13	0x3d4900c7	0.049073007
14	0xbd22fc86	-0.039791606
15	0x3d979216	0.074009106
16	0xbd12a6bd	-0.035803545
17	0x3e195f8c	0.14977854
18	0x3e567490	0.20942903
19	0x3e02882c	0.12747258
20	0xbe01794a	-0.12643924
21	0x3db23fb8	0.0870356
22	0x3d81f9bb	0.063464604
23	0x3e0c5ffe	0.13708493
24	0x3e57e0e2	0.2108188
25	0xbdbb89a9	-0.09157116
26	0x3e46e6ff	0.19424056
27	0xbe377b63	-0.17918162
28	0x3d301412	0.04298789
29	0x3e196b3a	0.1498231
30	0xbdae38b3	-0.08506908
31	0xbde6a6fb	-0.11262318
32	0x3e16c711	0.14724375
33	0x3e033af6	0.1281546
34	0x3d6d2ec1	0.057905916
35	0x3d8a2523	0.067453645
36	0x3d3dd66e	0.046347074
37	0x3ddff2a3	0.10934951
38	0x3d62df20	0.05538857
39	0x3c854a43	0.016270762
40	0xbbbd4d0c	-0.005777007
41	0x3e04f9a7	0.1298586
42	0xbe28b2ca	-0.16474453
43	0x3d556cf4	0.05210586
44	0xbbe7fcfc	-0.0070797186
45	0x3df7393d	0.12071464
46	0xbe14c926	-0.14529857
47	0xbe31b7bf	-0.1735525
48	0x3e189ab8	0.1490277
49	0x3d81dc8d	0.06340895
50	0x3e28db20	0.1648984
51	0xbe371982	-0.17880824
52	0xbe1c44af	-0.15260576
53	0xbd6dda63	-0.058069598
54	0xbce78367	-0.0282609
55	0xbe197ae9	-0.14988293
56	0xbe573ecd	-0.2102005
57	0xbe00c468	-0.12574923
58	0x3df5f1a2	0.120089784
59	0xbe0217ac	-0.12704343
60	0x3de65fca	0.11248739
61	0xbdd31c5f	-0.10308146
62	0x3e3e5048	0.18585312
63	0x3d91a6ea	0.071119145

bn1.weight f4 [64]
0	0x3f7d54ee	0.9895772
1	0x3f82420a	1.0176404
2	0x3f7f5823	0.9974386
3	0x3f80fd13	1.0077232
4	0x3f7ff7af	0.9998731
5	0x3f81f142	1.0151751
6	0x3f7f8de2	0.9982587
7	0x3f7f58b9	0.99744755
8	0x3f806f09	1.0033885
9	0x3f7e0dad	0.9923962
10	0x3f806707	1.0031441
11	0x3f7c7403	0.9861452
12	0x3f80a2c4	1.0049672
13	0x3f7ed430	0.9954252
14	0x3f82b8d3	1.0212654
15	0x3f800f83	1.0004734
16	0x3f7b3111	0.98121744
17	0x3f7f177b	0.99645203
18	0x3f7fe75e	0.99962413
19	0x3f7d9a34	0.9906342
20	0x3f8208f9	1.0158988
21	0x3f81021e	1.0078771
22	0x3f7f0096	0.9961027
23	0x3f8084de	1.0040548
24	0x3f7ff609	0.99984795
25	0x3f806401	1.0030519
26	0x3f8234d2	1.017237
27	0x3f80b9a5	1.0056654
28	0x3f7f790b	0.9979407
29	0x3f80b6aa	1.0055745
30	0x3f80e9f0	1.0071392
31	0x3f80592c	1.0027213
32	0x3f80a33e	1.0049818
33	0x3f7f7c4c	0.99799037
34	0x3f7f8c42	0.9982339
35	0x3f7f4735	0.9971803
36	0x3f8120a9	1.0088092
37	0x3f7cce44	0.98752236
38	0x3f8219eb	1.016416
39	0x3f7ec486	0.9951862
40	0x3f7f50fc	0.9973295
41	0x3f8007ff	1.000244
42	0x3f804afb	1.0022882
43	0x3f8213e6	1.0162323
44	0x3f7e437f	0.9932174
45	0x3f807e97	1.0038632
46	0x3f7ef8e5	0.9959853
47	0x3f7ddf72	0.99169075
48	0x3f7aef29	0.9802118
49	0x3f8008da	1.0002701
50	0x3f7c7b0e	0.98625267
51	0x3f80a2d3	1.004969
52	0x3f80c578	1.0060263
53	0x3f7f9853	0.99841803
54	0x3f808c26	1.004277
55	0x3f7edbee	0.99554336
56	0x3f800326	1.0000961
57	0x3f7c9839	0.98669773
58	0x3f806eeb	1.003385
59	0x3f7e0d8b	0.99239415
60	0x3f8011ff	1.0005492
61	0x3f81995d	1.0124928
62	0x3f7fa59b	0.9986207
63	0x3f7f4a56	0.997228

bn1.bias f4 [64]
0	0x3c3031d3	0.0107540665
1	0xbc50c31c	-0.01274183
2	0xbad9a1c1	-0.0016603993
3	0x3c878651	0.01654354
4	0xbc5874ea	-0.013211468
5	0xbbac9529	-0.0052668047
6	0xbc53452d	-0.012894911
7	0xbbf18fea	-0.007371892
8	0xbc4ceb2e	-0.012507243
9	0xbb1811c2	-0.0023203944
10	0x3b88d489	0.004175727
11	0xbba4b3d7	-0.0050263214
12	0xbc55aacd	-0.01304121
13	0x3c2a98ed	0.010412437
14	0xbc4250f2	-0.011860119
15	0x3bda6464	0.0066647995
16	0xbb8ce97e	-0.0043002954
17	0xbc8cceed	-0.017188514
18	0x3af28f77	0.0018505891
19	0x3bdce41f	0.0067410613
20	0xbca1ff94	-0.01977519
21	0xbbac006b	-0.0052490733
22	0x3c7bdda4	0.015372667
23	0x3b08315c	0.0020781374
24	0xbc69a000	-0.014259338
25	0x3c38252c	0.011239331
26	0x3b55cbc6	0.003262268
27	0x3ca1afa9	0.019737082
28	0xbac79c8a	-0.0015229147
29	0xbc2e5f35	-0.010642816
30	0xbbdf879f	-0.006821587
31	0x3b131044	0.0022440115
32	0xbbc1060b	-0.005890613
33	0x3b89a40e	0.004200465
34	0xbc2c1be6	-0.010504698
35	0x3b8ed257	0.0043585706
36	0x3c631ddc	0.0138620995
37	0x3c5f240c	0.013619434
38	0x3c04814a	0.008087466
39	0xbb74cf01	-0.003735483
40	0x3c56d2cc	0.013111781
41	0xbc224b2a	-0.009905616
42	0x3c16022b	0.00915579
43	0xbc938a0c	-0.018010162
44	0xbbae49d6	-0.0053188605
45	0xbbfa2009	-0.0076332134
46	0xbbbcf958	-0.005767029
47	0xbc089fb5	-0.008338858
48	0xbc070ee1	-0.0082432935
49	0x3c7dbdea	0.015487174
50	0x3b341046	0.002747552
51	0x3b3f2bce	0.0029170397
52	0x3b58a147	0.0033055113
53	0x3a0be9e0	0.0005337279
54	0x3c8da512	0.017290626
55	0xbbc8626d	-0.006115249
56	0x3c370d1e	0.011172561
57	0xbb8a6511	-0.004223474
58	0xbc189b1c	-0.009314325
59	0x3c622295	0.01380219
60	0xbc08fa45	-0.00836045
61	0xbb94302f	-0.0045223455
62	0xbbcbf295	-0.0062239864
63	0xbc35de7b	-0.011100407

bn1.running_mean f4 [64]
0	0x3e8c63f8	0.2742002
1	0x3e30efc9	0.17278971
2	0x3d6f9f2d	0.05850141
3	0x3e9a1355	0.30092874
4	0x3df94ab3	0.12172451
5	0x3ca042b5	0.019563058
6	0x3de26a34	0.11055413
7	0x3d870a58	0.0659377
8	0x3e82939f	0.2550325
9	0x3e9a1b5e	0.30099005
10	0x3db799e9	0.08964903
11	0x3ef8722b	0.48524603
12	0x3e99c445	0.30032554
13	0x3ec9d92e	0.39423507
14	0x3dcec74d	0.10096607
15	0x3ed29bf6	0.41134614
16	0x3ec49286	0.3839304
17	0x3e4cf373	0.20014744
18	0x3ed5d6bf	0.417654
19	0x3e9c3428	0.30508542
20	0x3e009cb4	0.12559777
21	0x3e9a4b26	0.3013546
22	0x3ed13a57	0.40864822
23	0x3ec8e9fc	0.39241016
24	0x3ee8c879	0.45465448
25	0x3e6fe838	0.23428428
26	0x3eeac197	0.45850822
27	0x3e17381a	0.14767495
28	0x3e7e7c28	0.2485205
29	0x3e85ce30	0.2613387
30	0x3da5b55b	0.080912314
31	0x3dfdcca6	0.12392549
32	0x3e0a1238	0.13483512
33	0x3e4df26d	0.2011201
34	0x3eb34554	0.3501383
35	0x3e981531	0.29703668
36	0x3e83cb12	0.25740868
37	0x3e81d87b	0.25360474
38	0x3e512992	0.20426014
39	0x3e87807d	0.26465216
40	0x3d8000b7	0.06250136
41	0x3ef59394	0.47964156
42	0x3ddbdd81	0.10735608
43	0x3e5d3e3a	0.21605769
44	0x3e2b9320	0.16755342
45	0x3d740dd9	0.05958352
46	0x3e37441d	0.17897077
47	0x3ddf72c7	0.10910564
48	0x3e86f72a	0.26360446
49	0x3d84e37a	0.064887
50	0x3ef2dac0	0.47432518
51	0x3d31c794	0.043403223
52	0x3dd0e55a	0.10199995
53	0x3e6ce857	0.23135506
54	0x3e5a9628	0.21346343
55	0x3e5408f0	0.20706534
56	0x3dbe3b31	0.092886336
57	0x3e217f05	0.1577111
58	0x3deec54c	0.11658725
59	0x3dabdeb9	0.0839209
60	0x3e732087	0.23742877
61	0x3e938170	0.2880969
62	0x3eb52f05	0.35387436
63	0x3e59d69c	0.21273273

bn1.running_var f4 [64]
0	0x3d3b6563	0.045750987
1	0x3cae68b4	0.02129016
2	0x3bc8c1df	0.006126627
3	0x3ccd6e39	0.025076972
4	0x3c9b882a	0.018985827
5	0x3b219291	0.002465401
6	0x3cc27d7a	0.023741473
7	0x3c3aac38	0.011393599
8	0x3d0b289b	0.03397427
9	0x3d2cf9a4	0.042230263
10	0x3c400873	0.011720764
11	0x3d43e382	0.04782439
12	0x3cefdf6f	0.029281346
13	0x3d4edc47	0.05050304
14	0x3c7ac30b	0.015305291
15	0x3d4c3625	0.049856324
16	0x3d6c82df	0.057741996
17	0x3cc5602e	0.024093714
18	0x3d1a0cb3	0.037609767
19	0x3d2ca048	0.042145044
20	0x3cc31da9	0.023817854
21	0x3ce4744c	0.027887486
22	0x3d95d436	0.07315867
23	0x3d2b945a	0.041889526
24	0x3cffef51	0.031242045
25	0x3cfc7359	0.03081672
26	0x3d077232	0.03306789
27	0x3cbf2ae1	0.023335876
28	0x3ce44c59	0.027868437
29	0x3cfdf3a6	0.03099997
30	0x3c9d3c3f	0.019193767
31	0x3cc13161	0.023583116
32	0x3c17915d	0.009250966
33	0x3c98d3e5	0.018655727
34	0x3d5b17ff	0.05348968
35	0x3d4cc134	0.04998894
36	0x3cf9cd1f	0.030493317
37	0x3cb1320d	0.021630311
38	0x3cc767f6	0.024341565
39	0x3d1e3f61	0.03863466
40	0x3c3f9991	0.011694328
41	0x3d53b5d8	0.05168709
42	0x3cccafab	0.024986109
43	0x3d173549	0.03691605
44	0x3cdb7a8c	0.026791833
45	0x3bbd7ab0	0.0057824478
46	0x3cd01f07	0.02540542
47	0x3c9eff9a	0.01940899
48	0x3cb736b6	0.022364955
49	0x3c000467	0.00781355
50	0x3d391272	0.045183606
51	0x3bf501d2	0.0074770236
52	0x3cc55cec	0.02409216
53	0x3cf28974	0.029606558
54	0x3d38b2a3	0.045092236
55	0x3cd91709	0.026500242
56	0x3c776e20	0.015101939
57	0x3cce11cd	0.025154972
58	0x3c4ebcd8	0.012618266
59	0x3c88b2e6	0.016686868
60	0x3d032d08	0.032025367
61	0x3d36bc1a	0.04461298
62	0x3ce635b0	0.028101772
63	0x3cadfe69	0.021239476

fc1.weight f4 [64, 64]
0	0x3d913291	0.07089723
1	0xbd867f73	-0.06567278
2	0xbdff9261	-0.124790914
3	0x3d8c1659	0.068402
4	0xbd17bedc	-0.037047252
5	0x3df79601	0.12089158
6	0xbd5f64a3	-0.054539334
7	0xbddd6fe8	-0.1081236
8	0xbd520097	-0.051270094
9	0xbcdb9725	-0.02680547
10	0xbcd0f38e	-0.02550676
11	0x3dee9f35	0.1165146
12	0xbdca7cf2	-0.09887113
13	0xbdc0e674	-0.094189554
14	0x3bea91e9	0.007158507
15	0xbd2c8264	-0.042116538
16	0x3dcec963	0.10097005
17	0xbe049c92	-0.12950352
18	0x3dede61f	0.11616158
19	0xbdb6326f	-0.08896338
20	0x3e0ca8da	0.13736287
21	0x3c62cc46	0.013842648
22	0x3d155361	0.03645647
23	0x3d05a2d8	0.032626003
24	0xbdcc8bd8	-0.099876106
25	0x3ca2b116	0.019859832
26	0xbddf01c3	-0.10889008
27	0xbcbe9c5c	-0.023267917
28	0x3d6d7f38	0.057982653
29	0xbd2b3b92	-0.041804858
30	0xbdac4e65	-0.0841339
31	0xbc47d1f0	-0.012196049
32	0x3dc943a3	0.09827354
33	0x3db3f3f4	0.08786765
34	0x3d12125e	0.035662048
35	0x3ba507c6	0.005036327
36	0xbca7b949	-0.020474093
37	0xbd70e4cf	-0.05881196
38	0x3b1e7806	0.0024180426
39	0xbde56a15	-0.11201874
40	0xbe0b3066	-0.13592681
41	0xbde23e09	-0.110469885
42	0xbdc430e5	-0.095796384
43	0xbc882407	-0.016618742
44	0xbcf82ce5	-0.030294845
45	0xbd69e974	-0.057107404
46	0x3dd49a4b	0.103809915
47	0x3dbff2b6	0.09372465
48	0xbe025628	-0.12728179
49	0x3dd619c0	0.1045413
50	0xbb9cdc06	-0.004786971
51	0x3c97b71a	0.018519927
52	0x3d27c647	0.040960576
53	0xbd9743a3	-0.073859476
54	0x3daf1f10	0.085508466
55	0x3de7270c	0.112867445
56	0xbbcb6f80	-0.00620836
57	0xbd95dcbb	-0.073174916
58	0xbc9819e4	-0.018567033
59	0x3d815270	0.06314552
60	0x3a9928b1	0.0011685101
61	0xbdc132d1	-0.094335206
62	0xbde8c756	-0.11366145
63	0xbaebbb17	-0.0017984834
64	0xbd957d48	-0.07299286
65	0x3dae26b3	0.08503475
66	0x3c31ac0e	0.010844244
67	0xbdbac316	-0.09119241
68	0x3ce6256f	0.028094022
69	0x3da6a74f	0.0813738
70	0x3dc5442c	0.096321434
71	0xbd4c789b	-0.049919706
72	0xbc35baf1	-0.011091934
73	0xbd88a80d	-0.06672678
74	0x3d01bfa3	0.0316769
75	0xbd7aa867	-0.061195757
76	0x3e01e0c2	0.12683395
77	0xbdc5d205	-0.09659199
78	0xbd46dfce	-0.04855328
79	0x3d27de66	0.04098358
80	0x3c78fab6	0.015196493
81	0x3dace59a	0.084422305
82	0x3cd6c86c	0.026218615
83	0x3e009e0f	0.12560295
84	0xbca5c434	-0.020235159
85	0x3d902ea6	0.070401475
86	0x3c442972	0.011972772
87	0x3d0aeae7	0.033915427
88	0x3d784210	0.060609877
89	0xbdb9def6	-0.090757295
90	0x3dd37f94	0.10327068
91	0x3db798d4	0.089646965
92	0xbd9e8665	-0.077404775
93	0xbd87ea2e	-0.06636463
94	0xbc63e62c	-0.013909858
95	0xbce717a3	-0.028209513
96	0xbdd5635e	-0.104193434
97	0x3cd140c3	0.025543576
98	0xbcd2970b	-0.025706789
99	0xbdd5f292	-0.10446657
100	0x3d0eec20	0.034893155
101	0xbda4ebc4	-0.08052781
102	0x3c41d015	0.011829396
103	0x3d960160	0.07324481
104	0xbc1488df	-0.009065836
105	0xbd2b268a	-0.0417848
106	0x3d45348c	0.048145816
107	0xbd4edbf5	-0.050502736
108	0xbd77cb3f	-0.060496565
109	0x3d79c9ed	0.060983587
110	0xbbfaf730	-0.0076588616
111	0x3b259b8b	0.0025269713
112	0xbdc129d5	-0.09431807
113	0xbbefa293	-0.0073130815
114	0xbd6fae6b	-0.058515947
115	0x3c58491b	0.013201023
116	0x3dc20d85	0.09475235
117	0x3df2d6a8	0.11857349
118	0x3d929cb7	0.07158797
119	0x3de6c93b	0.112688504
120	0xbd7e7195	-0.06212004
121	0x3d3e9a97	0.046534147
122	0xbd99df24	-0.07513264
123	0xbde540d8	-0.111940086
124	0xbd922022	-0.07135035
125	0xbd8775d7	-0.06614273
126	0x3bce1886	0.0062895445
127	0x3d72388e	0.059135966
128	0x3b371a2e	0.0027939188
129	0xbde4d34d	-0.11173115
130	0xbdfe0d58	-0.12404889
131	0x3dc0312a	0.09384377
132	0x3d2cb60e	0.04216581
133	0x3d172346	0.036898874
134	0xba140d39	-0.0005647722
135	0xbcbe7823	-0.023250645
136	0x3d31d73e	0.04341816
137	0x3dc665e3	0.09687402
138	0xbdd616b8	-0.10453552
139	0x3de32c02	0.11092378
140	0x3dbd4ec1	0.09243537
141	0x3d5d0301	0.053957943
142	0xbd785413	-0.060627054
143	0xbdfdbc28	-0.123894036
144	0x3d99a11c	0.07501432
145	0x3d8dee90	0.06930268
146	0xbccbad73	-0.02486298
147	0xbcca274d	-0.024676943
148	0x3e06c4c8	0.13161004
149	0x3dca101c	0.09866354
150	0xbcb1944c	-0.021677159
151	0xbd8a6ad5	-0.06758658
152	0x3d92da06	0.07170491
153	0xbc7c1b98	-0.015387438
154	0x3ce5b91d	0.02804237
155	0xbdd00734	-0.10157624
156	0xbb274e19	-0.0025528728
157	0x3d86e5f6	0.0658683
158	0x3d96880b	0.07350167
159	0xbda39200	-0.07986832
160	0x3db0b1e8	0.08627683
161	0x3ce7d62b	0.028300365
162	0x3d99367f	0.074810974
163	0xbdae63f1	-0.08515156
164	0xbca9fea1	-0.0207513
165	0x3d1296f6	0.0357885
166	0x3d4455da	0.047933437
167	0xbdcbf528	-0.09958869
168	0xbde574d8	-0.11203927
169	0xbd0a88ea	-0.033821978
170	0xbc82634b	-0.015916487
171	0x3d2833c9	0.04106501
172	0x3c7a6149	0.015281984
173	0x3da91f61	0.08257938
174	0xbd03bd38	-0.032162875
175	0x3dcbb219	0.09946079
176	0xbced3469	-0.028955655
177	0x3d33b1d0	0.043870747
178	0xbe0ba180	-0.13635826
179	0x3d5512ef	0.05202001
180	0xbdd41670	-0.10355842
181	0xbd11a971	-0.035561983
182	0x3c8a40cd	0.016876603
183	0x3da19466	0.07889633
184	0xbd642bb1	-0.05570573
185	0xbde81344	-0.113317996
186	0x3d4c741c	0.049915418
187	0xbc36fabf	-0.011168181
188	0x3de61285	0.11234001
189	0xbd50666e	-0.050878935
190	0x3d39e4f4	0.045384362
191	0x3da3d76a	0.08000071
192	0x3cd238b5	0.025661806
193	0x3dd7006c	0.10498127
194	0xbda53a70	-0.08067787
195	0x3d8e08dc	0.069352835
196	0x3d81c2c3	0.06335976
197	0x3baee122	0.0053368965
198	0xbd16af61	-0.036788348
199	0x3dc5deb6	0.09661619
200	0xbc02b891	-0.007978574
201	0xbd65fcc2	-0.05614925
202	0xbd913fc6	-0.07092242
203	0x3dca4fd5	0.09878508
204	0xbdfa236d	-0.12213788
205	0xbe0938c2	-0.13400558
206	0x3d9e9c2e	0.07744633
207	0xbd989b0c	-0.07451448
208	0xbdf8315b	-0.12118789
209	0xbd4dfe34	-0.050291255
210	0xbb41c047	-0.002956407
211	0xbcb306b0	-0.021853775
212	0x3d45de5c	0.04830776
213	0x3e000687	0.1250249
214	0x3ded07ec	0.115737766
215	0x3dafac92	0.08577837
216	0x3d19ba8f	0.03753143
217	0xbd0b1b7d	-0.03396176
218	0xbe0330d7	-0.128116
219	0x3d3ee3d3	0.04660399
220	0x3de25e12	0.11053099
221	0x3df44805	0.11927799
222	0xbdfc428c	-0.1231738
223	0xbd899381	-0.06717587
224	0x3d3bf938	0.04589197
225	0x3d0c612e	0.034272365
226	0x3d9290a3	0.071564935
227	0xbd15493d	-0.0364468
228	0x3daa28f0	0.083085895
229	0xbd25c727	-0.04047313
230	0xbcb50ab8	-0.022099838
231	0xbdd7e4e9	-0.10541708
232	0x3d96a038	0.07354778
233	0xbbee702c	-0.0072765555
234	0x3dc9b4d6	0.09848945
235	0xbe032f3a	-0.12810984
236	0x3ded1c02	0.11577608
237	0xbd29a88f	-0.041420516
238	0xbda63a4f	-0.0811659
239	0xbd9d7025	-0.076874055
240	0xbda52c95	-0.08065144
241	0xbda9a978	-0.08284277
242	0xbd93ecc5	-0.072228946
243	0x3d139b89	0.036037
244	0x3ba18b2d	0.004929921
245	0xbc303c25	-0.010756527
246	0xbd4ba03b	-0.049713355
247	0xbc844a97	-0.016148848
248	0x3da34989	0.0797301
249	0x3d7258c6	0.059166692
250	0xbdc3a7b1	-0.09553469
251	0x3d66a2ee	0.056307726
252	0xbd2d76a9	-0.04234949
253	0x3de04c3a	0.10952039
254	0xbdb584a8	-0.08863193
255	0xbb4cd959	-0.003125748

fc1.bias f4 [64]
0	0xbd595673	-0.05306096
1	0x3aab76d5	0.0013081679
2	0xbd31e511	-0.043431345
3	0xbd844bee	-0.06459795
4	0xbdc52752	-0.096266404
5	0xbdcc95ce	-0.099895105
6	0x3ca8c957	0.020603819
7	0xbcf52ab8	-0.029927596
8	0x3db86d84	0.090052634
9	0xbb9ad8e8	-0.0047255643
10	0x3d11da35	0.03560849
11	0xbdd82a29	-0.105549164
12	0x3d189b9f	0.037257787
13	0x3d2bcc5d	0.041942943
14	0x3b22a199	0.0024815558
15	0x3c8e68aa	0.017383892
16	0xbc95c740	-0.018283486
17	0xbd447d6f	-0.047971185
18	0xbcc64ad0	-0.024205595
19	0xbc71cd91	-0.0147584835
20	0xbd75e419	-0.060031984
21	0xbc8b84ff	-0.01703119
22	0xbd541d96	-0.051786028
23	0xbd2dc68c	-0.042425677
24	0x3d8a4643	0.067516826
25	0x3d66ce0b	0.05634884
26	0x3dc77d5f	0.097407095
27	0xba3da3b6	-0.00072341727
28	0xbd09a477	-0.03360411
29	0xbb9f67b3	-0.004864657
30	0x3cc8ea31	0.024525734
31	0xbdcd5e44	-0.10027745
32	0x3de4aa4a	0.111652926
33	0xbdb097c6	-0.086226985
34	0xbcde4664	-0.027133174
35	0x3bacdbe3	0.005275236
36	0xbcc78a65	-0.024357984
37	0x3ce2e565	0.027697274
38	0x3d74e648	0.059789926
39	0x3d50b3b6	0.050952636
40	0xbd7d7972	-0.061883397
41	0x3cea4413	0.028596913
42	0xbd1c1b2a	-0.038111843
43	0xbc0b4c40	-0.008502066
44	0x3cc5fa89	0.024167316
45	0xbdb48507	-0.088144355
46	0x3cf82a20	0.030293524
47	0x3df88daa	0.12136395
48	0x3cf0a21d	0.029374177
49	0xbc4f61b4	-0.012657572
50	0x3d80fbed	0.06298051
51	0xbddfdfb4	-0.1093134
52	0xbd3eaa0f	-0.0465489
53	0xbdd3b90b	-0.103380285
54	0x3dfe057a	0.12403388
55	0x3de48c12	0.11159529
56	0xbd1087d1	-0.035285775
57	0x3dea0729	0.11427147
58	0x3dd766a5	0.10517625
59	0x3d54a896	0.05191859
60	0xbd74ff22	-0.059813626
61	0xbd6681c6	-0.056276105
62	0x3d9e0481	0.07715703
63	0xbc9a0957	-0.018803282

bn2.weight f4 [64]
0	0x3f82a30f	1.0206012
1	0x3f836449	1.026498
2	0x3f820125	1.0156599
3	0x3f822ac5	1.0169302
4	0x3f7f7068	0.99780893
5	0x3f800210	1.000063
6	0x3f835afb	1.026214
7	0x3f82cd49	1.0218898
8	0x3f80460f	1.002138
9	0x3f8186c1	1.0119249
10	0x3f8257bc	1.0183024
11	0x3f82ae1e	1.0209386
12	0x3f80fe6a	1.0077641
13	0x3f7b3719	0.9813095
14	0x3f7c7e96	0.98630655
15	0x3f818c39	1.0120918
16	0x3f8090c8	1.0044184
17	0x3f8500e6	1.0390899
18	0x3f805546	1.0026023
19	0x3f822a74	1.0169206
20	0x3f827b4e	1.019388
21	0x3f7fc581	0.9991074
22	0x3f8059a1	1.0027353
23	0x3f81c684	1.0138707
24	0x3f807476	1.0035541
25	0x3f811a95	1.0086237
26	0x3f80fc46	1.0076988
27	0x3f82cc76	1.0218647
28	0x3f80dd72	1.006758
29	0x3f8157d0	1.0104923
30	0x3f82b7e1	1.0212365
31	0x3f7da70e	0.9908303
32	0x3f851c9c	1.0399356
33	0x3f83463d	1.025581
34	0x3f801174	1.0005326
35	0x3f7c5b99	0.98577267
36	0x3f812503	1.008942
37	0x3f81e7a8	1.0148821
38	0x3f814c85	1.0101477
39	0x3f8237a9	1.0173236
40	0x3f8105fc	1.0079951
41	0x3f7ff055	0.9997609
42	0x3f7da1ab	0.9907481
43	0x3f81eefd	1.0151058
44	0x3f85d77b	1.0456384
45	0x3f80884c	1.0041595
46	0x3f817d4f	1.0116366
47	0x3f80deb8	1.0067968
48	0x3f821346	1.0162132
49	0x3f829ea1	1.020466
50	0x3f81b832	1.0134337
51	0x3f81a4ad	1.012838
52	0x3f8052aa	1.0025227
53	0x3f7b2796	0.9810728
54	0x3f80ace8	1.0052767
55	0x3f801eaa	1.0009358
56	0x3f83c5e4	1.0294766
57	0x3f7ff74c	0.9998672
58	0x3f8220dc	1.0166278
59	0x3f7edfc3	0.99560183
60	0x3f7ff7e8	0.9998765
61	0x3f821ec8	1.0165644
62	0x3f817f5e	1.0116994
63	0x3f823d39	1.0174934

bn2.bias f4 [64]
0	0xbc5d1d01	-0.013495685
1	0x3c3f519a	0.01167717
2	0xbc35d65b	-0.01109847
3	0xbc387c5a	-0.0112601165
4	0x3c30e604	0.0107970275
5	0x3c31f798	0.010862254
6	0x3c5621e2	0.013069602
7	0x3c3715d3	0.011174637
8	0x3c342b2d	0.010996622
9	0xbc3463c4	-0.011010114
10	0xbc3874b6	-0.011258295
11	0xbc3a4421	-0.011368782
12	0xbc38b699	-0.011274003
13	0x3c1d5271	0.009602175
14	0x3c2b0408	0.010437973
15	0xbc38ade9	-0.011271932
16	0x3c3375ac	0.010953348
17	0xbc4d5f88	-0.012534983
18	0xbc37aa9a	-0.011210108
19	0xbc363182	-0.011120202
20	0xbc394ca5	-0.011309777
21	0x3a7bfb07	0.0009612296
22	0xbc323b57	-0.0108784055
23	0xbc364bd8	-0.011126481
24	0x3c31beb6	0.010848692
25	0xbc4ce24c	-0.012505125
26	0x3c33bf0e	0.010970844
27	0xbc3e649a	-0.011620665
28	0xbc33d6d6	-0.010976514
29	0xbc363d47	-0.011123008
30	0x3c401a0e	0.011724962
31	0x3c21e6f5	0.009881725
32	0x3c3e4ff1	0.011615739
33	0xbc3b4ceb	-0.011431913
34	0x3c33bbba	0.0109700505
35	0x3c2cd853	0.010549623
36	0x3c34fbd9	0.011046373
37	0xbc3764ea	-0.011193493
38	0xbc378c3a	-0.011202866
39	0xbc3deccb	-0.0115921
40	0xbc345754	-0.011007149
41	0x3c31666c	0.010827642
42	0x3c2dbbe4	0.010603879
43	0xbc38dcae	-0.011283083
44	0x3c45d3e8	0.012074448
45	0xbc3260ec	-0.010887366
46	0xbc34f18f	-0.01104392
47	0xbc33772c	-0.010953706
48	0xbc42ec08	-0.011897095
49	0xbc3913cf	-0.011296227
50	0xbc3780d2	-0.011200147
51	0xbc35567f	-0.011067986
52	0xbc325036	-0.010883382
53	0x3c26f030	0.010189101
54	0x3c344e19	0.011004948
55	0xbc322b11	-0.010874526
56	0xbc39bd4e	-0.011336638
57	0xbc31a956	-0.0108435955
58	0x3c36bf5a	0.01115402
59	0xbc2ed0f6	-0.010669937
60	0xbc3163b3	-0.010826993
61	0xbc366abf	-0.011133849
62	0x3c37aef7	0.011211148
63	0x3c3d2d41	0.011546434

bn2.running_mean f4 [64]
0	0x3c2ca827	0.0105381375
1	0x3c7feb40	0.015620053
2	0x3c188836	0.009309819
3	0x3cf5890f	0.029972581
4	0x3b7b52f8	0.0038349014
5	0x39324bf8	0.00017003703
6	0x3ce6c3bb	0.028169503
7	0x3c553013	0.01301195
8	0x3dc15d1a	0.09441586
9	0x3d4d51cf	0.050126847
10	0x3d563bc2	0.052303083
11	0x3c8444fe	0.01614618
12	0x3d815e2d	0.06316791
13	0x3d68f2ba	0.056872107
14	0x3d65e33d	0.056124914
15	0x3d7e3dc7	0.062070634
16	0x3b9e1192	0.004823872
17	0x3c25b2b2	0.010113405
18	0x3cdeda86	0.02720381
19	0x3d3c9228	0.046037823
20	0x3cf632ae	0.030053463
21	0x3c8cbacd	0.017178917
22	0x3c108af6	0.008822193
23	0x3d39c11e	0.045350187
24	0x3da45721	0.08024431
25	0x3db22d61	0.087000616
26	0x3de4cd4d	0.111719705
27	0x3cc0c381	0.023530724
28	0x3c928f3e	0.017890569
29	0x3dabaf48	0.083830416
30	0x3d17f02a	0.037094273
31	0x3b9b13d0	0.0047325864
32	0x3df67f68	0.120360196
33	0x3c5599f1	0.013037191
34	0x3bedc2d4	0.0072558913
35	0x3d509458	0.05092272
36	0x3c8274db	0.015924862
37	0x3dab312a	0.08358987
38	0x3dd64f9b	0.10464402
39	0x3d87f9b4	0.06639424
40	0x3b3cf7a3	0.0028834126
41	0x3d360e57	0.04444727
42	0x3c92c0dc	0.017914228
43	0x3d05a6a1	0.032629613
44	0x3ce9d102	0.028542046
45	0x3ce499a8	0.0279053
46	0x3d830853	0.06398072
47	0x3defe1ae	0.11712967
48	0x3da2c714	0.079481274
49	0x3d2470c3	0.0401466
50	0x3da4497e	0.0802183
51	0x3c1738f2	0.009229885
52	0x3d1b52ce	0.037920766
53	0x3cc05899	0.023479747
54	0x3e04e4d3	0.12977915
55	0x3dddca36	0.10829584
56	0x3c5db995	0.013533016
57	0x3dfe0320	0.1240294
58	0x3dd91057	0.1059882
59	0x3dc445ee	0.095836505
60	0x3cd17a56	0.02557103
61	0x3cf92518	0.030413195
62	0x3daf3f30	0.08556974
63	0x3c0f7fc5	0.00875849

bn2.running_var f4 [64]
0	0x3a17028e	0.00057605735
1	0x3a14c3bc	0.00056749186
2	0x3a2221e4	0.00061848597
3	0x3b40c6e5	0.0029415425
4	0x3935186e	0.00017270606
5	0x3621c446	2.4105116e-06
6	0x3a39c07b	0.0007085872
7	0x39e9aa0e	0.00044567924
8	0x3b180dbe	0.002320155
9	0x3bd0b7ec	0.0063695814
10	0x3b8da396	0.0043224795
11	0x3b07536c	0.0020649089
12	0x3b8890f8	0.0041676722
13	0x3b660a9a	0.0035101534
14	0x3ba0ee12	0.0049111927
15	0x3c08f84f	0.008359983
16	0x3939eebb	0.00017731909
17	0x3a24d957	0.00062884897
18	0x3af38df2	0.0018581732
19	0x3bb0072f	0.00537195
20	0x3b121bea	0.002229447
21	0x3a74bbed	0.00093358645
22	0x39dd9fae	0.00042271375
23	0x3bc8ad09	0.006124143
24	0x3bb04363	0.005379127
25	0x3bcc7583	0.0062395944
26	0x3c064157	0.008194289
27	0x3ad28484	0.0016061221
28	0x3aa09a73	0.0012253061
29	0x3c944a6e	0.018101897
30	0x3af46cb0	0.0018648114
31	0x397d7999	0.00024173259
32	0x3a462c8a	0.00075597374
33	0x3a9f0ade	0.0012133976
34	0x398e7e89	0.00027178627
35	0x3bfc4488	0.0076985992
36	0x3a2c001b	0.0006561295
37	0x3c0cc146	0.008591002
38	0x3cb8d09d	0.022560412
39	0x3ba36001	0.00498581
40	0x392d87d7	0.0001654917
41	0x3b1cfc2e	0.0023954022
42	0x3a9dfdb3	0.0012053758
43	0x3b098c18	0.0020988043
44	0x3a375e47	0.00069949444
45	0x3b4d5b30	0.003133487
46	0x3bcf6106	0.0063287048
47	0x3a9c660d	0.0011932269
48	0x3bee9bfa	0.0072817774
49	0x3b601d12	0.0034197015
50	0x3bc089ba	0.0058757933
51	0x3a460e75	0.0007555255
52	0x3b911fd9	0.0044288454
53	0x3b318d89	0.0027092418
54	0x3bb90326	0.0056461273
55	0x3a43aeea	0.0007464724
56	0x3a6f18b2	0.00091208064
57	0x3b8b245b	0.0042462773
58	0x3a798bf9	0.0009519454
59	0x3c2510d0	0.010074809
60	0x3b190f49	0.0023355058
61	0x3b3895c2	0.0028165434
62	0x3ac91185	0.0015340304
63	0x39a8c722	0.00032191823

fc2.weight f4 [1, 64]
0	0xbca9a55a	-0.020708729
1	0x3d9f85c5	0.077891864
2	0xbe04508a	-0.12921348
3	0xbdad337f	-0.08457088
4	0x3de6bc92	0.11266436
5	0x3d9a4662	0.07532956
6	0x3cf6d704	0.030131824
7	0x3e0911e9	0.13385738
8	0x3d10b9f3	0.035333585
9	0xbe04fad4	-0.12986308
10	0xbdc2ab6e	-0.09505354
11	0xbdc7c918	-0.097551525
12	0xbd224d83	-0.039624702
13	0x3ce07c17	0.02740292
14	0x3d9f313c	0.077730626
15	0xbd61317c	-0.054978833
16	0x3d051d40	0.032498598
17	0xbd756296	-0.059908472
18	0xbca081f1	-0.01959321
19	0xbdfe0da8	-0.124049485
20	0xbdc85a3a	-0.09782834
21	0xbb77bd90	-0.0037802197
22	0xbd967cde	-0.07348035
23	0xbdc4f102	-0.09616281
24	0x3e01b1c1	0.12665464
25	0xbc83e2b7	-0.016099317
26	0x3de7e36b	0.113226734
27	0xbd8887b5	-0.06666509
28	0xbde42f8d	-0.11141882
29	0xbd9548ad	-0.072892524
30	0x3d62c0c4	0.055359617
31	0x3c96c628	0.018405035
32	0x3def91c1	0.11697722
33	0xbdd54d28	-0.10415107
34	0x3c19a412	0.009377496
35	0x3dd6118d	0.10452566
36	0x3d938ed1	0.072049744
37	0xbdca0198	-0.09863585
38	0xbd62b627	-0.055349495
39	0xbd49c90d	-0.049264003
40	0xbdc2cb53	-0.09511437
41	0x3d9f1f10	0.077695966
42	0x3da58960	0.08082843
43	0xbda16b27	-0.07881766
44	0x3dba4bd2	0.09096493
45	0xbddfc782	-0.10926725
46	0xbe0218fe	-0.12704846
47	0xbdb9829a	-0.090581134
48	0xbd21541d	-0.039386857
49	0xbdd00b20	-0.10158372
50	0xbdb2b750	-0.0872637
51	0xbdf72048	-0.12066704
52	0xbda9b69e	-0.082867846
53	0x3d77828f	0.060427245
54	0x3d588ab5	0.052866656
55	0xbd3dd1a2	-0.0463425
56	0xbe07a922	-0.13248113
57	0xbdf28305	-0.11841396
58	0x3deea71b	0.116529666
59	0xbd572301	-0.052523617
60	0xbd8da3ed	-0.06916032
61	0xbde695fe	-0.112590775
62	0x3d86f580	0.06589794
63	0x3d51de3b	0.051237326
