result/fold_1/100_400/400_0.0001_32_model_best.pt (torch, 31657 bytes, 13 tensors)

conv.weight f4 [64, 4, 6]
0.0431297 -0.14290269 0.1317028 -0.06675551 -0.105925776 -0.021814518 0.18847287 -0.29587236
0.17937708 -0.008271817 -0.1317404 -0.23614536 -0.093552954 0.1681503 0.06164128 -0.09314315
0.12163399 0.15212087 -0.0066136993 -0.16525051 0.1508031 0.19475397 -0.03837958 0.010552703
0.1733183 -0.22921291 -0.14963916 0.13163708 -0.0043828767 -0.17538977 -0.1535889 -0.20554788
-0.036360953 -0.11689839 -0.022334376 -0.057803985 -0.067127004 0.15258071 -0.012124667 0.14375126
-0.10222911 -0.060242 0.12666492 -0.18506645 -0.19075826 -0.07563535 0.06871501 -0.039783895
-0.06867163 0.18725167 0.014553962 0.15099116 -0.15922272 0.102725394 -0.18631811 0.07592807
-0.13790922 -0.16497931 0.19439918 -0.193866 -0.047577757 -0.1094897 0.1946244 -0.04343825
0.15228818 -0.009298525 -0.11234234 0.1340192 -0.09265245 -0.08488364 -0.17262742 0.17417142
0.111253686 -0.03030793 -0.13806416 -0.19031014 -0.10542194 0.18072464 0.10519947 0.14501974
0.13226792 -0.14098844 0.06438495 -0.1995673 -0.035652943 -0.09144536 -0.22631499 0.1177234
-0.16386788 -0.034784123 0.055843785 0.085177764 0.063139394 -0.17557 -0.16615713 0.16534294
0.07043472 -0.19069923 -0.0943583 0.13013852 -0.08467674 0.087189786 0.042997513 0.050997972
0.029265646 -0.26684085 0.13859154 -0.06473347 -0.015035381 -0.13174854 0.0012802384 0.23381586
-0.15188387 -0.0782566 -0.0033311064 0.089936264 0.17292787 0.10335237 0.057945948 -0.014733086
-0.033779345 -0.20046647 -0.21738067 0.090367176 0.08610057 -0.08122024 -0.09506123 -0.14942598
0.06712349 -0.0830815 0.13717817 -0.09713124 0.042524662 0.05763974 -0.10110651 -0.15145817
0.12626453 0.04680448 0.13562082 -0.072293 -0.20876063 -0.07988069 0.14357455 -0.11989092
-0.06637222 -0.0634838 -0.0377197 -0.0777006 -0.1658257 -0.06020436 0.039121367 0.07800542
0.15938818 -0.057403293 0.095113374 0.13366508 -0.031047756 0.08235932 0.13701294 0.038880542
0.080374464 0.0018197538 0.06179699 -0.15058346 -0.13484696 0.038755286 -0.3047877 -0.0586395
0.23511392 -0.26449564 0.11875055 0.0924491 -0.13771965 0.060092308 0.12679245 -0.10209652
-0.19504218 0.12384048 -0.003609919 0.015575737 0.20066276 0.1615903 0.14458561 0.048010435
0.20212159 -0.14935006 0.14817029 -0.094040126 -0.08751333 0.030435564 0.08690664 -0.03419982
-0.11778446 0.016493857 -0.004002567 0.08543579 -0.11198295 -0.01612921 -0.14930771 0.15545297
-0.09656138 0.044439435 0.0025721376 -0.038656205 -0.15989695 -0.09379779 -0.10742789 0.10361577
-0.25807026 -0.076173104 -0.02371977 -0.04631048 0.061511 0.02775738 0.055854123 0.06447545
-0.049013145 -0.13347808 -0.16544186 0.10153757 -0.028020319 -0.10534763 -0.027289532 0.028193226
-0.18891439 0.14394565 0.01595569 0.17275205 0.11799427 0.027001506 0.09136775 -0.1735979
0.19165653 0.07164273 0.055673026 0.1764836 -0.041228652 0.109186865 0.1294082 0.048838828
0.111997016 -0.20262384 -0.0917177 0.08626266 -0.087776504 -0.05933595 -0.19993347 0.045816667
-0.15065292 -0.13541111 -0.168739 0.25023353 0.02676321 0.024213044 -0.0046831234 -0.24265873
00000000: c5a8 303d 1555 12be 19dd 063e 1db7 88bd
00000010: 9def d8bd 5cb4 b2bc 08ff 403e 957c 97be
00000020: a0ae 373e 8486 07bc f5e6 06be 17d0 71be
00000030: b198 bfbd 982f 2c3e 917b 7c3d d6c1 bebd
00000040: 3e1b f93d 93c5 1b3e bbb7 d8bb 6e37 29be
00000050: 216c 1a3e 966d 473e e833 1dbd 3fe5 2c3c
00000060: 5a7a 313e cab6 6abe 023b 19be dfcb 063e
00000070: 3c9e 8fbb 6099 33be 6946 1dbe 257b 52be
00000080: 39ef 14bd 6c68 efbd 95f6 b6bc dfc3 6cbd
00000090: e279 89bd 1e3e 1c3e 8aa6 46bc 8833 133e
000000a0: 7f5d d1bd 51c0 76bd 73b4 013e 0f82 3dbe
000000b0: 2256 43be b5e6 9abd 75ba 8c3d 70f4 22bd
000000c0: b6a3 8cbd e7be 3f3e be73 6e3c 6d9d 1a3e
000000d0: 480b 23be b161 d23d 2dca 3ebe 2d80 9b3d
000000e0: 1338 0dbe 56f0 28be 9410 473e cf84 46be
000000f0: e5e0 42bd 233c e0bd 9e4b 473e 4eec 31bd
00000100: 6ff1 1b3e d758 18bc be13 e6bd 543c 093e
00000110: 91c0 bdbd 79d7 adbd 3ec5 30be fe59 323e
00000120: f9d8 e33d 5648 f8bc b160 0dbe a9e0 42be
00000130: 75e7 d7bd e10f 393e d272 d73d 0e80 143e
00000140: 3e71 073e 465f 10be 42dc 833d 5f5b 4cbe
00000150: d208 12bd b447 bbbd 1ebf 67be f718 f13d
00000160: fbcc 27be cc79 0ebd 74bc 643d ae71 ae3d
00000170: 3a4f 813d 9fc8 33be 1825 2abe a94f 293e
00000180: 1440 903d a946 43be ed3e c1bd 0843 053e
00000190: 006b adbd 8f90 b23d 291e 303d 40e3 503d
000001a0: 82be ef3c 5d9f 88be f1ea 0d3e fb92 84bd
000001b0: f556 76bc 17e9 06be accd a73a 6d6d 6f3e
000001c0: 7287 1bbe ff44 a0bd b14e 5abb 8130 b83d
000001d0: 0114 313e 68aa d33d bb58 6d3d 0b63 71bc
000001e0: 365c 0abd 1547 4dbe 0a99 5ebe 6d12 b93d
000001f0: 7f55 b03d cc56 a6bd 76af c2bd 2003 19be
00000200: 0a78 893d a226 aabd 6f78 0c3e beec c6bd
00000210: 572e 2e3d a617 6c3d ee10 cfbd da17 1bbe
00000220: 7d4b 013e 0eb6 3f3d 2fe0 0a3e 5a0e 94bd
00000230: 59c5 55be 7d98 a3bd 3505 133e 5f89 f5bd
00000240: 29ee 87bd cb03 82bd f97f 1abd 7e21 9fbd
00000250: 36ce 29be d998 76bd ba3d 203d 4ec1 9f3d
00000260: a836 233e b71f 6bbd cdca c23d 80df 083e
00000270: dd57 febc 01ac a83d 1f4d 0c3e 3441 1f3d
00000280: 5e9b a43d ce84 ee3a d71e 7d3d 8d32 1abe
00000290: 5215 0abe ddbd 1e3d 220d 9cbe f92f 70bd
000002a0: b4c1 703e f96b 87be 7d33 f33d f455 bd3d
000002b0: 6106 0dbe 5a23 763d e1d5 013e fb17 d1bd
000002c0: 23b9 47be 14a0 fd3d 6494 6cbb 6031 7f3c
000002d0: 8a7a 4d3e ed77 253e 400e 143e 97a6 443d
000002e0: f6f8 4e3e 39ef 18be f4b9 173e 1c98 c0bd
000002f0: 303a b3bd 0154 f93c 1cfc b13d 1c15 0cbd
00000300: fb38 f1bd 201e 873c f727 83bb f6f8 ae3d
00000310: 5157 e5bd 6821 84bc 1fe4 18be 102f 1f3e
00000320: f9c1 c5bd 2006 363d 4f91 283b f855 1ebd
00000330: 07bc 23be 0e19 c0bd 2703 dcbd 8134 d43d
00000340: c921 84be a500 9cbd f74f c2bc 0fb0 3dbd
00000350: f5f2 7b3d 7263 e33c 4bc7 643d b40b 843d
00000360: 02c2 48bd 7aae 08be 9769 29be eef2 cf3d
00000370: de8a e5bc 80c0 d7bd 4c8e dfbc 7bf5 e63c
00000380: c672 41be 7d66 133e 82b5 823c eae5 303e
00000390: fba6 f13d 4332 dd3c 041f bb3d a6c3 31be
000003a0: 9c41 443e 6cb9 923d 6609 643d 1eb8 343e
000003b0: 60df 28bd 5d9d df3d 9583 043e 390b 483d
000003c0: b15e e53d a07c 4fbe 7dd6 bbbd 7aaa b03d
000003d0: 2bc4 b3bd 410a 73bd 5cbb 4cbe 42aa 3b3d
000003e0: c244 1abe 36a9 0abe ebc9 2cbe 9c1e 803e
000003f0: 853e db3c 6f5a c63c e374 99bb 887b 78be

conv.bias f4 [64]
0.007733502 0.062202107 0.11542808 0.15416305 0.12501492 0.22889084 -0.1679987 -0.20613086
0.19013874 -0.20986177 -0.12809731 -0.22824375 -0.16945042 0.005387493 0.08824501 -0.14665948
0.20957187 -0.07461654 0.007971817 0.18243381 -0.2310778 0.06248623 0.051114555 -0.031943835
-0.081033036 -0.13324563 -0.23459603 0.15564983 0.15907535 -0.22535616 0.1219337 0.10201784
0.07515153 -0.102104895 -0.13255268 -0.19437076 -0.18232633 0.16955571 0.025876548 -0.050652318
-0.021739282 -0.031335298 -0.014813993 0.27043867 0.19764937 0.10556097 -0.061736703 0.12967923
0.18428771 -0.14503092 0.048369333 0.037479416 -0.19436409 0.16134146 0.058427006 0.07169639
0.09779883 0.09483655 -0.052889828 -0.014146682 0.06832985 0.059544053 -0.10960368 -0.23592107
00000000: 5169 fd3b a3c7 7e3d 8f65 ec3d ebdc 1d3e
00000010: e903 003e 5c62 6a3e da07 2cbe f813 53be
00000020: bbb3 423e 01e6 56be f12b 03be bbb8 69be
00000030: 6984 2dbe 9189 b03b cdb9 b43d e72d 16be
00000040: 029a 563e 8ed0 98bd 399c 023c eecf 3a3e
00000050: a99f 6cbe 90f1 7f3d 7f5d 513d 8ad7 02bd
00000060: a6f4 a5bd 8b71 08be f139 70be ab62 1f3e
00000070: a6e4 223e c4c3 66be 60b8 f93d bbee d03d
00000080: 0ce9 993d 5f1c d1bd e4bb 07be 2109 47be
00000090: c1b3 3abe 03a0 2d3e 0efb d33c ce78 4fbd
000000a0: 9416 b2bc 7159 00bd 64b6 72bc f076 8a3e
000000b0: 9964 4a3e 5a30 d83d a0df 7cbd a2ca 043e
000000c0: ebb5 3c3e fc82 14be ec1e 463d 0484 193d
000000d0: 6107 47be b236 253e 2851 6f3d 8fd5 923d
000000e0: c14a c83d aa39 c23d 01a3 58bd 7cc7 67bc
000000f0: 85f0 8b3d 77e4 733d e577 e0bd 4b95 71be

bn1.weight f4 [64]
1.0110902 1.0003711 1.0039102 1.0056856 0.9971009 1.007918 1.0342548 1.0112464
0.99865425 0.9891359 0.9674556 1.0007529 0.9942604 0.98815787 1.0206144 0.9982481
1.0383132 0.988567 0.9964203 1.0074509 1.0389488 0.9694159 1.0326226 1.0220362
0.9932347 0.9876684 0.9907387 0.99872994 0.9929149 1.0001266 1.0173081 1.0132396
0.9947758 0.99172014 1.0176263 0.99873495 1.0063595 0.99049884 0.9743921 0.9906059
0.99963135 1.0070517 0.9870665 0.9950879 0.9841415 1.0053899 0.9994769 0.9677214
0.9918927 1.0148623 0.9927499 0.97413254 0.9757197 0.9982515 1.0199367 0.9745488
0.9875059 1.0121844 0.9935371 1.0032341 0.95562637 1.0082015 1.0138832 1.007749
00000000: 676b 813f 290c 803f 2180 803f 4eba 803f
00000010: 0142 7f3f 7503 813f 7662 843f 8670 813f
00000020: cea7 7f3f 0338 7d3f 2cab 773f ac18 803f
00000030: d987 7e3f eaf7 7c3f 7ea3 823f 308d 7f3f
00000040: 72e7 843f ba12 7d3f 6715 7f3f 27f4 803f
00000050: 46fc 843f a42b 783f fa2c 843f 15d2 823f
00000060: a144 7e3f d6d7 7c3f 0da1 7d3f c4ac 7f3f
00000070: ac2f 7e3f 2604 803f 2737 823f d6b1 813f
00000080: a0a9 7e3f 5fe1 7d3f 9441 823f 18ad 7f3f
00000090: 63d0 803f 5591 7d3f c371 793f 5998 7d3f
000000a0: d7e7 7f3f 12e7 803f 64b0 7c3f 15be 7e3f
000000b0: b3f0 7b3f 9eb0 803f b8dd 7f3f 97bc 773f
000000c0: aeec 7d3f 02e7 813f dc24 7e3f c060 793f
000000d0: c4c8 793f 698d 7f3f 498d 823f 087c 793f
000000e0: 30cd 7c3f 428f 813f 7358 7e3f fa69 803f
000000f0: eea3 743f bf0c 813f edc6 813f ebfd 803f

bn1.bias f4 [64]
0.022548629 -0.00079996383 -0.0025302998 0.004145474 -0.032329027 0.02116861 0.021690512 0.041791465
0.017545568 -0.0014111479 -0.028951475 0.0145459315 -0.0020747122 0.011550577 -0.008648436 0.025196303
0.014432175 0.032289032 0.011533366 -0.010657648 -0.0024958563 -0.014135966 0.00096885744 0.025421284
0.020584099 -0.021659601 -0.01936455 -0.034456875 0.033725727 0.007108672 0.008685883 0.035595685
-0.025902793 0.002160715 -0.029952936 0.051495355 0.0011244371 -0.01551432 0.0020923428 -0.02880763
0.0070992564 0.0011735117 -0.0067069554 -0.010649146 0.033047143 -0.014176112 0.010992345 0.020054925
0.0011549854 -0.05886463 -0.016803453 0.017177626 0.037390165 0.061284196 -0.03328599 0.010436934
0.009516481 0.0057496284 -0.032941077 0.022407528 0.0076964814 0.020914668 0.021228347 -0.030500175
00000000: e7b7 b83c aab4 51ba 63d3 25bb c2d6 873b
00000010: 716b 04bd cb69 ad3c 4db0 b13c 872d 2b3d
00000020: b9bb 8f3c 44f6 b8ba a52b edbc 0f52 6e3c
00000030: e5f7 07bb a23e 3d3c 2bb2 0dbc 7a68 ce3c
00000040: ee74 6c3c 8141 043d 71f6 3c3c 6a9d 2ebc
00000050: 8591 23bb 8a9a 67bc ecfa 7d3a 4c40 d03c
00000060: fc9f a83c 7a6f b1bc 68a2 9ebc a722 0dbd
00000070: fd23 0a3d ddef e83b 3c4f 0e3c c8cc 113d
00000080: 1832 d4bc c89a 0d3b dc5f f5bc cbec 523d
00000090: d961 933a c62f 7ebc b01f 093b fbfd ebbc
000000a0: e1a0 e83b 85d0 993a 05c6 dbbb c179 2ebc
000000b0: 715c 073d ec42 68bc 3d19 343c 3a4a a43c
000000c0: e162 973a 0a1c 71bd 65a7 89bc 18b8 8c3c
000000d0: 6e26 193d 2305 7b3d e456 08bd adff 2a3c
000000e0: 04eb 1b3c 6167 bc3b 39ed 06bd fe8f b73c
000000f0: c432 fc3b 3d55 ab3c 12e7 ad3c 81db f9bc

bn1.running_mean f4 [64]
0.18048239 0.07776068 0.26983574 0.24426556 0.3097813 0.2274508 0.03253482 0.13027188
0.19418174 0.09659688 0.109791666 0.21204256 0.061328176 0.13625498 0.18955147 0.12121845
0.21789783 0.06358546 0.14084417 0.21344957 0.0083950525 0.27752548 0.061676353 0.059722275
0.19828594 0.169006 0.035229266 0.15772173 0.4319984 0.047313213 0.2007758 0.08707518
0.21502428 0.068456315 0.009131616 0.015538478 0.00919289 0.34488556 0.23489565 0.32048354
0.15311512 0.08804483 0.08318114 0.34687316 0.32023814 0.27214167 0.07077473 0.29787675
0.3181396 0.014370952 0.3531155 0.23121269 0.15578313 0.18331437 0.07540712 0.16163985
0.10697084 0.12045237 0.1101895 0.051113464 0.11727671 0.08737885 0.049931247 0.007454874
00000000: 60d0 383e fe40 9f3d e927 8a3e c020 7a3e
00000010: a89b 9e3e dde8 683e 3b43 053d fe65 053e
00000020: 94d7 463e 96d4 c53d 74da e03d af21 593e
00000030: 4133 7b3d 6d86 0b3e c819 423e 6141 f83d
00000040: 9c20 5f3e 1839 823d 7439 103e 8692 5a3e
00000050: 678b 093c d217 8e3e 58a0 7c3d 589f 743d
00000060: 780b 4b3e e90f 2d3e 904c 103d ce81 213e
00000070: e52e dd3e 80cb 413d 2c98 4d3e 7954 b23d
00000080: 532f 5c3e d332 8c3d c69c 153c 1a95 7e3c
00000090: c69d 163c d794 b03e 7c88 703e 6b16 a43e
000000a0: 36ca 1c3e d950 b43d e05a aa3d 5c99 b13e
000000b0: 41f6 a33e 2756 8b3e 57f2 903d 4d83 983e
000000c0: 32e3 a23e 2474 6b3c 8ecb b43e 05c3 6c3e
000000d0: 9d85 1f3e c3b6 3b3e 0c6f 9a3d eb84 253e
000000e0: 8713 db3d bbaf f63d 08ab e13d 5a5c 513d
000000f0: c62e f03d aff3 b23d b584 4c3d 0448 f43b

bn1.running_var f4 [64]
0.042190395 0.009933448 0.037643556 0.02732901 0.03710722 0.0138909165 0.0057381946 0.027225705
0.010628611 0.018315341 0.024566093 0.04336575 0.007844925 0.027530795 0.02469691 0.023635628
0.013219474 0.013322409 0.036009792 0.016859004 0.001146843 0.04527565 0.007962432 0.010046038
0.04975423 0.035890277 0.007089551 0.00899646 0.06539335 0.009709475 0.024125021 0.010523683
0.042638283 0.012750586 0.0010609137 0.0022828612 0.0012990081 0.041984137 0.052763976 0.084265806
0.031198975 0.02023169 0.015313431 0.016872535 0.025787538 0.03794678 0.014610158 0.04064992
0.027564859 0.0024328094 0.06400254 0.049225442 0.03277449 0.007954969 0.008129841 0.028766729
0.012334637 0.013610603 0.021637583 0.0068811853 0.019441599 0.0101576 0.009167908 0.0007685148
00000000: d6cf 2c3d e7bf 223c 2130 1a3d 17e1 df3c
00000010: befd 173d ba96 633c 7707 bc3b 7108 df3c
00000020: a023 2e3c 0e0a 963c d53e c93c 49a0 313d
00000030: 0088 003c 4388 e13c 2d51 ca3c 819f c13c
00000040: 7e96 583c 3c46 5a3c 017f 133d e51b 8a3c
00000050: aa51 963a f672 393d dc74 023c 2398 243c
00000060: 17cb 4b3d af01 133d 774f e83b e365 133c
00000070: f3ec 853d 7d14 1f3c d6a1 c53c 876b 2c3c
00000080: 7ba5 2e3d d5e7 503c 5b0e 8b3a 0e9c 153b
00000090: 7b43 aa3a 8ff7 2b3d 0a1f 583d 8d93 ac3d
000000a0: fe94 ff3c eebc a53c 2fe5 7a3c 4538 8a3c
000000b0: 6340 d33c 156e 1b3d 725f 6f3c 8880 263d
000000c0: b3cf e13c c56f 1f3b c413 833d 9ea0 493d
000000d0: 8b3e 063d 8f55 023c 0633 053c 34a8 eb3c
000000e0: 3817 4a3c 02ff 5e3c 4d41 b13c 917b e13b
000000f0: fd43 9f3c 106c 263c fe34 163c 2876 493a

fc1.weight f4 [64, 64]
-0.114970356 -0.016637934 -0.0858757 -0.019744357 -0.0904573 -0.0072619035 -0.095958255 -0.07157655
0.016819501 -0.06891731 0.022919461 0.032304242 -0.045700323 -0.10351525 0.05159703 0.06452092
0.1112154 0.011875876 0.03274198 -0.045685384 0.10591636 -0.12304715 -0.07055287 0.10387294
-0.124392554 0.057875246 -0.0007226506 0.0045212004 -0.09082645 -0.05236646 0.062360696 0.0007841062
0.010371475 -0.0041193534 -0.10124828 -0.028662322 -0.051953122 -0.116540425 -0.038484525 -0.023735736
0.03778894 -0.015208727 0.082592 -0.09483799 0.0154369185 0.0750222 -0.10674346 -0.09645922
-0.070020266 0.02427526 -0.08022589 0.08280008 -0.015033202 0.051792096 -0.036464818 -0.14260419
0.081148386 -0.11352769 0.06889719 -0.11272123 0.08855341 -0.06850782 -0.014537436 0.0016185103
-0.06678955 -0.07797982 0.088178076 -0.10546865 -0.07506412 -0.00018924322 0.06641329 0.015578195
0.06904347 0.06806238 0.07897302 0.06596659 0.050227784 0.008019673 -0.07188862 0.025110798
-0.11052655 -0.11010767 0.030393284 -0.009030661 -0.056629267 -0.0014824083 0.054060888 0.06808145
0.023816004 0.060699146 0.00093558483 -0.07239878 0.02618786 -0.032823596 -0.13884878 -0.017310228
-0.025189925 0.08573422 -0.15053274 -0.07469297 -0.073910125 0.053409614 -0.07173196 0.12503345
0.033238202 -0.056125704 0.07457486 -0.010235652 -0.084297754 -0.032299712 0.12878022 0.10974335
-0.002159615 -0.10144397 -0.07708863 -0.124511674 0.02144098 0.07310624 0.004257067 -0.031408634
-0.008288689 0.06482879 -0.071937785 0.07316423 0.04312665 -0.05612021 -0.07375447 -0.12461867
0.033614334 0.08909812 0.06258108 -0.090376355 0.014358255 0.096478 0.11421358 0.11274201
0.037344083 0.05984849 0.044089284 0.024554776 0.06541141 0.052242696 0.0735094 0.03363076
-0.04477824 0.02924563 -0.0541084 -0.087080546 0.054712825 -0.07640588 -0.05994889 0.08099964
0.037607286 -0.113063425 0.016346404 -0.09963642 0.040035572 0.13185343 0.10519886 -0.029744694
-0.110257596 -0.06376231 -0.01372675 -0.10214444 -0.013571356 -0.0070508886 -0.004906085 -0.07634421
-0.012250364 -0.011633946 -0.08015501 -0.01516953 -0.040586706 0.03576207 -0.08067724 -0.081047356
-0.09362588 -0.10384804 -0.049143426 0.108916454 -0.019134318 0.11875373 0.12746255 -0.05489703
0.0318487 -0.056902826 0.11002838 -0.012854225 -0.043917857 0.012763856 -0.07156107 -0.036305092
-0.08600541 -0.04047228 -0.06658717 -0.09436333 0.031868167 -0.084422335 0.057008263 0.0051965327
-0.058629204 -0.033987444 0.041807737 0.11664272 -0.081668995 -0.13906448 -0.06423215 -0.0924392
-0.10031942 0.11214183 0.106414475 -0.02125521 -0.029425837 -0.104070835 0.100390226 0.023810722
-0.11210305 -0.001333716 -0.014702619 0.026846346 -0.08798534 3.016277e-05 -0.10458584 -0.003486489
-0.10052742 -0.02421027 -0.10080986 -0.0039820243 0.09555801 0.078489274 -0.09151039 0.12690897
0.07845466 0.039744448 0.05053554 -0.016141236 0.1047972 0.078125976 0.057201084 -0.03592613
0.007986094 -0.15560673 0.0057040593 0.10572714 -0.0032006584 -0.014556036 -0.055804007 0.007289431
0.06630065 0.10278292 0.01189948 -0.03186178 -0.060776502 -0.09045683 -0.07978588 -0.040081263
00000000: 9475 ebbd 474c 88bc 99df afbd ebbe a1bc
00000010: ad41 b9bd 43f5 edbb c385 c4bd ba96 92bd
00000020: 0dc9 893c 8524 8dbd 98c1 bb3c 7451 043d
00000030: 4330 3bbd ceff d3bd 6857 533d 8b23 843d
00000040: e6c4 e33d 0993 423c 741c 063d 9920 3bbd
00000050: adea d83d 2500 fcbd 067e 90bd 56bb d43d
00000060: 86c1 febd 980e 6d3d 4370 3dba 9426 943b
00000070: 3803 babd 377e 56bd ee6d 7f3d 7a8c 4d3a
00000080: 1eed 293c a4fb 86bb 425b cfbd 3fcd eabc
00000090: cccc 54bd bfac eebd f3a1 1dbd 7271 c2bc
000000a0: 93c8 1a3d 062e 79bc ff25 a93d 6c3a c2bd
000000b0: 21eb 7c3c 3da5 993d 519c dabd 698c c5bd
000000c0: c966 8fbd e9dc c63c 794d a4bd 1793 a93d
000000d0: d24d 76bc f323 543d 225c 15bd d506 12be
000000e0: 2031 a63d 3581 e8bd f819 8d3d 63da e6bd
000000f0: 7d5b b53d d44d 8cbd 6d2e 6ebc 3224 d43a
00000100: f6c8 88bd e2b3 9fbd b596 b43d f3ff d7bd
00000110: 38bb 99bd 976f 46b9 b103 883d b03b 7f3c
00000120: aa66 8d3d 4a64 8b3d 9bbc a13d 7e19 873d
00000130: a6bb 4d3d f264 033c 573a 93bd 29b5 cd3c
00000140: be5b e2bd 2180 e1bd 56fb f83c 56f5 13bc
00000150: 17f4 67bd 5e4d c2ba f36e 5d3d 4a6e 8b3d
00000160: c819 c33c ab9f 783d 0942 753a d045 94bd
00000170: ec87 d63c 0972 06bd 602e 0ebe 2ece 8dbc
00000180: 1a5b cebc 6c95 af3d 4125 1abe a1f8 98bd
00000190: 315e 97bd 0ac4 5a3d 35e8 92bd c508 003e
000001a0: c824 083d 11e4 65bd b4ba 983d 70b3 27bc
000001b0: 4da4 acbd b44c 04bd f6de 033e 1fc1 e03d
000001c0: 5488 0dbb dbc1 cfbd a5e0 9dbd faff febd
000001d0: fea4 af3c b9b8 953d de7e 8b3b 57a6 00bd
000001e0: 48cd 07bc f5c4 843d 1e54 93bd 21d7 953d
000001f0: 92a5 303d 4ede 65bd 950c 97bd 1338 ffbd
00000200: 2faf 093d 1379 b63d 822a 803d 3d17 b9bd
00000210: e33e 6b3c 4296 c53d cfe8 e93d 48e5 e63d
00000220: 1cf6 183d b123 753d f796 343d 1927 c93c
00000230: 6bf6 853d 70fc 553d 198c 963d 68c0 093d
00000240: 6369 37bd 8894 ef3c c5a0 5dbd 4957 b2bd
00000250: 8e1a 603d b07a 9cbd f88c 75bd 24e3 a53d
00000260: 190a 1a3d cc8d e7bd e5e8 853c 2e0e ccbd
00000270: 57fc 233d 9604 073e 8072 d73d 25ab f3bc
00000280: bcce e1bd d095 82bd 2ae6 60bc 1b31 d1bd
00000290: 655a 5ebc 240b e7bb 39c3 a0bb 5a5a 9cbd
000002a0: c0b5 48bc 4e9c 3ebc 4f28 a4bd 9f89 78bc
000002b0: 3f3e 26bd 407b 123d 1c3a a5bd 28fc a5bd
000002c0: edbe bfbd 48ae d4bd 9e4a 49bd 970f df3d
000002d0: 93bf 9cbc 2835 f33d 8b85 023e b5db 60bd
000002e0: c873 023d f012 69bd 8f56 e13d 879a 52bc
000002f0: 36e3 33bd 7e1f 513c 9c8e 92bd a6b4 14bd
00000300: 9b23 b0bd 43c6 25bd db5e 88bd 9041 c1bd
00000310: 3288 023d 9ee5 acbd 7f81 693d ad47 aa3b
00000320: 2d25 70bd 6b36 0bbd 973e 2b3d 61e2 ee3d
00000330: 1342 a7bd eb66 0ebe 258c 83bd c350 bdbd
00000340: 4574 cdbd 9eaa e53d d5ef d93d 681f aebc
00000350: 740e f1bc 1723 d5bd 6499 cd3d b40e c33c
00000360: 4996 e5bd 15d0 aeba 41e3 70bc deec db3c
00000370: a831 b4bd 0e06 fd37 1a31 d6bd 947d 64bb
00000380: 52e1 cdbd 9e54 c6bc 6675 cebd a47b 82bb
00000390: ebb3 c33d fcbe a03d cd69 bbbd 6df4 013e
000003a0: d6ac a03d 13cb 223d 5bfe 4e3d a03a 84bc
000003b0: ea9f d63d 8300 a03d af4b 6a3d 4727 13bd
000003c0: 1bd8 023c 5f57 1fbe 1ee9 ba3b 7987 d83d
000003d0: 23c2 51bb 717c 6ebc be92 64bd 2edc ee3b
000003e0: a3c8 873d da7f d23d 09f6 423c 7f81 02bd
000003f0: c8f0 78bd 6e41 b9bd c866 a3bd 402c 24bd

fc1.bias f4 [64]
0.060598057 0.019306554 0.027354598 0.057328857 -0.0030152302 0.12012903 0.07954823 0.056333587
-0.09735715 0.10594356 -0.025122281 -0.06405216 0.10109494 0.0011740222 0.06621025 -0.03337127
-0.023822898 0.039072912 0.13497038 -0.060072005 -0.043254204 -0.009589784 -0.092027836 0.10795549
0.03625263 -0.020049257 0.02829378 0.019579498 0.082206964 -0.0077604093 0.014300852 -0.10073644
-0.023899226 0.02958448 0.11808866 0.070203274 0.03776652 -0.056047797 -0.06676726 0.079589345
0.082041875 0.09640562 0.039383706 0.01285746 0.026464265 -0.07503414 0.047395967 0.034643564
0.060685802 0.062416926 -0.021303186 0.09724702 0.095213905 0.10665619 0.012106557 -0.009502289
0.026204608 -0.022047218 -0.049870085 0.0035827807 0.11997328 0.016335195 0.07229818 -0.029908322
00000000: ab35 783d c728 9e3c c016 e03c aad1 6a3d
00000010: 2b9b 45bb 3506 f63d 2fea a23d 0cbe 663d
00000020: 2f63 c7bd f0f8 d83d 3ecd cdbc c72d 83bd
00000030: dd0a cf3d a6e1 993a 3d99 873d 50b0 08bd
00000040: 3d28 c3bc eb0a 203d ad35 0a3e 100e 76bd
00000050: 522b 31bd 781e 1dbc 1779 bcbd c517 dd3d
00000060: a37d 143d 573e a4bc 5bc8 e73c 2f65 a03c
00000070: 205c a83d 084b febb 1f4e 6a3c e84e cebd
00000080: 4fc8 c3bc 275b f23c 78d8 f13d bcc6 8f3d
00000090: 11b1 1a3d 6092 65bd 46bd 88bd bdff a23d
000000a0: 9205 a83d 4f70 c53d cf50 213d 19a8 523c
000000b0: 96cb d83c 80ab 99bd 4622 423d 69e6 0d3d
000000c0: ad91 783d e4a8 7f3d 0584 aebc 7229 c73d
000000d0: 82ff c23d 8f6e da3d 955a 463c 7daf 1bbc
000000e0: 0cab d63c 5e9c b4bc 9344 4cbd 16cd 6a3b
000000f0: 8db4 f53d 63d1 853c 1111 943d 4c02 f5bc

bn2.weight f4 [64]
0.9757938 1.0633277 1.0281298 1.0114752 1.036867 0.9834032 1.0154452 0.9746426
1.0093608 0.9709528 1.025202 1.0041782 0.9884217 0.9909098 1.0098369 0.9936315
0.9728744 1.0396402 0.9977665 1.0434618 0.9721276 1.0066433 0.99432486 0.97024703
1.038069 1.0041384 0.99877864 1.0046923 1.0007094 1.017016 0.9910895 1.0041171
0.9951486 1.0644001 0.98901564 0.9958774 1.035672 0.999763 0.9948962 0.9734277
1.0166981 1.0198023 0.99445784 1.0549377 1.0397471 1.0337652 0.99459416 1.0264148
1.0257108 1.0070608 1.0211813 0.99393207 1.0259438 1.007691 1.0388346 1.0074449
1.0013013 0.99244076 0.9858677 0.977401 1.0209018 0.92436653 1.0254908 0.9995747
00000000: 9fcd 793f 1f1b 883f c299 833f 0578 813f
00000010: 0fb8 843f 50c0 7b3f 1cfa 813f 2d82 793f
00000020: bc32 813f 5d90 783f d239 833f e988 803f
00000030: 3409 7d3f 44ac 7d3f 5642 813f a25e 7e3f
00000040: 4c0e 793f ee12 853f a06d 7f3f 2890 853f
00000050: 5bdd 783f b0d9 803f 138c 7e3f 1c62 783f
00000060: 72df 843f 9b87 803f f5af 7f3f c299 803f
00000070: 3f17 803f 952d 823f 0bb8 7d3f e986 803f
00000080: 0fc2 7e3f 433e 883f 2130 7d3f d2f1 7e3f
00000090: e690 843f 78f0 7f3f 84b1 7e3f 8f32 793f
000000a0: 2a23 823f e288 823f ca94 7e3f 3308 873f
000000b0: 6f16 853f 6b52 843f b99d 7e3f 8f61 833f
000000c0: 7e4a 833f 5ee7 803f 12b6 823f 5572 7e3f
000000d0: 2052 833f 05fc 803f 88f8 843f f4f3 803f
000000e0: a42a 803f 9910 7e3f d361 7c3f f436 7a3f
000000f0: e9ac 823f 49a3 6c3f 4843 833f 21e4 7f3f

bn2.bias f4 [64]
0.019937284 -0.022831554 -0.022074554 -0.027419057 0.021566365 0.020328987 0.020684127 0.02021439
-0.02135024 -0.019670837 -0.020941626 -0.021049874 0.020335976 0.018721025 -0.021108685 0.020422272
0.019891711 -0.021332571 0.020909205 -0.021288054 0.020036882 -0.020924877 -0.020860095 0.01787441
-0.02231761 -0.020970551 0.020257404 -0.021851918 0.020665552 -0.021917114 0.01837449 0.020146875
0.020754403 0.023191953 0.020610647 -0.020879874 -0.021779155 0.020704582 0.019462561 0.02029808
0.022095885 0.02105301 -0.020848585 -0.021963404 0.021412324 -0.022065181 0.020424971 -0.02126121
0.020151498 -0.021044588 -0.021740742 0.020675918 0.02205843 0.020440098 0.020879121 -0.021330446
-0.020876834 -0.020973772 0.020129994 0.020437963 0.021020867 0.01798897 -0.021283038 -0.021118138
00000000: 8453 a33c 3d09 bbbc b2d5 b4bc ee9d e0bc
00000010: f2ab b03c fa88 a63c c271 a93c a698 a53c
00000020: b3e6 aebc bc24 a1bc c68d abbc c970 acbc
00000030: a297 a63c d65c 993c 1fec acbc 9c4c a73c
00000040: f1f3 a23c a5c1 aebc c849 ab3c 4964 aebc
00000050: 6324 a43c a66a abbc cae2 aabc 5b6d 923c
00000060: 6cd3 b6bc 6fca abbc dbf2 a53c cb02 b3bc
00000070: ce4a a93c 858b b3bc 1986 963c 0f0b a53c
00000080: 2305 aa3c 0dfd bd3c a9d7 a83c 450c abbc
00000090: 336a b2bc a89c a93c f36f 9f3c 2948 a63c
000000a0: 6e02 b53c 5d77 ac3c a7ca aabc 99ec b3bc
000000b0: e668 af3c 0ac2 b4bc 4552 a73c fd2b aebc
000000c0: c114 a53c b365 acbc a419 b2bc 8b60 a93c
000000d0: e1b3 b43c fe71 a73c b10a ab3c 30bd aebc
000000e0: e505 abbc 30d1 abbc a8e7 a43c 846d a73c
000000f0: f433 ac3c 9b5d 933c c459 aebc f2ff acbc

bn2.running_mean f4 [64]
0.16680895 0.07248361 0.09890964 0.099692315 0.051128924 0.1821057 0.10576657 0.16559161
0.034592655 0.11827611 0.06311126 0.097922534 0.19275855 0.10458528 0.10031029 0.026443487
0.07417923 0.05967982 0.1398221 0.033248518 0.10811275 0.07804851 0.11309079 0.12789354
0.08104857 0.09604741 0.1211825 0.04740594 0.09864762 0.051733207 0.02543402 0.014464323
0.0651916 0.08579482 0.16409057 0.09669564 0.075834356 0.017181521 0.07010687 0.1183427
0.092963025 0.11771305 0.16156662 0.07211944 0.037061997 0.032705545 0.051318202 0.05334896
0.07598489 0.12358144 0.05330565 0.1234229 0.08458676 0.11756327 0.03151476 0.044491466
0.17628162 0.07196898 0.012048808 0.07686958 0.13599476 0.15935804 0.099320695 0.1089325
00000000: f7cf 2a3e 4972 943d 2391 ca3d 7c2b cc3d
00000010: 906c 513d eb79 3a3e 259c d83d d990 293e
00000020: 07b1 0d3d bf3a f23d 7a40 813d 9c8b c83d
00000030: 7f62 453e cf30 d63d 7b6f cd3d 03a0 d83c
00000040: 48eb 973d d472 743d 862d 0f3e 992f 083d
00000050: 386a dd3d e6d7 9f3d 259c e73d 86f6 023e
00000060: cbfc a53d 81b4 c43d 882e f83d bb2c 423d
00000070: c307 ca3d 33e6 533d 025b d03c c5fb 6c3c
00000080: 2c83 853d 32b5 af3d 5c07 283e 5d08 c63d
00000090: 0b4f 9b3d 43c0 8c3c 3194 8f3d a85d f23d
000000a0: 6663 be3d 8a13 f13d b871 253e 5bb3 933d
000000b0: 52ce 173d 40f6 053d 0933 523d 7084 5a3d
000000c0: f79d 9b3d 4418 fd3d 0657 5a3d 25c5 fc3d
000000d0: d33b ad3d 03c5 f03d 9f15 013d af3c 363d
000000e0: 2b83 343e 7964 933d 5d68 453c cc6d 9d3d
000000f0: 3642 0b3e c12e 233e a668 cb3d 0118 df3d

bn2.running_var f4 [64]
0.042726334 0.009780214 0.01447896 0.012151099 0.003069338 0.034535926 0.010913366 0.036276296
0.007162572 0.010481004 0.00800559 0.022746664 0.045370586 0.026972814 0.014273191 0.0017516708
0.015392598 0.0038715512 0.004874814 0.0028484315 0.025456086 0.017474521 0.029030252 0.010749889
0.011808775 0.013655703 0.04188095 0.0038619272 0.010381731 0.005011088 0.0011896604 0.0017944685
0.008114639 0.0061618215 0.029045882 0.012707421 0.01000913 0.0019961963 0.014124587 0.012720543
0.004921936 0.013554436 0.043460563 0.00919962 0.0024210091 0.0062201894 0.0040072273 0.0045858556
0.0063518956 0.020264145 0.0062519643 0.016897907 0.007678515 0.0151467705 0.0021484012 0.0047358396
0.05264612 0.011040664 0.0010027395 0.008430103 0.013376092 0.04335708 0.01279587 0.025940722
00000000: cf01 2f3d 313d 203c 2939 6d3c 6715 473c
00000010: f226 493b 8b75 0d3d facd 323c 7496 143d
00000020: 02b4 ea3b 84b8 2b3c e129 033c 3657 ba3c
00000030: 82d6 393d 17f6 dc3c 1ada 693c 5298 e53a
00000040: 3c31 7c3c dab9 7d3b e7bc 9f3b c0ac 3a3b
00000050: 4889 d03c ba26 8f3c dad0 ed3c 4d20 303c
00000060: 9879 413c 2bbc 5f3c 5c8b 2b3d 6318 7d3b
00000070: 2318 2a3c 0e34 a43b 61ee 9b3a 5f34 eb3a
00000080: 43f3 043c 1be9 c93b a1f1 ed3c c932 503c
00000090: 56fd 233c 9ed2 023b d06a 673c d369 503c
000000a0: 3148 a13b 6d13 5e3c b403 323d 01ba 163c
000000b0: cba9 1e3b bbd2 cb3b 0f4f 833b f244 963b
000000c0: 9023 d03b fe00 a63c 47dd cc3b 7b6d 8a3c
000000d0: 0d9c fb3b 292a 783c 31cc 0c3b 1a2f 9b3b
000000e0: 75a3 573d e7e3 343c 5b6e 833a 6a1e 0a3c
000000f0: 6527 5b3c 3297 313d c5a5 513c a381 d43c

fc2.weight f4 [1, 64]
0.037926912 -0.09193731 -0.065708265 -0.0152562205 0.093683325 0.05339648 0.13139398 0.06519744
-0.09577384 0.0084778145 -0.14664747 -0.06154771 0.03705743 0.014219772 -0.04635224 0.05983172
0.043242924 -0.08243552 0.09807466 -0.10186599 0.046235714 -0.09626528 -0.10930335 0.001871923
-0.05767374 -0.12907198 0.027411416 -0.030514244 0.07517857 -0.053457588 0.014304607 0.030980913
0.061260313 0.07580566 0.07646476 -0.08963455 -0.10297483 0.02300097 0.024975292 0.09359308
0.053944834 0.119639315 -0.061983407 -0.1257737 0.10522086 -0.07584581 0.07686709 -0.0879194
0.045036796 -0.056402944 -0.058522716 0.02959013 0.052890316 0.051005892 0.11852079 -0.099424206
-0.12361426 -0.109930076 0.045078352 0.09852506 0.096752666 -0.0009779715 -0.11815499 -0.054575898
00000000: 4059 1b3d a149 bcbd 0e92 86bd 3af5 79bc
00000010: 0bdd bf3d 44b6 5a3d 258c 063e 3c86 853d
00000020: 1325 c4bd 88e6 0a3c c12a 16be 7419 7cbd
00000030: 88c9 173d 0cfa 683c d9db 3dbd 1b12 753d
00000040: 7e1f 313d f4d3 a8bd 5edb c83d 1e9f d0bd
00000050: a961 3d3d bb26 c5bd 6fda dfbd 505b f53a
00000060: 4d3b 6cbd 722b 04be e88d e03c 02f9 f9bc
00000070: 39f7 993d 58f6 5abd df5d 6a3c afcb fd3c
00000080: 18ec 7a3d ff3f 9b3d 8e99 9c3d 5292 b7bd
00000090: 78e4 d2bd 886c bc3c fc98 cc3c bbad bf3d
000000a0: 42f5 5c3d 7505 f53d 50e2 7dbd d2ca 00be
000000b0: 097e d73d 0c55 9bbd 7e6c 9d3d 160f b4bd
000000c0: 8178 383d c606 67bd 84b5 6fbd 0067 f23c
000000d0: 84a3 583d 8eeb 503d 07bb f23d eb9e cbbd
000000e0: 7929 fdbd 0523 e1bd 14a4 383d 82c7 c93d
000000f0: 4326 c63d 472f 80ba 3efb f1bd fa8a 5fbd
