result/dee_phage/800_1200/fold_1/20250501-084939/1200_0.0001_32_model_best.pt (torch, 31679 bytes, 13 tensors)

conv.weight f4 [64, 4, 6]
-0.064070486 -0.0981222 0.0047631566 -0.039000247 -0.12163497 -0.05984405 -0.0936582 0.06771772
-0.0032031653 -0.39239156 0.11537917 0.12073249 -0.12327061 -0.14688335 -0.051814202 0.027165659
-0.15159322 0.029123314 -0.09786727 0.18002306 -0.019327829 -0.25731307 0.14433795 0.15076332
-0.06043295 -0.053735077 0.13625877 -0.08431736 0.097588934 -0.29382607 -0.029488629 -0.034680597
0.2039432 -0.07535536 -0.10798139 -0.35763168 -0.014303406 -0.02451984 0.07416798 0.06007375
-0.27758875 0.008009892 -0.48187205 -0.05924637 -0.14796948 0.117961854 -0.1946373 0.1736113
-0.07734482 -0.28630763 0.26990083 -0.030454336 -0.16925721 0.115741834 0.034562714 -0.06417207
-0.37950984 0.2900633 0.041778617 0.013544254 -0.10163635 0.057604287 -0.24408919 0.075980805
0.09348637 -0.079614446 -0.10869141 0.0076170885 0.0030286475 -0.08331087 0.11369596 0.01367457
0.012533727 0.03005842 0.09041998 -0.08702018 -0.21005403 -0.084042236 0.014063549 0.09187502
-0.31554872 0.020801585 0.0026576219 0.024488809 -0.15067366 0.028451297 -0.17723043 -0.1950274
0.21624945 0.04411771 -0.10195297 0.025162648 -0.11115801 0.17194897 -0.07138365 -0.031346623
0.13435833 -0.43500113 0.113108546 0.051441707 -0.38415366 0.0016875444 -0.12176733 -0.1298151
0.015014449 -0.13543311 -0.014394283 -0.012776984 -0.062363088 0.01996946 -0.09967888 -0.22559708
-0.03568806 -0.024054918 -0.08331686 -0.03109421 -0.2580719 0.11576121 -0.0052538835 -0.10180856
-0.20427081 0.1495396 0.108841315 -0.039466403 -0.23360488 -0.013034744 0.13531522 -0.079340555
-0.047873914 -0.22722307 -0.0980334 0.035621148 -0.01335325 -0.012785335 0.06785421 -0.27197182
-0.18170789 0.09571374 -0.22429244 -0.12084217 0.09239214 -0.05035417 0.07403517 -0.05631636
-0.22262938 0.06828659 0.056103155 0.04340517 -0.363755 -0.08067347 -0.031584542 0.17374367
-0.35890862 -0.07266227 0.033482127 0.044561956 -0.055990517 0.013492899 -0.06469427 0.1688849
-0.23164809 -0.13657555 0.020797813 0.021015631 0.06760724 -0.33309603 0.13378407 -0.11238078
0.14882879 0.11268228 0.149818 -0.105016954 0.06653508 -0.2517193 -0.27205625 0.00015023329
-0.0814299 -0.09948546 0.17107081 -0.07188479 -0.16370633 -0.19917506 0.0061978037 0.02198729
-0.042421885 0.13180512 0.191208 -0.02293995 -0.013878909 -0.08733018 -0.04228866 -0.23187403
0.08434562 0.0059710313 -0.06351076 0.09078637 -0.28411412 0.2069887 0.009486092 -0.10107518
0.0065226573 -0.073020376 0.17349079 -0.25161105 0.075392134 0.022436194 0.06428148 0.054274466
-0.19693474 -0.009120417 -0.00490016 -0.1293777 -0.1586833 -0.21978633 0.046347883 0.06156847
0.029420204 -0.06642944 0.019864019 -0.27884287 -0.056439355 -0.2091987 0.07235941 0.014293534
0.18016993 0.051939633 0.18482915 0.0167728 -0.06433218 -0.22360156 0.033622645 -0.24874748
-0.10399185 -0.09542324 0.0535968 -0.02646505 -0.2668783 0.12015172 -0.22391467 -0.052919354
-0.004662838 0.09140789 -0.2597075 0.11775146 -0.17111318 -0.025713801 0.018284822 -0.100982815
-0.11858361 -0.38073865 -0.050337628 -0.22409746 0.17916125 0.16638124 0.19664815 0.08792105
00000000: 6337 83bd 4bf4 c8bd 4114 9c3b b9be 1fbd
00000010: c11b f9bd 091f 75bd dfcf bfbd 97af 8a3d
00000020: 32ec 51bb 8ce7 c8be ea4b ec3d 9942 f73d
00000030: 4d75 fcbd 9768 16be 213b 54bd 848a de3c
00000040: 413b 1bbe 0494 ee3c a36e c8bd f757 383e
00000050: 6555 9ebc 8abe 83be 54cd 133e b361 1a3e
00000060: 8a88 77bd 5019 5cbd 6b87 0b3e 94ae acbd
00000070: b5dc c73d 5f70 96be 2392 f1bc 3e0d 0ebd
00000080: 7cd6 503e e953 9abd 5925 ddbd 801b b7be
00000090: d558 6abc d5dd c8bc 62e5 973d e40f 763d
000000a0: 1d20 8ebe ec3b 033c efb7 f6be 52ac 72bd
000000b0: 5085 17be fc95 f13d 004f 47be 29c7 313e
000000c0: f666 9ebd ea96 92be 7130 8a3e 5f7b f9bc
000000d0: c351 2dbe 0e0a ed3d a291 0d3d a56c 83bd
000000e0: 1d4f c2be 2d83 943e 0e20 2b3d b8e8 5d3c
000000f0: b826 d0bd 79f2 6b3d 84f2 79be d39b 9b3d
00000100: c875 bf3d e60c a3bd 9a99 debd c598 f93b
00000110: 467c 463b e49e aabd 6dd9 e83d 4e0b 603c
00000120: 435a 4d3c 133d f63c 1c2e b93d a337 b2bd
00000130: 6718 57be 561e acbd cd6a 663c f828 bc3d
00000140: 9a8f a1be 1668 aa3c 7f2b 2e3b c19c c83c
00000150: 324a 1abe b212 e93c e57b 35be 43b5 47be
00000160: 7f70 5d3e c6b4 343d b8cc d0bd e621 ce3c
00000170: d0a6 e3bd 6413 303e 9731 92bd 5165 00bd
00000180: 3b95 093e 78b8 debe 74a5 e73d 8ab4 523d
00000190: caaf c4be 9830 dd3a 2661 f9bd 40ee 04be
000001a0: 2aff 753c faae 0abe 00d6 6bbc 8e56 51bc
000001b0: 7070 7fbd fe96 a33c 7124 ccbd ec02 67be
000001c0: a52d 12bd d20e c5bc 08a2 aabd 49b9 febc
000001d0: 0022 84be 3714 ed3d c528 acbb 0281 d0bd
000001e0: 5e2c 51be e920 193e 32e8 de3d 86a7 21bd
000001f0: 1e36 6fbe ae8f 55bc 1390 0a3e 4d7d a2bd
00000200: 7017 44bd 2aad 68be bcc5 c8bd 7be7 113d
00000210: 97c7 5abc 9579 51bc 26f7 8a3d e43f 8bbe
00000220: a211 3abe 9105 c43d ebac 65be 1a7c f7bd
00000230: 1738 bd3d 2d40 4ebd c09f 973d fcab 66bd
00000240: f5f8 63be d7d9 8b3d 6ccc 653d 9fc9 313d
00000250: 183e babe 2238 a5bd cb5e 01bd dce9 313e
00000260: dfc2 b7be f5cf 94bd 8e24 093d 9986 363d
00000270: 5056 65bd 5211 5d3c 6e7e 84bd 2af0 2c3e
00000280: 2835 6dbe 76da 0bbe 2d60 aa3c f928 ac3c
00000290: aa75 8a3d 908b aabe b1fe 083e e527 e6bd
000002a0: 9366 183e f8c5 e63d e469 193e 2113 d7bd
000002b0: 8b43 883d 5ae1 80be f54a 8bbe f187 1d39
000002c0: b8c4 a6bd 08bf cbbd 302d 2f3e 5538 93bd
000002d0: a2a2 27be 8cf4 4bbe f216 cb3b b01e b43c
000002e0: 92c2 2dbd ecf7 063e 08cc 433e 90ec bbbc
000002f0: 5d64 63bc 2ada b2bd e036 2dbd 6370 6dbe
00000300: 65bd ac3d a4a8 c33b ee11 82bd 34ee b93d
00000310: 6877 91be d9f4 533e 8e6b 1b3c 8100 cfbd
00000320: 04bc d53b b58b 95bd 92a7 313e 2ad3 80be
00000330: 3167 9a3d 1ccc b73c 02a6 833d e74e 5e3d
00000340: 43a9 49be cd6d 15bc 8591 a0bb 967b 04be
00000350: e07d 22be ab0f 61be 47d7 3d3d 382f 7c3d
00000360: a402 f13c 290c 88bd deb9 a23c 7ec4 8ebe
00000370: f42c 67bd 2f38 56be 2c31 943d 6d2f 6a3c
00000380: 777e 383e a7be 543d da43 3d3e 1c67 893c
00000390: 97c0 83bd cff7 64be e6b7 093d a9b7 7ebe
000003a0: aef9 d4bd 426d c3bd 5188 5b3d 3ccd d8bc
000003b0: 46a4 88be 1b12 f63d e349 65be f7c1 58bd
000003c0: b8ca 98bb 0f34 bb3d 62f8 84be ad27 f13d
000003d0: 4b38 2fbe c0a5 d2bc 0dca 953c 14d0 cebd
000003e0: f7db f2bd 2df0 c2be d42e 4ebd ce79 65be
000003f0: 0c76 373e d85f 2a3e 225e 493e f40f b43d

conv.bias f4 [64]
0.49532863 -0.08894424 -0.13791555 -0.19472446 0.15075879 -0.29794517 -0.16715737 -0.19524372
-0.19549479 -0.1980692 -0.27962375 0.036668144 -0.062080074 0.1745543 0.07536617 -0.354143
-0.22649996 -0.028983278 0.2534317 -0.1661872 -0.1984523 -0.28094894 -0.28166166 -0.10793776
-0.2893237 0.021801004 0.08511658 0.029356511 0.062248927 0.13771681 -0.16483045 -0.07905514
-0.19519965 -0.18294534 -0.15524481 0.27240434 -0.09108136 0.046005856 -0.21995789 -0.076502666
-0.066439815 -0.18952155 0.09218529 -0.31671935 0.099173635 0.07190465 0.13472146 -0.2991543
0.036793478 0.035967402 -0.20004705 -0.12482375 -0.12026141 -0.065225005 -0.2571986 -0.37595454
-0.3019745 0.19283257 -0.2657135 -0.15253061 -0.12168495 -0.16352469 -0.1382175 0.00862636
00000000: b79b fd3e 6628 b6bd bc39 0dbe d965 47be
00000010: 8360 1a3e 458c 98be 4d2b 2bbe f8ed 47be
00000020: c92f 48be a7d2 4abe d82a 8fbe 5631 163d
00000030: ad47 7ebd 5dbe 323e 9459 9a3d 3b52 b5be
00000040: 9bef 67be 576e edbc cdc1 813e fa2c 2abe
00000050: 1437 4bbe 8ad8 8fbe f535 90be 790e ddbd
00000060: 3c22 94be 0598 b23c 9a51 ae3d 117d f03c
00000070: bbf8 7e3d a305 0d3e 50c9 28be a9e7 a1bd
00000080: 6be2 47be 0656 3bbe 7ff8 1ebe 9578 8b3e
00000090: dd88 babd a370 3c3d a43c 61be 6ead 9cbd
000000a0: 9911 88bd f011 42be a4cb bc3d 0a29 a2be
000000b0: 8c1b cb3d bf42 933d 6cf4 093e c12a 99be
000000c0: c2b4 163d 8e52 133d 22d9 4cbe 98a3 ffbd
000000d0: 9d4b f6bd b094 85bd 89af 83be 1d7d c0be
000000e0: 679c 9abe e775 453e 9a0b 88be fc30 1cbe
000000f0: f635 f9bd 0473 27be e388 0dbe 9455 0d3c

bn1.weight f4 [64]
0.90327173 0.89105606 1.1357584 1.0445458 0.9463274 0.891532 1.0272311 1.0292445
1.0442615 1.0856212 1.1122628 1.0230405 0.98248184 0.85765004 0.97824836 0.93390274
0.94791675 0.97451633 0.9072646 1.069524 1.0820647 0.95823 0.9416385 0.9595947
0.95858335 1.0080215 0.90166545 1.1844282 1.2334061 1.0015959 1.0970879 0.9432801
1.0214978 0.97153443 0.96129787 0.91478914 0.95999706 1.1282824 1.0475187 0.96659845
1.0114626 1.148589 0.954352 0.9375385 1.1912959 0.9498628 0.91146684 1.0592636
1.0558677 0.96145946 0.97045076 0.96427083 0.9247715 0.7044498 1.0195403 1.0781535
0.90318525 0.99519 0.9367263 0.892989 1.0526202 1.0563864 0.9704066 1.1055784
00000000: d13c 673f 401c 643f 8860 913f adb3 853f
00000010: 8342 723f 713b 643f 4f7c 833f 49be 833f
00000020: 5caa 853f a3f5 8a3f a15e 8e3f fef2 823f
00000030: ee83 7b3f f48e 5b3f 7c6e 7a3f 4014 6f3f
00000040: acaa 723f e779 793f 7e42 683f 2ae6 883f
00000050: 1981 8a3f 904e 753f 390f 713f 00a8 753f
00000060: b865 753f d906 813f 8cd3 663f 589b 973f
00000070: 40e0 9d3f 4b34 803f 606d 8c3f ce7a 713f
00000080: 71c0 823f 7bb6 783f 9e17 763f 9f2f 6a3f
00000090: 5ec2 753f 8f6b 903f 1815 863f ff72 773f
000000a0: 9b77 813f f704 933f 6a50 743f 8602 703f
000000b0: 627c 983f 352a 733f e455 693f f395 873f
000000c0: ac26 873f 3522 763f 766f 783f 74da 763f
000000d0: d3bd 6c3f d256 343f 4c80 823f ef00 8a3f
000000e0: 2637 673f c6c4 7e3f 4bcd 6f3f ed9a 643f
000000f0: 42bc 863f ab37 873f 916c 783f 9883 8d3f

bn1.bias f4 [64]
0.0025499552 -0.020471841 0.0019357844 0.034134526 0.04033172 -0.0060355463 0.02203556 -0.025445
0.021284414 -0.02514869 0.0015886202 0.011132205 -0.014657455 -0.008571141 0.0095758485 0.023216551
-0.00882914 -0.0007757534 -0.008610735 -0.009352857 0.03681251 0.034934077 0.0061840857 0.011404189
0.03481529 0.0003995864 -0.0027520922 0.03082561 0.018885426 0.01061418 0.06113572 0.010320774
-0.014617627 0.037808146 -0.023793789 0.06303841 0.010719413 0.008002106 0.012316269 -0.004672647
0.024803618 0.07933301 0.025986046 0.021026196 -0.012489398 0.023425324 -0.038226187 0.005811448
-0.01476248 0.0072791353 -0.008595805 0.0011017914 0.04741865 0.028387388 0.09441991 0.008887199
-0.0033299348 -0.0021292304 -0.0016388358 0.0060057286 -0.01083788 -0.040425844 0.026051337 0.019643867
00000000: 261d 273b 90b4 a7bc 25ba fd3a a5d0 0b3d
00000010: e032 253d d5c5 c5bb eb83 b43c 0872 d0bc
00000020: a75c ae3c a004 cebc 4039 d03a da63 363c
00000030: d225 70bc f96d 0cbc 05e4 1c3c a330 be3c
00000040: 19a8 10bc ee5b 4bba 0a14 0dbc ba3c 19bc
00000050: b7c8 163d 0917 0f3d dfa3 ca3b a3d8 3a3c
00000060: 7a9a 0e3d 947f d139 725c 34bb fd85 fc3c
00000070: 9cb5 9a3c 19e7 2d3c 7369 7a3d 7718 293c
00000080: c57e 6fbc b7dc 1a3d 31eb c2bc 481a 813d
00000090: 7aa0 2f3c 441b 033c 2dca 493c 011d 99bb
000000a0: f530 cb3c 5879 a23d b0e0 d43c 213f ac3c
000000b0: 55a0 4cbc 77e6 bf3c 1093 1cbd f66d be3b
000000c0: 54de 71bc d085 ee3b 6bd5 0cbc fc69 903a
000000d0: 0f3a 423d ab8c e83c 3a5f c13d 9d9b 113c
000000e0: 093b 5abb 8f8a 0bbb 34ce d6ba b4cb c43b
000000f0: 5d91 31bc 9295 25bd 9d69 d53c 2dec a03c

bn1.running_mean f4 [64]
0.53904796 0.033916567 0.1207889 0.021616971 0.09862117 0.002254366 0.024323486 0.039479956
0.036468476 0.012050114 0.01727112 0.062436547 0.013441325 0.1481422 0.081791535 0.011711567
0.053196143 0.040726647 0.21044691 0.053543523 0.0071849986 0.06332593 0.019212494 0.024071041
0.03368715 0.03915709 0.11854781 0.031039923 0.031223148 0.17243853 0.0033354189 0.0768113
0.034799427 0.045451697 0.062206265 0.297679 0.019475218 0.05131223 0.01259427 0.041390285
0.031527642 0.032685157 0.083269514 0.05662696 0.075212665 0.079015106 0.109487034 0.03213786
0.016622767 0.06972711 0.019277414 0.021050889 0.040031966 0.1555075 0.013573074 0.030105552
0.039593987 0.11120963 0.02454353 0.04069464 0.053953707 0.049308136 0.023062782 0.009954234
00000000: 0cff 093f 19ec 0a3d 2c60 f73d 1316 b13c
00000010: e5f9 c93d fcbd 133b 0c42 c73c bcb5 213d
00000020: f85f 153d d76d 453c 2a7c 8d3c 77bd 7f3d
00000030: 0139 5c3c 97b2 173e 5282 a73d dfe1 3f3c
00000040: 33e4 593d fcd0 263d 657f 573e 7450 5b3d
00000050: 2370 eb3b 06b1 813d 8563 9d3c a230 c53c
00000060: 89fb 093d 2f63 203d 32c9 f23d 7047 fe3c
00000070: b0c7 ff3c ba93 303e 0b97 5a3b 3e4f 9d3d
00000080: d889 0e3d 8f2b 3a3d ffcb 7e3d 6269 983e
00000090: 7e8a 9f3c c62c 523d 3258 4e3c dc88 293d
000000a0: 2123 013d dfe0 053d 3589 aa3d acf1 673d
000000b0: 1909 9a3d acd2 a13d bd3a e03d fda2 033d
000000c0: 782c 883c 16cd 8e3d abeb 9d3c ea72 ac3c
000000d0: 8ff8 233d 5c3d 1f3e 9961 5e3c eb9f f63c
000000e0: 4e2d 223d e0c1 e33d 830f c93c 6caf 263d
000000f0: 90fe 5c3d 54f7 493d 29ee bc3c 1517 233c

bn1.running_var f4 [64]
0.02358511 0.0064828317 0.025685497 0.0037464793 0.011843333 0.00027191735 0.0037927525 0.0077212425
0.00584444 0.0019550193 0.0033413726 0.009468781 0.002056597 0.0152129335 0.011545412 0.0020332683
0.008381579 0.007829953 0.027657274 0.011211258 0.0010236244 0.010878333 0.0030071216 0.004457729
0.006607221 0.005839636 0.019585188 0.004774895 0.002960474 0.021484617 0.00042809168 0.014887869
0.0059588696 0.008840686 0.011359181 0.025951961 0.003404465 0.0065449113 0.0021723409 0.006430518
0.0052374415 0.005280784 0.010470802 0.011256562 0.009397121 0.012202422 0.014744608 0.0061200266
0.00163935 0.013167782 0.003845329 0.0034179464 0.007832184 0.036707573 0.002219757 0.006074944
0.008330318 0.013652731 0.0035218864 0.0072148647 0.010889241 0.009217121 0.0035752172 0.0013722732
00000000: 9035 c13c ef6d d43b 646a d23c 7e87 753b
00000010: 8a0a 423c 2190 8e39 d48f 783b 7a02 fd3b
00000020: b782 bf3b c81f 003b eefa 5a3b f222 1b3c
00000030: f9c7 063b ab3f 793c f828 3d3c 9540 053b
00000040: e452 093c 3449 003c 8291 e23c 6daf 373c
00000050: 232b 863a 093b 323c 2113 453b 2412 923b
00000060: 6381 d83b 6b5a bf3b 1e71 a03c b976 9c3b
00000070: 8304 423b 8200 b03c 7e71 e039 40ec 733c
00000080: 9f42 c33b 86d8 103c dc1b 3a3c 3599 d43c
00000090: 721d 5f3b b276 d63b d55d 0e3b 18b7 d23b
000000a0: d89e ab3b 6d0a ad3b ba8d 2b3c 716d 383c
000000b0: 62f6 193c abec 473c 5e93 713c 818a c83b
000000c0: 75df d63a aebd 573c ea01 7c3b a0ff 5f3b
000000d0: 9052 003c ae5a 163d 5879 113b 5310 c73b
000000e0: e37b 083c b4af 5f3c 73cf 663b ac6a ec3b
000000f0: c968 323c 6803 173c 314e 6a3b d9dd b33a

fc1.weight f4 [64, 64]
-0.029815985 0.0018065859 -0.106370255 -0.033921417 -0.032953236 -0.06614985 -0.09104712 0.12752081
0.002950547 -0.014460697 -0.12015904 -0.14940915 -0.04689074 0.0069659213 -0.048138864 0.16891994
0.003486844 0.060420327 -0.056266945 0.12462014 -0.07632547 -0.034283128 0.016363079 0.022006456
0.013614068 0.0028865824 0.08642455 -0.11622644 0.07838357 -0.17137785 0.068046644 0.035622176
-0.07662783 -0.16903913 0.06471076 -0.043427147 0.051628232 0.032594472 0.017685786 -0.046194647
0.013809584 -0.1826011 -0.06893339 0.11408711 -0.079718724 -0.123076215 0.05781915 0.17233936
0.16696264 0.13647847 0.15363419 0.16111997 0.042193204 0.025201082 -0.110463925 -0.102939904
0.042245872 0.051543806 -0.032982383 -0.029958764 -0.057458878 0.1471944 0.15480788 0.1497028
-0.009925361 0.08163047 0.009888244 0.033460233 0.076010615 -0.04802567 0.017731044 0.060603403
-0.13662757 -0.1017076 -0.16566934 -0.12654495 -0.010143361 0.023905065 -0.070423305 -0.2667312
-0.044413712 0.064833894 -0.11009715 0.054651354 0.022412047 -0.049103085 -0.13203199 -0.17248638
-0.010701768 -0.28688982 0.10482637 -0.03327777 0.033781335 0.046369225 -0.0914937 -0.00031495048
-0.008745209 0.059220925 0.03160971 0.10082074 0.021587508 -0.17721277 -0.04943258 0.09470994
-0.07073671 -0.16789903 0.1082649 -0.06689822 -0.019841162 0.02615465 -0.03607934 0.049927853
-0.06618013 -0.021433461 -0.02960543 0.11660583 0.07590923 0.07538609 -0.04652565 0.098453626
0.0068093375 0.07188437 -0.031784926 0.07812521 0.025950495 0.07229156 0.020279743 0.040194623
0.048969757 0.03377901 0.02061379 -0.017116698 -0.079714544 0.040820606 0.062428195 0.08011063
-0.07602335 -0.05040826 -0.07477009 0.11960778 0.118617356 -0.009233043 -0.0706977 -0.14051417
-0.18207513 0.05139266 -0.07808568 0.1221031 -0.1335108 -0.14063373 0.20534591 0.06468714
-0.016953673 -0.041205466 -0.027906772 -0.258609 -0.08672391 0.035113037 -0.047904126 -0.025720865
0.00594549 0.0050189677 -0.06812826 0.05255657 -0.087348424 -0.10857134 0.14147162 -0.10961677
0.11498311 0.09617387 0.062876835 -0.07595751 0.03863139 -0.13487467 0.09302292 0.00042473883
0.18118994 0.083108544 -0.21696238 -0.039443273 -0.08365992 -0.073615484 -0.078131184 -0.011752171
0.10675426 -0.058670737 0.07014598 0.00946129 -0.05123874 0.006350195 0.05514437 -0.24248369
0.020198885 -0.06956824 -0.004555578 0.14950764 -0.021297153 -0.11280291 0.08594996 0.05789871
-0.09728408 -0.009918144 -0.14886798 -0.17197713 0.03518974 0.24227107 0.17707351 0.061012976
-0.005862691 -0.1106143 0.09151294 -0.035353918 0.00500415 -0.12609318 -0.08455321 0.13135666
0.06944855 -0.05220294 -0.0018205966 -0.10788113 0.09419671 -0.05246526 -0.34774032 0.010464579
-0.1437729 0.079248965 0.06261785 -0.013393297 0.0068217367 -0.00656813 -0.117470376 -0.08102882
-0.0072509055 0.022600945 0.118051685 0.17298235 -0.1038163 0.14282228 0.011792584 0.17042682
-0.0026687197 -0.0025278367 0.03500651 0.051029053 -0.054153185 0.08181651 -0.12272107 -0.037266754
0.031960253 0.090552576 -0.029384019 -0.044483338 0.20755623 0.042711172 -0.06261463 0.015484643
00000000: a740 f4bc f7ca ec3a a6d8 d9bd 2ff1 0abd
00000010: f9f9 06bd 9379 87bd ea76 babd d194 023e
00000020: f75d 413b 8fec 6cbc f115 f6bd b6fe 18be
00000030: 8110 40bd 6242 e43b 422d 45bd 59f9 2c3e
00000040: 8983 643b 4e7b 773d 2b78 66bd d838 ff3d
00000050: 8750 9cbd 776c 0cbd dd0b 863c e246 b43c
00000060: 8a0d 5f3c d12c 3d3b 5bff b03d 2108 eebd
00000070: 9187 a03d ad7d 2fbe 0a5c 8b3d 8fe8 113d
00000080: 0def 9cbd 9818 2dbe 1387 843d aae0 31bd
00000090: 2078 533d c881 053d c8e1 903c 9936 3dbd
000000a0: 9841 623c c8fb 3abe f32c 8dbd 81a6 e93d
000000b0: 9243 a3bd 620f fcbd c6d3 6c3d bb79 303e
000000c0: 41f8 2a3e 03c1 0b3e 4852 1d3e a2fc 243e
000000d0: c8d2 2c3d 8072 ce3c e93a e2bd 28d2 d2bd
000000e0: 020a 2d3d 991f 533d 8918 07bd 156c f5bc
000000f0: 005a 6bbd 21ba 163e f585 1e3e b14b 193e
00000100: fb9d 22bc e02d a73d 4d02 223c 990d 093d
00000110: 74ab 9b3d 91b6 44bd b240 913c 463b 783d
00000120: 19e8 0bbe 134c d0bd 39a5 29be 0095 01be
00000130: 5730 26bc 8ed4 c33c 183a 90bd fe90 88be
00000140: 27eb 35bd a2c7 843d 9d7a e1bd 19da 5f3d
00000150: 7899 b73c 5120 49bd 6533 07be 45a0 30be
00000160: 7856 2fbc 39e3 92be 35af d63d 454e 08bd
00000170: 4c5e 0a3d a8ed 3d3d 0d61 bbbd f01f a5b9
00000180: 1148 0fbc a491 723d 2f79 013d 1b7b ce3d
00000190: 49d8 b03c 4477 35be d179 4abd 49f7 c13d
000001a0: 69de 90bd b9ed 2bbe fdb9 dd3d ef01 89bd
000001b0: ef89 a2bc 4742 d63c eec7 13bd 2681 4c3d
000001c0: 7389 87bd 3a95 afbc 1687 f2bc 0acf ee3d
000001d0: 4c76 9b3d 0664 9a3d ae91 3ebd 0ea2 c93d
000001e0: dd20 df3b 1d38 933d e930 02bd 1c00 a03d
000001f0: 2296 d43c 990d 943d b421 a63c 1ea3 243d
00000200: 8394 483d dc5b 0a3d 40de a83c 5138 8cbc
00000210: 6141 a3bd 8233 273d b5b4 7f3d 0b11 a43d
00000220: 21b2 9bbd e478 4ebd 1021 99bd ecf4 f43d
00000230: a8ed f23d 3046 17bc f5c9 90bd f2e2 0fbe
00000240: e771 3abe 1c81 523d 63eb 9fbd 3111 fa3d
00000250: 0eb7 08be 4a02 10be 3346 523e b17a 843d
00000260: 6ee2 8abc 10c7 28bd be9c e4bc 6668 84be
00000270: 4e9c b1bd b0d2 0f3d 1e37 44bd 90b4 d2bc
00000280: 63d2 c23b 2776 a43b d486 8bbd 8f45 573d
00000290: bbe3 b2bd a75a debd f0dd 103e c27e e0bd
000002a0: 447c eb3d cef6 c43d 92c5 803d 9c8f 9bbd
000002b0: f33b 1e3d 961c 0abe cd82 be3d 7baf de39
000002c0: db89 393e d034 aa3d 632b 5ebe 458f 21bd
000002d0: e455 abbd b7c3 96bd 3e03 a0bd 2e8c 40bc
000002e0: faa1 da3d ba50 70bd b2a8 8f3d 8703 1b3c
000002f0: b7df 51bd 4c15 d03b 10df 613d a54d 78be
00000300: 2278 a53c cb79 8ebd f546 95bb 8818 193e
00000310: 5e77 aebc 3605 e7bd 8806 b03d 3327 6d3d
00000320: e03c c7bd b67f 22bc d970 18be c61a 30be
00000330: 1e23 103d e815 783e c252 353e bee8 793d
00000340: d11b c0bb c089 e2bd 236b bb3d 45cf 10bd
00000350: daf9 a33b 921e 01be 3c2a adbd 5c82 063e
00000360: 0b3b 8e3d c0d2 55bd 16a1 eeba c8f0 dcbd
00000370: 34ea c03d d0e5 56bd 050b b2be a073 2b3c
00000380: 3439 13be 484d a23d ca3d 803d 8f6f 5bbc
00000390: e088 df3b 7839 d7bb 4f94 f0bd 70f2 a5bd
000003a0: 0199 edbb 9e25 b93c 15c5 f13d 4922 313e
000003b0: a49d d4bd 0140 123e af35 413c 5e84 2e3e
000003c0: b0e5 2ebb 10aa 25bb fc62 0f3d d703 513d
000003d0: bbcf 5dbd 6a8f a73d 2f55 fbbd 06a5 18bd
000003e0: c1e8 023d a173 b93d c1b6 f0bc 2934 36bd
000003f0: 9f89 543e e9f1 2e3d 193c 80bd 4db3 7d3c

fc1.bias f4 [64]
0.0483988 -0.12328126 0.04774734 -0.040415403 0.020048434 -0.04370833 -0.031822238 0.06630789
0.06432454 -0.090351716 -0.014863882 0.13210708 -0.03737844 0.03396192 -0.0017930033 -0.101142034
-0.16965139 -0.14580365 -0.010183835 -0.13524781 0.0665868 -0.015487769 -0.03830455 0.019645793
-0.08422273 0.020458225 0.03204898 0.0018096647 -0.14645566 -0.03969612 0.009209657 0.050859366
-0.09082736 0.0803957 -0.13850735 -0.08601855 0.11443773 0.11158071 -0.10686712 -0.15662442
0.030616475 -0.18356526 0.09461124 0.05287219 -0.09691953 0.033221904 -0.008411973 -0.13195196
0.04994712 -0.052032314 -0.11440687 0.10294113 0.057945397 0.07570972 0.05732666 0.01689664
-0.045696322 -0.03249638 -0.16399197 -0.072570026 -0.10019882 0.005012561 -0.06181036 0.033308767
00000000: d23d 463d e37a fcbd b792 433d 9f8a 25bd
00000010: 9d3c a43c 8107 33bd 0958 02bd 6ecc 873d
00000020: 96bc 833d 520a b9bd a487 73bc 1447 073e
00000030: 231a 19bd a71b 0b3d 3503 ebba 8e23 cfbd
00000040: 18b9 2dbe 8d4d 15be 1ada 26bc 677e 0abe
00000050: a95e 883d 69c0 7dbc 3be5 1cbd 37f0 a03c
00000060: f77c acbd 0298 a73c cb45 033d 4532 ed3a
00000070: 79f8 15be 6698 22bd 1ae4 163c e951 503d
00000080: b203 babd 80a6 a43d dfd4 0dbe 7e2a b0bd
00000090: 545e ea3d 6d84 e43d 26dd dabd 2762 20be
000000a0: 67cf fa3c 88f8 3bbe 8ac3 c13d 8290 583d
000000b0: bf7d c6bd b113 083d 5fd2 09bc 6a1e 07be
000000c0: 5a95 4c3d d61f 55bd 264e eabd cdd2 d23d
000000d0: 2758 6d3d b30d 9b3d 5ccf 6a3d d36a 8a3c
000000e0: 112c 3bbd ed1a 05bd 83ed 27be 989f 94bd
000000f0: 0a35 cdbd 6940 a43b dc2c 7dbd c66e 083d

bn2.weight f4 [64]
1.1871067 1.2728273 1.2223637 1.1652987 1.2747821 1.2022997 1.3255101 1.1295061
1.2397143 1.1546974 1.2196875 1.170377 1.2821684 1.2752872 1.2947829 1.3368701
1.2697691 1.4860659 1.225747 1.1262726 1.1274198 1.2254568 1.1606874 1.1078904
1.1591623 1.3870249 1.3760471 1.1709905 1.2049065 1.1527101 1.1518272 1.1613259
1.293036 1.2725303 1.1079081 1.1316991 1.3062655 1.290748 1.1798713 1.223841
1.2285113 1.0937879 1.17644 1.4560753 1.153185 1.302787 1.3417268 1.2187783
1.1468639 1.2412434 1.0747961 1.3077172 1.2633897 1.2708415 1.2775915 1.4403644
1.2589507 1.18447 1.1350803 1.2434685 1.3278586 1.2394581 1.2230304 1.2588007
00000000: 1df3 973f 01ec a23f 6a76 9c3f 8228 953f
00000010: 0f2c a33f f5e4 993f 51aa a93f a893 903f
00000020: f5ae 9e3f 20cd 933f b81e 9c3f eace 953f
00000030: 181e a43f 9c3c a33f 72bb a53f 8f1e ab3f
00000040: cb87 a23f 6837 be3f 47e5 9c3f b329 903f
00000050: 4b4f 903f c5db 9c3f 6891 943f 5acf 8d3f
00000060: 6e5f 943f 088a b13f 5022 b03f 04e3 953f
00000070: 603a 9a3f 018c 933f 136f 933f 54a6 943f
00000080: 3482 a53f 46e2 a23f efcf 8d3f 84db 903f
00000090: b533 a73f 3b37 a53f 0606 973f d2a6 9c3f
000000a0: dc3f 9d3f 3e01 8c3f 9695 963f ad60 ba3f
000000b0: 919b 933f b9c1 a63f b4bd ab3f ed00 9c3f
000000c0: 70cc 923f 10e1 9e3f eb92 893f 4763 a73f
000000d0: c1b6 a13f efaa a23f 1e88 a33f dc5d b83f
000000e0: 4c25 a13f b79c 973f 504a 913f fa29 9f3f
000000f0: 45f7 a93f 90a6 9e3f 438c 9c3f 6220 a13f

bn2.bias f4 [64]
0.0033564686 -0.003595741 -0.0031042397 -0.0028195996 0.0043370286 -0.0025815566 0.004728563 -0.0009839042
0.0036628512 -0.0027605356 0.0024876457 -0.0028318253 0.0047493684 0.0028939818 0.005044 -0.0038812968
0.0029984296 -0.0031365072 -0.0022000321 -0.0037602142 0.003093793 0.004445139 -0.0025159153 -0.0032695755
0.0018117097 -0.0032093378 0.0051248376 0.0029566183 0.0035611654 -0.0022226106 -0.003065466 -0.0030812453
-0.0014804585 0.0029302489 0.0010058815 -0.002932922 -0.0023778281 -0.0027525597 0.0020853812 -0.0029695975
0.0027627794 0.0028365585 -0.0030505434 0.0020773828 -0.0019131023 0.0029753996 0.0039111185 0.001530547
-0.0030241166 -0.0013830283 -0.0032674652 0.006417453 -0.0034594429 -0.0026215157 -0.0027643368 0.0030894359
-0.0026761354 0.0025112338 0.0017468365 0.0039834958 -0.0029121486 0.0029396995 -0.0033819366 0.003554425
00000000: 33f8 5b3b 86a6 6bbb 8070 4bbb 08c9 38bb
00000010: a21d 8e3b 552f 29bb 10f2 9a3b 59f6 80ba
00000020: 720c 703b 1aea 34bb c507 233b 2596 39bb
00000030: 97a0 9b3b f5a8 3d3b 2448 a53b 5b5d 7ebb
00000040: 4d81 443b dc8d 4dbb 6a2e 10bb ed6d 76bb
00000050: 3cc1 4a3b 87a8 913b 0ee2 24bb 6046 56bb
00000060: e476 ed3a c153 52bb 41ee a73b d3c3 413b
00000070: 7162 693b 38a9 11bb fce5 48bb b8ee 49bb
00000080: f20b c2ba 6b09 403b c8d7 833a 4436 40bb
00000090: 56d5 1bbb 4a64 34bb e4aa 083b 949d 42bb
000000a0: bf0f 353b 8ee5 393b a0eb 47bb b324 083b
000000b0: 10c1 faba ecfe 423b d728 803b a39c c83a
000000c0: 4230 46bb bb46 b5ba f822 56bb 7f49 d23b
000000d0: d2b7 62bb bccd 2bbb e029 35bb 2278 4a3b
000000e0: 1a62 2fbb 8393 243b 1bf6 e43a fc87 823b
000000f0: bfd9 3ebb f9a7 403b 7ba3 5dbb 5bf1 683b

bn2.running_mean f4 [64]
0.034959134 0.027382126 0.062126044 0.028579839 0.042261563 0.025721096 0.031130666 0.06999223
0.103976235 0.015858509 0.032879163 0.11878286 0.018593267 0.06502354 0.052195165 0.029582314
0.0003806385 0.00014357101 0.023640243 0.0050229467 0.084374085 0.028816432 0.030691406 0.06590355
0.017511658 0.12826015 0.070985705 0.04174009 0.0066577415 0.027833397 0.049408786 0.077340975
0.0022150502 0.074866906 0.0028944837 0.0163318 0.14310396 0.14794485 0.01725384 0.015387775
0.069182895 0.002124381 0.11724624 0.07626695 0.020383121 0.07819669 0.047492333 0.018097412
0.06995153 0.03820336 0.0141278505 0.0804035 0.07576157 0.11508347 0.09103188 0.054417934
0.027971584 0.012227097 0.00084954716 0.032432392 0.026382033 0.03931303 0.036519777 0.07314616
00000000: 4f31 0f3d 7b50 e03c e177 7e3d 4420 ea3c
00000010: 761a 2d3d 0cb5 d23c bd05 ff3c 1658 8f3d
00000020: 7ef1 d43d b4e9 813c 4dac 063d 6e44 f33d
00000030: e850 983c 102b 853d 99ca 553d 9c56 f23c
00000040: 6f90 c739 8d8b 1639 2fa9 c13c 8897 a43b
00000050: 52cc ac3d 7010 ec3c 8b6c fb3c 71f8 863d
00000060: 9c74 8f3c a156 033e f460 913d a8f7 2a3d
00000070: 2f29 da3b dd02 e43c de60 4a3d f264 9e3d
00000080: 602a 113b d253 993d 61b1 3d3b 44ca 853c
00000090: d889 123e db7e 173e ed57 8d3c 021d 7c3c
000000a0: c3af 8d3d 3339 0b3b cc1e f03d d931 9c3d
000000b0: 81fa a63c 9625 a03d 5287 423d 0641 943c
000000c0: bf42 8f3d 207b 1c3d 8078 673c 97aa a43d
000000d0: e228 9b3d e2b0 eb3d ec6e ba3d 57e5 5e3d
000000e0: aa24 e53c 2954 483c 25b4 5e3a d4d7 043d
000000f0: 221f d83c b306 213d c395 153d a7cd 953d

bn2.running_var f4 [64]
0.0022700366 0.00307659 0.0050338684 0.0030181233 0.0034244661 0.0018263463 0.0028536315 0.004607436
0.009868845 0.0016757079 0.0034895071 0.0074700685 0.0013648117 0.006127029 0.0046918793 0.0040033963
3.501356e-05 3.6527313e-06 0.0017752273 0.00031112024 0.0064278473 0.0028256595 0.0033825424 0.0054338216
0.0019277212 0.011525797 0.008241918 0.0025665262 0.0003598164 0.0022860856 0.0039179097 0.0077863676
0.0001756975 0.0068666 0.00021220598 0.0011388813 0.013784245 0.015834041 0.0017650989 0.0016676032
0.0056295223 0.00014832376 0.012047993 0.008329572 0.0019125589 0.009376744 0.004394563 0.0016826721
0.0065771486 0.004407715 0.0011398967 0.0055214902 0.00547753 0.008306272 0.009994711 0.009062386
0.0030912098 0.0008042805 5.8460028e-05 0.0034835208 0.0033603173 0.0040130834 0.0036755423 0.005389568
00000000: e5c4 143b 9da0 493b 26f3 a43b b5cb 453b
00000010: 026d 603b 0362 ef3a fe03 3b3b f9f9 963b
00000020: f0b0 213c 6da3 db3a 37b0 643b 7ac7 f43b
00000030: 7be3 b23a 3fc5 c83b 56be 993b ec2e 833b
00000040: 86db 1238 7221 7536 beae e83a da1d a339
00000050: b1a0 d23b b32e 393b a5ad 5d3b 330e b23b
00000060: 97ab fc3a b2d6 3c3c 1c09 073c 2a33 283b
00000070: bda5 bc39 27d2 153b cf61 803b c924 ff3b
00000080: 703b 3839 3701 e13b 9c83 5e39 8446 953a
00000090: 50d7 613c 64b6 813c e45a e73a 7a93 da3a
000000a0: db77 b83b 5b87 1b39 f264 453c c278 083c
000000b0: d4ae fa3a eaa0 193c 4400 903b 1b8d dc3a
000000c0: 1f85 d73b 986e 903b 9668 953a 9eed b43b
000000d0: da7c b33b 0817 083c dbc0 233c 677a 143c
000000e0: e595 4a3b 5ad6 523a fa32 7538 c84b 643b
000000f0: c538 5c3b 2f80 833b 5ee1 703b f99a b03b

fc2.weight f4 [1, 64]
0.224164 -0.28502893 -0.34522566 -0.23165631 0.32517946 -0.25386748 0.35480613 -0.170499
0.31214485 -0.21311063 0.31994182 -0.2840053 0.29953802 0.36136785 0.29228875 -0.34940526
0.30828512 -0.48462793 -0.34052378 -0.1447935 0.2266685 0.27428705 -0.22445878 -0.22602913
0.2586201 -0.42751768 0.39298826 0.2587936 0.19166198 -0.20152669 -0.23731203 -0.25501573
-0.3282159 0.34317207 0.1910113 -0.25573844 -0.34432158 -0.38183576 0.2498131 -0.2912708
0.35495767 0.18700255 -0.2431285 0.4640802 -0.27801764 0.39680874 0.369036 0.23964807
-0.21175471 -0.27643389 -0.1390781 0.32086828 -0.3349955 -0.3558744 -0.36827224 0.50046676
-0.30306405 0.18861128 0.17865641 0.2726355 -0.42384434 0.27469528 -0.30316052 0.33674303
00000000: 3f8b 653e 50ef 91be 6bc1 b0be 5037 6dbe
00000010: ec7d a63e ebfa 81be 26a9 b53e 4a97 2ebe
00000020: 73d1 9f3e ac39 5abe 6acf a33e 2569 91be
00000030: 0c5d 993e 3505 b93e dfa6 953e 3fe5 b2be
00000040: 8cd7 9d3e 2721 f8be 2259 aebe bf44 14be
00000050: ca1b 683e 5a6f 8c3e 86d8 65be 2e74 67be
00000060: db69 843e 99e3 dabe c235 c93e 9880 843e
00000070: 0a43 443e 035d 4ebe ed01 73be 6c91 82be
00000080: ea0b a8be 40b4 af3e 7798 433e 26f0 82be
00000090: eb4a b0be fa7f c3be 01cf 7f3e 7221 95be
000000a0: 03bd b53e 997d 3f3e adf6 78be ec9b ed3e
000000b0: 5458 8ebe 842a cb3e 49f2 bc3e 4e66 753e
000000c0: 3ad6 58be be88 8dbe 7d6a 0ebe d948 a43e
000000d0: 8884 abbe 2b35 b6be 2e8e bcbe 971e 003f
000000e0: 362b 9bbe 5123 413e b5f1 363e e196 8b3e
000000f0: 2002 d9be dca4 8c3e db37 9bbe 9569 ac3e
