result/dee_phage/800_1200/fold_1/20250501-084939/1200_0.0001_32_model.pt (torch, 31505 bytes, 13 tensors)

conv.weight f4 [64, 4, 6]
000000 0f c5 7e bd 0c 2f d1 bd 05 58 55 3c 55 35 e1 bc
       -0.06219965 -0.102140516 0.013021474 -0.027491251
000010 39 9c 18 be 48 98 5f bd 4e 39 cc bd b7 28 99 3d
       -0.14903344 -0.054588586 -0.099718675 0.07478469
000020 27 84 e9 bc aa 28 d9 be 3c 67 f6 3d aa 3e 0a 3e
       -0.028505398 -0.42413837 0.12031409 0.13500467
000030 83 f7 fb bd 33 af 2f be 98 d3 37 bd bd 11 d4 3c
       -0.123030685 -0.17156677 -0.044879526 0.025887365
000040 17 be 12 be 1c 6f 76 3c 59 d8 d5 bd 5f 5d 34 3e
       -0.14330326 0.015041139 -0.10441656 0.17613743
000050 2c 6c 9a bc 74 87 87 be fc eb 16 3e 32 7a 0b 3e
       -0.018850408 -0.2647053 0.14738458 0.13620833
000060 6b 41 8b bd de 77 19 bd 63 80 0b 3e 5f a5 a8 bd
       -0.06799587 -0.03746783 0.13623194 -0.08234667
000070 9b 9e e5 3d a8 ba 8f be 1f 43 da bc 16 3a 06 bd
       0.11211892 -0.28072095 -0.026643334 -0.03277024
000080 f0 0f 56 3e 33 50 a0 bd 37 e8 e4 bd b1 bb b8 be
       0.20904517 -0.07827797 -0.11177104 -0.36080697
000090 b5 2c 5f bb 4f 5e 2d bd f6 17 62 3d cf 52 4e 3d
       -0.0034053747 -0.042326268 0.055198632 0.05037194
0000a0 4d d4 99 be 61 a3 70 bb 73 1d 03 bf 84 c9 7a bd
       -0.30044785 -0.0036718475 -0.5121681 -0.061227337
0000b0 a2 1b 1e be e8 38 fb 3d 8d 69 4a be c5 2f 40 3e
       -0.15440229 0.122667134 -0.19766827 0.18768223
0000c0 e1 46 9f bd d1 58 99 be b8 64 8f 3e 81 66 35 bd
       -0.07777191 -0.29950574 0.2800653 -0.04428721
0000d0 25 20 1c be 19 94 e7 3d 6d 57 2a 3d 73 8b 57 bd
       -0.15246637 0.11307544 0.041587282 -0.052623224
0000e0 87 44 c2 be 16 fe 98 3e 94 02 14 3d 6a 3a 96 3c
       -0.37942907 0.29881352 0.03613527 0.0183384
0000f0 99 4a cf bd c2 a5 6e 3d cf 90 85 be 9b 27 c3 3d
       -0.1012165 0.058263548 -0.26087043 0.095290385
000100 85 10 ba 3d 1a 6f 9b bd d6 c4 e3 bd 53 77 f7 3b
       0.09085182 -0.0758955 -0.11121528 0.0075520664
000110 3e 2a bd 3a 6b 7d c7 bd 08 b9 e6 3d d8 fd c0 3b
       0.0014432145 -0.097407185 0.11265761 0.0058896355
000120 22 97 50 3c ec 0b 66 3c eb bd d4 3d 83 ef ce bd
       0.012731345 0.014040928 0.103877865 -0.10104277
000130 a0 93 68 be ad 98 b9 bd f7 23 59 3c 39 7a d2 3d
       -0.22712564 -0.09062324 0.013253204 0.10277218
000140 ff ba b7 be 24 8f 9a 3c a4 8f fe 3b 80 db b7 3c
       -0.35884854 0.018867083 0.007768588 0.022443533
000150 44 11 13 be c5 85 07 3d cb 01 45 be 1c 4b 35 be
       -0.14362055 0.033086557 -0.19238965 -0.17704433
000160 cd 74 5b 3e 3f 48 1b 3d d6 c4 d3 bd f0 22 d0 3c
       0.21431275 0.037910696 -0.10340278 0.025407284
000170 16 9f 06 be 2a bb 31 3e 53 3a 9d bd 09 8e c9 bc
       -0.13146624 0.17356554 -0.0767714 -0.02460386
000180 ce 1d 0a 3e d9 29 de be 48 5c db 3d 8f 2d 4e 3d
       0.13487932 -0.43391302 0.107109606 0.050336417
000190 c0 e0 06 bf 34 2c 4b 39 2b 5c e5 bd 07 11 07 be
       -0.5268669 0.00019376056 -0.1119922 -0.13190089
0001a0 13 d2 50 3c 19 22 1e be 4e 0e a8 3b 6e 96 01 bc
       0.012745398 -0.15442695 0.0051286584 -0.0079094
0001b0 ad f5 66 bd 71 75 20 3c 6a 20 c3 bd 19 60 60 be
       -0.05638664 0.009793625 -0.09527667 -0.21911658
0001c0 fc 3e 20 bd ad c6 d2 bb 64 8b d2 bd ad 3e a7 bc
       -0.039122567 -0.0064323754 -0.10280493 -0.020415628
0001d0 b2 0c 7b be 2b f6 fb 3d 54 b3 2c 3a e3 d4 f4 bd
       -0.24516562 0.12302812 0.0006588001 -0.119546674
0001e0 5e 2c 51 be 80 8a 1b 3e 8d 79 ee 3d 71 7a 21 bd
       -0.20427081 0.15189552 0.11644278 -0.03942341
0001f0 1e 36 6f be 52 e9 ea bc a6 81 0d 3e e4 b5 e1 bd
       -0.23360488 -0.028675709 0.13818988 -0.11021021
000200 ff a0 77 bd 74 03 6b be 77 4f cb bd 21 48 3b 3d
       -0.060456272 -0.22950536 -0.09927266 0.045723084
000210 a5 c1 f7 bc ae 24 74 bc 8c b7 91 3d 07 a3 8b be
       -0.030243704 -0.014901323 0.07115087 -0.27272817
000220 e2 85 3e be 89 de df 3d eb ac 65 be 1a 7c f7 bd
       -0.1860576 0.10931117 -0.22429244 -0.12084217
000230 d3 46 b8 3d 0e 1a 3a bd b1 16 9e 3d 41 12 62 bd
       0.08997884 -0.045435004 0.07719172 -0.05519319
000240 84 c5 66 be ab 3e 8a 3d ff c6 68 3d 43 14 25 3d
       -0.22536284 0.06750234 0.056830402 0.040302526
000250 56 54 bb be 6c f7 b6 bd 3f c9 fe bc 05 e0 2d 3e
       -0.3658778 -0.08933911 -0.031101821 0.16979988
000260 05 f6 d9 be 0f ce bc bd f5 a8 e9 3c df dd 81 3d
       -0.4257051 -0.0921899 0.028522948 0.06341147
000270 e5 ae 8d bd 70 8b 6e 3c 06 a3 66 bd 78 85 39 3e
       -0.06918124 0.014559612 -0.056307815 0.1811732
000280 ad b2 7f be c9 09 17 be a5 87 f7 3c 9a cf a3 3c
       -0.24970503 -0.14749826 0.030216048 0.019996453
000290 6c 24 84 3d 90 8b aa be 50 0e 11 3e 9b d4 ee bd
       0.064522594 -0.33309603 0.14165616 -0.11661645
0002a0 27 9c 2a 3e a7 04 0b 3e 5a 09 14 3e 1d f1 b2 bd
       0.1666113 0.13575993 0.14456692 -0.08737395
0002b0 ed 5a 62 3d 08 38 88 be 25 81 93 be 90 63 18 bd
       0.055262495 -0.26605248 -0.28809467 -0.037204325
0002c0 6d 14 b6 bd f7 25 d8 bd 73 b7 44 3e 18 b7 a7 bd
       -0.08890615 -0.10554116 0.19210605 -0.08189219
0002d0 57 f1 15 be bf 07 48 be 0e fa e4 3b bd 16 c9 3c
       -0.14642845 -0.19534205 0.0069878167 0.024546975
0002e0 df 84 ce bc 3f 7b 01 3e 0f 7f 2d 3e a7 69 2a bc
       -0.025209842 0.12644671 0.16943 -0.010401166
0002f0 f8 da 7f bb 06 d5 de bd 56 62 a1 bd d4 8d 57 be
       -0.0039040428 -0.10880475 -0.07880084 -0.21050197
000300 f4 9b b9 3d c9 e0 41 3c 9f ea 99 bd 1c 38 b6 3d
       0.09062949 0.011833378 -0.075154535 0.08897421
000310 43 c5 99 be 9b 1d 66 3e 9a 37 ee 3b 3f 60 d1 bd
       -0.3003331 0.22472231 0.007269812 -0.102234356
000320 01 b6 1e 3d 95 55 4c bd ba 1c 39 3e e5 67 82 be
       0.03874779 -0.049886305 0.18077365 -0.2546989
000330 ea 9c 96 3d 90 9f 03 3d 8f a1 48 3d 1b 43 4b 3d
       0.07354148 0.032134593 0.0489822 0.049624544
000340 e5 af 82 be ec 9b 15 bb 00 85 16 bc bb b4 1c be
       -0.25524822 -0.0022828532 -0.009186983 -0.15303318
000350 51 37 1d be 9f 13 7b be 83 94 42 3d 77 fd 13 3d
       -0.15353133 -0.24519204 0.047504913 0.036130395
000360 12 66 54 3d e5 e5 97 bd 55 68 27 3c de 88 9d be
       0.051855154 -0.07416896 0.010217746 -0.30768484
000370 57 3b 5c bd ac 96 5a be cc 07 94 3d c7 b0 df 3c
       -0.05376753 -0.2134654 0.0722805 0.027305974
000380 d8 a8 45 3e c8 1c 76 3d 33 28 4a 3e 82 ab 7c 3c
       0.1930269 0.06008604 0.19741897 0.01542175
000390 45 62 8a bd c0 cf 61 be 2d 17 12 3d cc 26 99 be
       -0.06757025 -0.22051907 0.035666633 -0.29912412
0003a0 d7 73 05 be 5f c0 cf bd 40 3c 29 3d 94 b6 0e bd
       -0.1303247 -0.10144114 0.041317225 -0.03484209
0003b0 46 a4 88 be 95 64 ef 3d 5e 05 79 be 7b fd 19 bd
       -0.2668783 0.116891064 -0.24318454 -0.037595253
0003c0 27 f4 af 3b 87 0f e9 3d 1f 55 89 be 76 c9 df 3d
       0.0053696814 0.11379915 -0.26822755 0.109270975
0003d0 dc 58 33 be 0e c2 85 bc 19 f9 a6 3c d2 27 bf bd
       -0.17514366 -0.016327884 0.02038245 -0.09333767
0003e0 00 ef bd bd a7 3b c9 be ed 5c 35 bd 42 94 69 be
       -0.09274101 -0.39303324 -0.044278074 -0.22810462
0003f0 92 23 1c 3e 07 58 14 3e bb c4 4a 3e 32 78 ca 3d
       0.15247944 0.14486705 0.19801609 0.09886207

conv.bias f4 [64]
000000 d5 cb 02 3f 01 75 ca bd d8 fb 0b be 06 49 58 be
       0.51092273 -0.09885598 -0.1367029 -0.21121606
000010 85 be 16 3e fa 75 9a be 23 e8 2e be 6e b4 4f be
       0.14721115 -0.30168134 -0.1708074 -0.20283672
000020 87 36 49 be b8 7b 49 be c6 7f 92 be bf 8c 02 3d
       -0.19649707 -0.19676101 -0.28613108 0.031872507
000030 f5 b2 77 bd db 7b 2f 3e 17 14 af 3d 19 6a b7 be
       -0.0604734 0.17137091 0.08548754 -0.35823134
000040 5b 7f 71 be 17 4c 05 bd 72 af 61 3e da 10 34 be
       -0.23583739 -0.032543268 0.22039583 -0.17584553
000050 0f c3 4b be bf a3 94 be 7e 83 91 be 1b 1f df bd
       -0.19898628 -0.29031178 -0.28420633 -0.10894605
000060 4f a7 93 be 0c 30 70 3c 90 4c c1 3d 17 30 ff 3c
       -0.28838584 0.014659893 0.09438431 0.03115086
000070 f3 5f 69 3d 43 09 1e 3e 95 cd 35 be 41 b0 a7 bd
       0.05697627 0.1543322 -0.17754205 -0.08187915
000080 3e bf 4a be 16 92 45 be 90 d8 2b be 54 3e 9b 3e
       -0.19799516 -0.19294009 -0.16781831 0.3032099
000090 54 73 e3 bd 4d a1 7b 3d 8e 40 68 be f3 f0 ae bd
       -0.111059815 0.061433125 -0.22680876 -0.08542051
0000a0 7f 5b 87 bd c3 56 4c be 66 63 d7 3d c5 ed a2 be
       -0.06609248 -0.19954972 0.105170056 -0.3182203
0000b0 70 29 a1 3d b8 4d 8e 3d cf 75 0e 3e c1 ca 9a be
       0.07869232 0.069484174 0.13912128 -0.30232814
0000c0 f5 bc 10 3d 07 14 25 3d 9a 3b 4c be 03 60 09 be
       0.035336453 0.040302303 -0.19944611 -0.13415532
0000d0 bd 18 01 be 37 c5 95 bd 35 7d 82 be 77 8e c3 be
       -0.12607093 -0.07313006 -0.2548615 -0.3819463
0000e0 72 97 99 be bb 53 4d 3e 00 11 88 be 27 65 23 be
       -0.29998356 0.20051472 -0.2657547 -0.15956555
0000f0 f8 8a 06 be d8 f2 27 be df 4e 13 be 9e f5 03 3c
       -0.1313895 -0.16401231 -0.14385556 0.008054165

bn1.weight f4 [64]
000000 1c b1 62 3f 6f c0 6d 3f ff 22 91 3f f2 79 87 3f
       0.885515 0.92871755 1.1338805 1.058409
000010 c4 66 6d 3f 62 41 5f 3f 11 81 84 3f 46 2e 86 3f
       0.9273493 0.8720914 1.0351888 1.0482872
000020 b6 fb 85 3f ff 2e 8b 3f c9 32 92 3f 43 30 80 3f
       1.0467441 1.0873717 1.1421748 1.0014728
000030 12 2e 78 3f ee 53 5a 3f d8 2c 77 3f a3 61 72 3f
       0.969453 0.85284317 0.965528 0.9468023
000040 c8 d4 6f 3f e2 fc 78 3f 21 58 70 3f 0e 68 88 3f
       0.93684053 0.9726087 0.93884474 1.0656755
000050 be a3 8b 3f b9 3a 76 3f e9 ff 71 3f ac 94 79 3f
       1.0909345 0.96183354 0.9453111 0.9749248
000060 40 5c 75 3f 5a 8d 7c 3f fd 00 63 3f ab 92 98 3f
       0.9584389 0.98653185 0.88673383 1.191976
000070 13 25 9d 3f 42 5c 80 3f d8 9e 8c 3f 04 88 73 3f
       1.2276939 1.0028155 1.0985975 0.9512942
000080 55 49 80 3f 61 49 83 3f e7 0b 77 3f c8 77 70 3f
       1.0022379 1.0256768 0.96502537 0.9393277
000090 8c f9 71 3f 0f 96 91 3f b8 32 86 3f 48 f1 6f 3f
       0.94521403 1.1373919 1.0484228 0.9372754
0000a0 de 4b 81 3f de 4f 91 3f cb fa 76 3f 84 56 68 3f
       1.0101278 1.1352499 0.9647643 0.9075701
0000b0 db a2 99 3f 86 c3 6c 3f 84 50 65 3f bd 81 83 3f
       1.2002825 0.92485845 0.8957598 1.0273968
0000c0 00 96 86 3f c4 44 78 3f fc 4c 79 3f 47 b6 7b 3f
       1.0514526 0.9697993 0.97383094 0.9832501
0000d0 a5 5d 6b 3f c1 c8 3e 3f 22 da 82 3f a2 6e 8a 3f
       0.91939765 0.74525076 1.0222819 1.0815012
0000e0 ff 90 67 3f dd d4 82 3f 48 36 68 3f 56 9e 62 3f
       0.9045562 1.0221211 0.90707827 0.8852285
0000f0 f2 66 88 3f a5 0b 85 3f f3 c3 7c 3f 8b 79 8e 3f
       1.0656416 1.0394179 0.98736495 1.1130842

bn1.bias f4 [64]
000000 5e 08 09 3c 9b af 15 bc d1 46 25 3c e3 a2 f0 3c
       0.008363811 -0.009136106 0.010087685 0.029374545
000010 f2 3d 03 3d 1e c5 18 bb f4 77 89 3c 80 ec 52 bc
       0.032041498 -0.002331085 0.01678083 -0.012873769
000020 73 22 e2 3c 11 f3 eb bc 01 c0 01 39 14 9e 8f 3c
       0.027604317 -0.028802427 0.00012373926 0.017531432
000030 08 ab 84 bb a7 f0 63 bb 0c 27 cb 3b 5f 9c d8 3c
       -0.004048709 -0.003478089 0.006199723 0.026441751
000040 32 65 72 bc ca 44 d9 3b 66 ca 70 bc 4b f3 af bb
       -0.014794635 0.0066305147 -0.014696693 -0.005369579
000050 b8 6c 1b 3d 05 4a c9 3c 1b 6b ef 3b d7 a4 23 3c
       0.03794548 0.024571428 0.007306469 0.009988031
000060 a4 ac 1c 3d ec d3 4e 3b d3 52 9c ba 54 43 f5 3c
       0.03825058 0.003155942 -0.0011926539 0.029939331
000070 e0 23 c7 3c cd e6 ee 3b 2d a6 91 3d 0f 22 27 3c
       0.024309099 0.007290697 0.07111774 0.010200991
000080 96 81 2a bc 04 91 21 3d c2 e5 87 bc 7f f8 77 3d
       -0.010406872 0.03944494 -0.01658905 0.06053972
000090 6e 04 1e 3b b8 2b be 3b 43 5d d1 3b b5 d7 a2 38
       0.0024111527 0.0058035515 0.0063892915 7.7649405e-05
0000a0 93 b7 a7 3c d7 2e 9d 3d 36 d0 b4 3c ff 63 b5 3c
       0.020473277 0.076749496 0.022071939 0.022142408
0000b0 a3 c2 c4 bb 1d 74 92 3c d5 86 e9 bc 46 45 0e 3c
       -0.006004648 0.017877633 -0.028506676 0.008683508
0000c0 6b ef 6f bc 44 59 0d 3c e5 db fe 3b df 7d cb 3b
       -0.014644484 0.00862724 0.0077776783 0.0062100734
0000d0 ed fe 26 3d 38 f0 e4 3c c9 b7 b5 3d e9 13 a1 3c
       0.04077046 0.027946576 0.08872945 0.019662814
0000e0 0c 89 d7 ba 86 b2 8e bb 7f bb ed 39 61 21 75 3c
       -0.0016444041 -0.0043547777 0.00045343858 0.014961571
0000f0 2a 15 34 bc 94 18 0a bd 7c 61 b7 3c 34 b1 a4 3c
       -0.010991374 -0.033714846 0.022385351 0.020104028

bn1.running_mean f4 [64]
000000 ca fc 0b 3f 77 43 0f 3d 6b d8 02 3e 97 88 9e 3c
       0.546826 0.03497645 0.1277787 0.01935224
000010 77 f8 ca 3d ee 58 2a 3b 4a a2 d5 3c 30 98 19 3d
       0.09910672 0.0025992948 0.026078362 0.037498653
000020 e8 00 26 3d 9b aa 6d 3c 71 50 85 3c 0d 4e 80 3d
       0.040528208 0.014506008 0.016273709 0.06264887
000030 d9 93 74 3c c4 d5 15 3e ca 97 ac 3d 9b 03 4c 3c
       0.014927828 0.14632326 0.08427389 0.0124520315
000040 85 aa 57 3d 43 47 2b 3d 26 91 36 3e d1 c3 54 3d
       0.052652854 0.041816007 0.17828807 0.051944558
000050 24 8a 15 3c b0 0b 7e 3d 23 24 af 3c a6 4e cf 3c
       0.009127174 0.062022865 0.021379536 0.025306057
000060 1e 86 1a 3d f6 95 0a 3d dd c8 05 3e d5 fc 14 3d
       0.03772556 0.03383442 0.13064905 0.036373932
000070 a4 e8 e0 3c 6b 09 42 3e 6a 89 44 3b 85 b9 a5 3d
       0.027454682 0.18948905 0.0029989132 0.08092026
000080 d9 0b 13 3d 64 ca 36 3d 5a c5 6e 3d 41 05 9a 3e
       0.03589997 0.04462661 0.058293678 0.30082133
000090 2e 50 90 3c e5 5b 66 3d d5 02 56 3c 02 e2 1d 3d
       0.017616358 0.05623998 0.013062199 0.038545616
0000a0 f0 43 18 3d dc e5 e3 3c 92 bf c5 3d bf 35 69 3d
       0.037174165 0.027819566 0.0965568 0.056936022
0000b0 db b4 85 3d cb b8 a4 3d e9 4c d1 3d 5c c7 05 3d
       0.06528636 0.08043059 0.102197476 0.032660827
0000c0 10 fd a8 3c 41 5f 85 3d 26 f2 af 3c 17 2c 92 3c
       0.020628482 0.06512309 0.02147777 0.01784329
0000d0 d6 d0 27 3d 8a 12 16 3e 0f 38 7e 3c b5 dc ec 3c
       0.040970646 0.1465551 0.015516295 0.028913835
0000e0 98 5f 23 3d 22 f2 eb 3d 7e 31 df 3c 96 16 23 3d
       0.039886087 0.115207925 0.02724528 0.03981646
0000f0 cd 8b 42 3d 9f 1a 4e 3d bb b1 c9 3c 63 05 33 3c
       0.047496606 0.050318357 0.024620881 0.010926577

bn1.running_var f4 [64]
000000 92 af cf 3c f7 98 e9 3b cc b0 e3 3c f5 02 60 3b
       0.025352273 0.0071288305 0.027794264 0.003418145
000010 6d 2f 49 3c e2 c3 b0 39 a2 63 91 3b 9b 53 fa 3b
       0.012279374 0.0003371528 0.004436926 0.007639361
000020 86 19 e7 3b bc ff 27 3b db e3 50 3b 74 e6 24 3c
       0.007052603 0.0025634607 0.0031874094 0.01006471
000030 48 c2 23 3b 8c 9a 83 3c 79 08 4b 3c fb 28 13 3b
       0.0024987627 0.016064905 0.012392157 0.0022454846
000040 35 8d 11 3c da 40 09 3c 6a 2f d3 3c 30 87 39 3c
       0.008883764 0.008377278 0.025779445 0.011323735
000050 9a 56 be 3a 6f 2a 36 3c db 42 69 3b 62 1e a1 3b
       0.0014521659 0.011118515 0.0035592827 0.004916952
000060 03 9d fe 3b 2d c4 b0 3b 5d 50 b8 3c 8b 03 c3 3b
       0.007770182 0.0053944797 0.022499258 0.00595135
000070 b8 53 2b 3b f9 f0 c6 3c 61 de cb 39 4f b5 84 3c
       0.002614243 0.024284827 0.00038884862 0.016199736
000080 22 73 d8 3b d3 a5 15 3c ac b2 32 3c c9 82 d9 3c
       0.006605522 0.009133774 0.0109068565 0.026551621
000090 96 fd 4c 3b 36 42 ec 3b ac bc 18 3b ea c1 d4 3b
       0.0031279079 0.0072100414 0.0023305817 0.006492843
0000a0 3c f2 dd 3b 6d c4 94 3b 21 ea 54 3c a5 86 41 3c
       0.0067732614 0.0045400173 0.012995274 0.011811887
0000b0 ee 0e 14 3c 59 7f 58 3c 67 16 6b 3c ba 15 d2 3b
       0.009036763 0.013213956 0.014348603 0.0064112814
0000c0 d5 cd 29 3b 7e 24 4d 3c b0 bc 92 3b 52 28 38 3b
       0.002591004 0.012520907 0.0044780597 0.0028100205
0000d0 6a d2 04 3c e5 c0 0e 3d 04 ea 2d 3b 07 1f bf 3b
       0.008106807 0.034851927 0.002653719 0.005832556
0000e0 cf 9e 0d 3c b0 31 73 3c aa 5d 8d 3b 46 11 ec 3b
       0.00864382 0.014843389 0.004314144 0.0072042076
0000f0 03 bf 22 3c 96 a0 1e 3c 54 be 86 3b 4c bf d5 3a
       0.009933236 0.009681841 0.0041120443 0.0016307621

fc1.weight f4 [64, 64]
000000 6d 88 89 bd 75 a8 95 3c 55 d3 da bd ce eb 22 bd
       -0.06715474 0.018268803 -0.1068484 -0.039775662
000010 d2 bf fc bc 96 1a b8 bd d0 5d cc bd bc fc e1 3d
       -0.030853186 -0.08989446 -0.09978831 0.110345334
000020 b8 1c 59 3a ec 4e 54 bc 82 59 0b be 09 45 1e be
       0.00082821725 -0.01295827 -0.13608363 -0.15456022
000030 96 f4 83 bd 91 72 9c 3c b9 0b 05 bd 9d bc 36 3e
       -0.064431354 0.019097598 -0.032481883 0.17845388
000040 a4 4d 0a bd 57 c9 50 3d e6 d3 7d bd e1 1c ee 3d
       -0.03376545 0.050973263 -0.06196966 0.11626602
000050 2a 5d f6 bd 4c 48 38 bc 17 12 ab 3c 13 18 13 3d
       -0.120294884 -0.011247706 0.02088265 0.03591163
000060 6f 0e aa 3c ce d7 e0 bb f0 a5 e7 3d 12 e7 ef bd
       0.020758836 -0.0068616634 0.11310947 -0.11713995
000070 68 85 9b 3d da 10 46 be eb 67 8a 3d 2c ca 87 3c
       0.075938046 -0.19342366 0.06758102 0.016575895
000080 d6 12 b8 bd 3f ba 30 be c3 9b 98 3d 43 6e 5d bd
       -0.08987968 -0.17258547 0.07451584 -0.054060232
000090 8b 89 1b 3d cb 54 4f 3d d6 b6 26 bc b1 59 67 bd
       0.037972968 0.050617974 -0.010175427 -0.05648202
0000a0 d7 31 1d 3d 2b c1 3c be 7c 31 98 bd bb 70 0d 3e
       0.03837761 -0.18433063 -0.074313134 0.13812535
0000b0 86 44 de bd 9e a7 ff bd 5e 4c 90 3d b4 5d 3a 3e
       -0.108529136 -0.12483142 0.07045816 0.18199807
0000c0 c7 84 5f 3e 2a af 01 3e 84 00 12 3e 71 55 1a 3e
       0.21827994 0.12664476 0.14258009 0.15071656
0000d0 37 0b 53 3d d3 16 e4 3c 60 4c b3 bd 0c 63 87 bd
       0.051524367 0.027842915 -0.08754802 -0.066106886
0000e0 fe 0c 8a 3d 50 8a 3f 3d 22 ed 2f bd 79 25 b6 bc
       0.06740759 0.046762764 -0.042950757 -0.022234665
0000f0 e0 16 6c bd 64 4e 1c 3e ea dd 32 3e c0 ed 12 3e
       -0.057639003 0.15264279 0.17467466 0.14348507
000100 23 bb e3 bb 10 64 a7 3d c9 51 57 ba 26 83 08 3d
       -0.0069497987 0.08173382 -0.0008213786 0.033328198
000110 ee 56 ee 3c 98 bf 9a bd 2e e5 9f bc 9b 35 16 3d
       0.029094186 -0.07556075 -0.019518461 0.036672216
000120 9d 59 12 be 0d 85 f3 bd 95 6d 1d be 29 86 f4 bd
       -0.14291997 -0.11890612 -0.15373833 -0.119396515
000130 17 e8 5c bc fe 77 49 3c 5f d3 be bd 54 0a b1 be
       -0.013483069 0.012296675 -0.093176596 -0.34578192
000140 53 ec 03 bd 08 67 98 3d 51 fc 26 be ba 04 62 3d
       -0.0322078 0.07441527 -0.16307189 0.05518029
000150 05 ca 55 bc 52 94 09 bd f7 9c 0f be ee 90 3f be
       -0.0130486535 -0.033588715 -0.14024721 -0.1870763
000160 0b 73 b6 bc fd 94 94 be 8e ed 70 3d 27 e4 d7 bc
       -0.022271654 -0.2901992 0.0588203 -0.026353909
000170 8b fd 14 3d a2 f7 17 3d 29 ab 4a bd f5 c7 c8 bc
       0.03637461 0.037101395 -0.049479637 -0.02450941
000180 09 67 e2 bc c4 f6 b7 3d d9 82 a7 3d 91 17 10 3e
       -0.027637022 0.08982614 0.08179254 0.1407149
000190 5c af 82 bb e2 15 1f be fa fb b8 bd 33 6d ad 3d
       -0.0039881896 -0.15535691 -0.09032436 0.08468094
0001a0 45 0c 8a bd 67 28 46 be 32 97 18 3e 5f d3 89 bd
       -0.067406215 -0.1935135 0.14901426 -0.06729769
0001b0 2b a4 53 bd e8 00 81 bc 5e da 21 bd 7a b5 35 3d
       -0.051670235 -0.015747502 -0.03951489 0.044362523
0001c0 86 b9 8c bd 18 d2 83 bc 03 01 1c bd bc 9f 01 3e
       -0.06871323 -0.016091391 -0.038086902 0.1265859
0001d0 fb 2c 84 3d 76 56 09 3e 4b 05 37 bd 0f bb cd 3d
       0.06453892 0.13411888 -0.044682782 0.10045444
0001e0 c0 25 b3 3b 25 f1 9a 3d fd 95 61 bc 23 5b ea 3c
       0.0054671466 0.07565526 -0.01376867 0.02860791
0001f0 8b 26 50 bc 87 c9 5f 3d a6 7b dc 3c 99 24 43 3d
       -0.012704502 0.05463555 0.026914429 0.047642324
000200 5f ea 23 3d 2c a5 63 3d 61 b8 8a 3c fa 50 9e bc
       0.040018436 0.055577442 0.016933622 -0.019325722
000210 bf 50 a9 bd 4f 92 38 3d b6 dc 61 3d b5 a1 aa 3d
       -0.08267354 0.045061406 0.055142127 0.083316244
000220 77 45 cc bd f9 8b 53 bd cd 62 bd bd df ef fd 3d
       -0.09974187 -0.05164716 -0.092473604 0.123992674
000230 2b 51 06 3e 36 83 04 bb a5 9d bc bd dc 91 0a be
       0.131169 -0.002021981 -0.09209756 -0.13532203
000240 48 1f 6a be d0 b9 62 3d 5a 89 76 bd 39 dd ff 3d
       -0.22863495 0.055352986 -0.060189582 0.12493367
000250 55 c7 e1 bd 42 b3 1e be 68 7c 60 3e 0b a8 99 3d
       -0.11024348 -0.15498069 0.21922457 0.07502755
000260 7b df ad bc 8d 61 36 bd ff 08 5e bd ab 2c 90 be
       -0.021224728 -0.044526625 -0.054207798 -0.2815908
000270 bc c5 be bd 5e 34 31 3d 54 98 61 bd 1e 1c 2d bd
       -0.093150586 0.043262832 -0.055076912 -0.042263143
000280 e7 3c 16 bb e1 7e a5 3b 89 66 8d bd e6 ca a5 3d
       -0.0022924484 0.0050505255 -0.06904323 0.080953404
000290 26 fe c3 bd d7 61 b2 bd 28 13 25 3e ac 9c b6 bd
       -0.09569959 -0.08710068 0.16120589 -0.089166015
0002a0 67 93 0a 3e c9 04 ae 3d 55 ab 95 3d 25 9e 71 bd
       0.13532792 0.084970064 0.073080696 -0.05898871
0002b0 e1 48 a0 3b 6e c5 08 be 3a 5c 93 3d b4 7c b0 bc
       0.0048915003 -0.13356563 0.07195325 -0.021543838
0002c0 9a 3b 34 3e 56 8f a6 3d 6c 38 81 be c4 97 91 bc
       0.17600861 0.08132808 -0.2523836 -0.017772563
0002d0 53 9e dd bd 44 8a 2d bd 7d 9d 96 bd a6 ef bf b6
       -0.108212136 -0.04236819 -0.07354257 -5.7201423e-06
0002e0 3b 7c cd 3d 8f 5d cc bb 8b 76 c7 3d 49 38 b3 3c
       0.10033461 -0.006236739 0.09739407 0.021877425
0002f0 68 92 36 bd cc 75 ac bb 79 83 26 3d c4 e8 7a be
       -0.044573218 -0.005263066 0.040652726 -0.24502856
000300 3d bd 0c 3d 34 b6 8b bd 96 01 13 bc 75 2a 22 3e
       0.03436016 -0.06821862 -0.008972546 0.15836509
000310 06 47 29 bd e5 3d a4 bd 2e 00 24 3d 4e 02 35 3d
       -0.0413275 -0.08019618 0.040039234 0.04419165
000320 26 75 c6 bd 54 2e 41 3c 80 4e 38 be d9 fd 34 be
       -0.09690313 0.011790831 -0.17998695 -0.1767496
000330 5b f9 1b 3c 7a 6c 87 3e 47 8a 10 3e 68 7d 76 3d
       0.0095199 0.2644995 0.14115249 0.06017819
000340 83 ea 6c 3c d6 51 04 be dd 3c ca 3d b5 f4 e0 bc
       0.014460209 -0.12921843 0.0987489 -0.027460435
000350 09 df 98 bc c1 4a ca bd bc 34 a7 bd d9 e4 19 3e
       -0.018661039 -0.098775394 -0.08164355 0.15028705
000360 e8 4c 63 3d b8 75 19 bd 5d f2 bb 3c 89 57 f5 bd
       0.055493265 -0.03746578 0.022942716 -0.11979587
000370 4d 5b d6 3d 50 83 37 bd f9 d2 c3 be 4e 6b bc 3a
       0.10466633 -0.044802964 -0.38246897 0.0014375241
000380 1b 11 06 be 66 17 df 3d f4 b7 77 3d 31 c3 9e bb
       -0.13092463 0.10893135 0.060478166 -0.004845046
000390 e5 38 b4 3b 13 e0 fc bb 1f 01 ed bd e9 14 d5 bd
       0.0054999464 -0.0077171414 -0.115724795 -0.10404379
0003a0 74 e6 18 3d 80 5a 4e bb 71 bd 18 3e 13 de 3b 3e
       0.037329152 -0.0031487048 0.14916016 0.18346433
0003b0 5c 7e e5 bd 11 b7 1a 3e 17 e9 88 3c 15 3b 1e 3e
       -0.11205742 0.15108897 0.016712708 0.15452226
0003c0 ac 07 fe bb 41 73 7c bc 47 6a 0b 3d 50 cb 98 3d
       -0.0077523794 -0.015408338 0.0340369 0.07460654
0003d0 c1 e9 ef bc 37 d1 b5 3d ae 69 fc bd 06 a5 8b bc
       -0.029286267 0.08877795 -0.12324844 -0.017046463
0003e0 7d 40 3c 3d 4e c1 0f 3e d7 e1 99 bc af 12 10 bd
       0.04595994 0.14038584 -0.018784447 -0.035174068
0003f0 af 4d 60 3e a0 9b 20 3d f8 ea 70 bd a9 b7 1d 3d
       0.21904634 0.039210916 -0.058817834 0.03850523

fc1.bias f4 [64]
000000 88 d8 28 3d 98 cf fa bd 5e 58 42 3d 0b b4 1b bd
       0.041222125 -0.122466266 0.047447555 -0.0380135
000010 d0 f5 30 3c 88 90 47 bd dc bb 00 bd a5 56 96 3d
       0.010800794 -0.04872182 -0.031429157 0.07340745
000020 cd 36 85 3d be 76 bd bd 05 0c 13 bc 67 f3 0f 3e
       0.06504593 -0.09251164 -0.008975034 0.14057694
000030 d4 94 2d bd d2 fb 18 3d 58 26 28 bc e6 3c de bd
       -0.04237826 0.03734953 -0.010263048 -0.10851459
000040 34 7f 2e be b2 f5 18 be b7 8a 67 bc 1f 19 0f be
       -0.17040712 -0.14937475 -0.014132193 -0.13974427
000050 d0 ea 9b 3d 6c 27 d5 bc 7c 08 e9 bc e3 2e e3 3c
       0.07613146 -0.026019774 -0.028446428 0.027732318
000060 02 9c 9f bd ec 85 d8 3c db a0 18 3d 96 90 cd 3b
       -0.07793428 0.026431046 0.03726278 0.0062733395
000070 fa 43 23 be 29 03 35 bd a9 1e 79 3c 23 0d 63 3d
       -0.159439 -0.044192467 0.015205064 0.05543245
000080 94 5c b5 bd 1c fe b5 3d d1 e3 15 be bf 9a bc bd
       -0.088555485 0.08886358 -0.14637686 -0.09209203
000090 78 80 04 3e 60 e5 fa 3d 11 1d f4 bd 5c 08 28 be
       0.12939632 0.12250781 -0.119196065 -0.16409439
0000a0 d6 b1 c1 3c 4e d2 3e be 80 c7 dd 3d ff 4b 40 3d
       0.02364437 -0.18634912 0.10829067 0.046947476
0000b0 98 1a c4 bd 4f 55 e5 3c d0 d7 a0 bb 2f e8 0f be
       -0.09575385 0.02799478 -0.0049085394 -0.14053415
0000c0 f5 bb 3b 3d 7e 91 42 bd 54 73 00 be da 10 c6 3d
       0.045833547 -0.047502033 -0.12543994 0.09671183
0000d0 a2 f3 77 3d 7c 55 c4 3d 61 a9 73 3d 86 5b 47 3c
       0.06053508 0.09586617 0.059487704 0.012167817
0000e0 3f 36 1e bd 00 c6 1c bd 29 9d 2f be 50 75 bc bd
       -0.03862595 -0.038274765 -0.17149796 -0.09202063
0000f0 71 02 e3 bd a4 d1 a2 3b 3d 03 7e bd c1 dd 16 3d
       -0.1108445 0.0049688388 -0.062014807 0.036832575

bn2.weight f4 [64]
000000 db 8b 9a 3f ff 0e a8 3f ce 59 9f 3f c2 f3 94 3f
       1.207393 1.3129576 1.2449281 1.1636889
000010 63 d2 a4 3f 09 d7 9a 3f 06 cb ab 3f a9 d0 94 3f
       1.2876705 1.2096874 1.3421333 1.1626178
000020 5c 9e a5 3f fa 99 96 3f 22 fe 9e 3f 45 14 9a 3f
       1.2938952 1.176574 1.2421305 1.2037436
000030 ba 08 a2 3f da de a6 3f 0e a5 a5 3f 2c 5c ae 3f
       1.2658913 1.3036759 1.2940996 1.3621879
000040 db 45 a7 3f b6 a5 bf 3f 2d fb 9d 3f 20 ef 90 3f
       1.3068193 1.4972446 1.2342278 1.1322975
000050 9e 93 92 3f 83 b0 9e 3f 57 63 96 3f ed 48 8e 3f
       1.1451299 1.2397617 1.1749066 1.1116005
000060 38 1c 96 3f 6d 55 b7 3f 7a 93 b6 3f 57 37 97 3f
       1.1727362 1.4322945 1.4263756 1.1813763
000070 95 81 9a 3f f8 2f 94 3f 82 d1 94 3f 64 88 96 3f
       1.2070795 1.1577139 1.1626437 1.1760373
000080 e9 8d a1 3f af f2 a5 3f cf 18 8d 3f 46 87 91 3f
       1.2621433 1.2964686 1.1023196 1.1369407
000090 d6 de a9 3f f8 48 ab 3f 93 2e 98 3f 07 87 9e 3f
       1.3271129 1.3381643 1.1889213 1.2384957
0000a0 56 9e a0 3f 12 e3 8d 3f da 1f 9a 3f 68 f4 bd 3f
       1.254832 1.1084921 1.204097 1.4840212
0000b0 d8 a9 93 3f 92 a8 aa 3f 22 7e ac 3f 81 c6 9e 3f
       1.1536207 1.3332694 1.3475993 1.2404329
0000c0 75 e0 94 3f 57 fc a1 3f a8 d1 8a 3f 55 c8 ab 3f
       1.1630999 1.2655133 1.0845232 1.3420511
0000d0 03 5d a4 3f 08 25 a8 3f 4d 2e a4 3f 7c 14 be 3f
       1.2840885 1.3136301 1.282663 1.4850001
0000e0 e8 42 a0 3f b4 12 97 3f 5a da 92 3f 82 65 a1 3f
       1.2520418 1.1802583 1.1472886 1.2609103
0000f0 ef 8c ad 3f d6 1c a0 3f a0 1e 9e 3f 24 b5 a0 3f
       1.3558635 1.25088 1.2353096 1.255528

bn2.bias f4 [64]
000000 87 60 bf 3b 51 65 cd bb b8 b0 b8 bb 16 50 af bb
       0.0058403644 -0.0062681814 -0.005636301 -0.005350123
000010 07 cb e8 3b 78 e5 a6 bb 53 36 f3 3b 0b 8e 70 bb
       0.007104281 -0.005093273 0.0074222474 -0.0036705758
000020 c6 89 d0 3b ae bb b2 bb 12 6a a9 3b 1f 1b af bb
       0.00636408 -0.005454502 0.0051701153 -0.0053438093
000030 e7 6d f1 3b 7b 48 b6 3b 4f e3 fb 3b de 23 d4 bb
       0.0073678377 0.0055628396 0.0076870094 -0.0064740023
000040 54 02 b5 3b 3a b4 bf bb ff 1c 9b bb ce 70 d9 bb
       0.005523959 -0.005850342 -0.004733681 -0.006635762
000050 8a 89 b8 3b d9 88 ea 3b 1d d4 a2 bb 94 52 c5 bb
       0.0056316303 0.007157427 -0.0049691335 -0.006021807
000060 c7 4d 8c 3b 95 fb bd bb 9c a7 fb 3b 2c 47 b6 3b
       0.0042817327 -0.005797813 0.0076798927 0.0055626836
000070 d1 01 c9 3b cd 59 97 bb ad cd bd bb 0f 1c b9 bb
       0.0061342497 -0.0046188594 -0.0057923407 -0.005649097
000080 bd 4b 74 bb c5 e6 b3 3b ac bb 71 3b c2 a2 b4 bb
       -0.003727659 0.0054901564 0.0036885543 -0.0055125663
000090 86 b9 a2 bb 58 11 b0 bb 93 ab 96 3b d9 69 b3 bb
       -0.004965964 -0.0053731613 0.00459809 -0.0054752645
0000a0 e0 88 af 3b 29 c9 b2 3b 23 6a bb bb c2 4a 99 3b
       0.005356893 0.005456109 -0.0057194396 0.0046781013
0000b0 6d a5 8d bb 5e 51 b6 3b 6b db d9 3b ca 18 80 3b
       -0.004322699 0.005563899 0.006648471 0.003909205
0000c0 67 33 bb bb ec b1 7c bb b6 97 c0 bb 62 20 14 3c
       -0.0057129147 -0.0038558198 -0.0058774604 0.009040924
0000d0 61 07 c5 bb 5e 0f ab bb 53 bc af bb b8 1e ba 3b
       -0.0060128425 -0.005220338 -0.005363026 0.0056799315
0000e0 06 25 a4 bb d9 03 9c 3b 38 0e 87 3b a6 3e d4 3b
       -0.0050092964 0.004761201 0.004121568 0.006477195
0000f0 33 02 b5 bb 9b 0b b9 3b cc 75 c2 bb e0 7f ce 3b
       -0.005523944 0.0056471354 -0.0059344526 0.006301865

bn2.running_mean f4 [64]
000000 57 34 28 3d 63 15 3b 3d 0b d8 94 3d a5 fc 00 3d
       0.04106554 0.045674693 0.072677694 0.03149094
000010 55 89 3e 3d 1f 4e df 3c 02 9e 13 3d 51 9c 9e 3d
       0.04651769 0.02725893 0.03603936 0.07744659
000020 92 af e8 3d a5 8a f2 3c c5 ac 1a 3d 1c 52 08 3e
       0.113616124 0.029607126 0.037762422 0.13312572
000030 e1 20 b0 3c de b6 a3 3d f7 6a 2d 3d 74 ba ec 3c
       0.021500053 0.079938635 0.042338338 0.028897502
000040 8b 1e f2 39 fb 8a 61 39 50 d2 dc 3c cf c8 5a 3b
       0.00046180593 0.00021509446 0.026955754 0.0033383851
000050 d2 1c cb 3d 04 45 d3 3c 3e 29 0c 3d 09 59 8c 3d
       0.099176064 0.025789745 0.03421902 0.068529196
000060 55 08 dc 3c 31 d6 0d 3e 6d 1c b0 3d f7 85 63 3d
       0.026859442 0.13851239 0.08599172 0.05554768
000070 3b 9c 15 3c f8 00 fc 3c 10 b4 58 3d 7e ff 9f 3d
       0.0091314865 0.03076218 0.052906096 0.07812403
000080 19 62 07 3b 3f d8 c4 3d 64 ca 88 3b 90 e8 9b 3c
       0.0020657836 0.09611558 0.0041745175 0.019031793
000090 77 39 25 3e c5 87 2f 3e 8a 75 78 3c 17 64 6e 3c
       0.16135202 0.17141636 0.015164742 0.0145502305
0000a0 3e 71 94 3d a3 9e 68 3b 62 4e f3 3d a5 af a1 3d
       0.07248162 0.0035494945 0.11880185 0.0789483
0000b0 24 f6 da 3c fa ea 96 3d e6 29 58 3d a9 c2 bd 3c
       0.026728697 0.07369037 0.052774332 0.02316411
0000c0 d1 0c 8f 3d 89 f2 2a 3d 54 e3 91 3c a2 5b 9a 3d
       0.069848664 0.041735206 0.017808594 0.07537009
0000d0 17 87 a9 3d a5 e5 0c 3e 88 76 bf 3d 45 d0 7f 3d
       0.082777195 0.13759477 0.0934878 0.06245448
0000e0 a8 25 17 3d 42 2f 49 3c 2d 58 3c 3a b5 85 dd 3c
       0.036901146 0.012279334 0.000718477 0.027041296
0000f0 9e f7 f7 3c bf d3 45 3d c6 cd 00 3d bb 82 a5 3d
       0.03026944 0.04829764 0.03144624 0.080815755

bn2.running_var f4 [64]
000000 4b b6 57 3b d6 fb cb 3b 0e 33 e0 3b bb 03 43 3b
       0.0032915052 0.0062250895 0.0068420237 0.0029756862
000010 9a 7d 86 3b ce 0e 24 3b 41 58 69 3b 85 95 a7 3b
       0.0041043283 0.0025033238 0.0035605582 0.0051142597
000020 d4 06 2d 3c 7e 04 7e 3b db 7c 89 3b f7 c1 1e 3c
       0.01056071 0.0038760002 0.004195792 0.0096897995
000030 8d e8 db 3a 13 a8 06 3c 38 79 70 3b 9b 2e 7a 3b
       0.001677768 0.008218783 0.0036693346 0.0038174752
000040 1b 0a 48 38 88 d2 0d 37 08 dd 17 3b 3e 29 71 39
       4.7693127e-05 8.453273e-06 0.0023172516 0.00022998915
000050 d2 71 f5 3b 3f 7f 1e 3b 21 92 78 3b 08 71 b6 3b
       0.007490375 0.0024184731 0.0037928896 0.0055676736
000060 7b bf 5c 3b a6 7a 72 3c 67 84 3d 3c 32 5c 78 3b
       0.0033683467 0.0147997495 0.011567212 0.003789675
000070 1a a6 1c 3a 5b 09 44 3b 8b 82 96 3b 37 5e 0e 3c
       0.0005975679 0.0029912803 0.0045931987 0.008689455
000080 e2 df 2b 39 ff 6c 29 3c 99 71 98 39 f8 31 bd 3a
       0.00016391234 0.010340928 0.00029076336 0.0014434448
000090 88 f5 8e 3c 58 87 aa 3c 5e 5e f6 3a 81 26 d0 3a
       0.017451063 0.02081649 0.0018796434 0.0015880616
0000a0 60 c1 d4 3b 1b b0 64 39 87 81 58 3c 10 96 16 3c
       0.0064927787 0.00021809379 0.0132144755 0.009191051
0000b0 18 39 24 3b 8a 92 05 3c a7 d8 9f 3b a2 4f 10 3b
       0.0025058445 0.008152613 0.004878122 0.002202012
0000c0 53 44 e8 3b 44 81 90 3b c7 a5 d1 3a ce bc b8 3b
       0.007088223 0.004409941 0.001599484 0.0056377416
0000d0 6f 25 de 3b f0 bc 29 3c bc 9d 39 3c bf 22 39 3c
       0.006779365 0.010359988 0.011329111 0.011299788
0000e0 99 15 8d 3b ba 77 53 3a 2e 8a 13 38 a1 3e 55 3b
       0.004305553 0.0008066852 3.517622e-05 0.003253855
0000f0 72 ac 74 3b ba 67 b7 3b 96 24 39 3b 33 7c c6 3b
       0.003733423 0.005597082 0.0028250567 0.006057286

fc2.weight f4 [1, 64]
000000 b5 1f 7b 3e e7 bf a6 be de 74 bc be 0a 54 6c be
       0.24523814 -0.32568285 -0.36807913 -0.23078933
000010 3b 33 ad 3e a3 14 86 be 56 4b be 3e 97 9d 51 be
       0.33828148 -0.2618762 0.37166852 -0.20470272
000020 1b bf bb 3e a7 83 71 be 30 76 af 3e 28 bd a2 be
       0.3666924 -0.23585378 0.34269857 -0.3178494
000030 43 21 91 3e 85 b2 c7 3e b5 7c 95 3e 1c 12 c0 be
       0.2834569 0.39003387 0.29196706 -0.37513816
000040 41 f8 af 3e 01 1b fd be 41 c7 b2 be 50 39 1b be
       0.3436909 -0.49434665 -0.34917644 -0.15158582
000050 63 06 7b 3e 09 fb 93 3e a2 40 75 be c0 14 6c be
       0.24514155 0.28902462 -0.23950437 -0.2305479
000060 ad b1 8b 3e ab 24 f2 be 37 1a e3 3e c1 fc 89 3e
       0.27283993 -0.472936 0.44355938 0.26950648
000070 16 e5 46 3e ee 74 54 be 72 c8 7e be 75 6a 8a be
       0.19423327 -0.2074773 -0.24881151 -0.27034345
000080 d4 d6 97 be 55 22 bc 3e bc 9b 3e 3e 7e dd 85 be
       -0.29656088 0.36744943 0.18614095 -0.26145548
000090 8a 34 bb be dd e5 db be 77 db 84 3e f7 d9 9c be
       -0.36563522 -0.4294881 0.25948688 -0.30635044
0000a0 fa 54 c3 3e f5 e8 4e 3e ed 0f 8b be f6 f9 fb 3e
       0.3815077 0.20206054 -0.27160588 0.49214143
0000b0 f7 bd 8e be 47 e0 da 3e 0b 14 c0 3e 55 28 86 3e
       -0.27879307 0.42749235 0.37515292 0.26202646
0000c0 24 6d 6a be e4 2c 9a be 61 8e 19 be 34 0e b6 3e
       -0.22893196 -0.30112374 -0.1499572 0.3555771
0000d0 6d 52 b6 be 5c 35 cc be 85 5a bf be d3 92 0b 3f
       -0.3560976 -0.3988446 -0.37373748 0.5452091
0000e0 49 cf 97 be ca 0b 3d 3e 55 b7 42 3e 3c cf 94 3e
       -0.29650334 0.18461528 0.19015248 0.29064357
0000f0 88 70 e7 be 8d c0 92 3e db b5 a1 be 8b e3 aa 3e
       -0.45203042 0.2866253 -0.31584057 0.33376727
