result/dee_phage/100_400/fold_1/20250430-231038/400_0.0001_32_model_best.pt (torch, 31657 bytes, 13 tensors)

conv.weight f4 [64, 4, 6]
00000000: 6ad5 883e 0935 9dbd 71c7 46bc c84b 16bd
00000010: 0b41 8b3d f092 c0bc 18bc debe c2e1 19bf
00000020: e496 313e fb07 02be d0f7 1cbe 7ced b0bd
00000030: 13a0 4fbd 7cba 45be c533 47be 8def 2a3e
00000040: 21f7 1ebf f768 03bf 48e8 813d dd6f 9b3d
00000050: 08da b6bd 1b1c d13c f250 88bd 9663 3a3e
00000060: 727e a9be 5c93 4abd 9f37 123c 52cf 603b
00000070: 74c9 373d 55d2 80bd 3f7c a23c 1687 773c
00000080: 7206 403e e249 5a3c 2e2c d6be 6be9 4ebe
00000090: 763b c6be 895a bebe 54de 0abe ccc0 f1be
000000a0: 62ba 60bd 991f 053e 5600 153e c40d ce3d
000000b0: 28a9 b7be fcc0 813d 7a40 41be 2fe0 413e
000000c0: 3c86 073d c881 873c 691b f03b 1e7d 373e
000000d0: 044c 043e ce8d 223e d883 8cbe 40c5 83be
000000e0: 80ab 2dbe d053 08be ab97 13bf 2a38 99be
000000f0: 7d3e d13d 9a7b d9bd ce8c 63bd 5b29 633e
00000100: e3ac 833d 455a 4abd 51ed fdbd 1037 2fbf
00000110: 9a6b 42be abc4 41be 9647 20be f7ff 99be
00000120: 4cb4 a3be 8e6a ca3d 154e 533e 56cd ebbe
00000130: daf1 453e 262e 5d3d 9664 9f3c 991c 1abe
00000140: 901b 92be e4ca 07be 6c7a 0ebe fb86 0e3e
00000150: a454 94bc e5c4 95bd c828 8cbd a491 8a3e
00000160: 0dfc dbbd eef9 a1bd 4f1c 633d a3f1 42bc
00000170: 1935 25ba 7d88 cd3d 013b b6be dfc8 78bc
00000180: a68b 0e3e 7b31 02bf 2bbc 1dbf ddb8 20be
00000190: cfd0 383d 8572 04be 0b30 51be cc15 f9be
000001a0: 0968 5f3e fcf7 0f3b 0312 033d 6114 bebd
000001b0: ea26 b4bd 5092 c7be af08 07bd 6041 953b
000001c0: 6ae9 923d ac6e dabd ab7b 30bf e571 a83e
000001d0: 302c 1bbe d885 73be 72c4 fa3c 8bc7 6fbd
000001e0: e17b ab3d 1ecc 35bc dd81 95bf b42b 2d3e
000001f0: 3a37 303d 2c17 363c fb76 20be c6fe 10be
00000200: b18d d93d e0ba b7bd 7e91 d5bd 22fd 9cbd
00000210: d4a5 2fbe 5b2b 24be a9b6 133e 935c 3abd
00000220: 4b81 a5bd 38fe e1bd 2ea7 f4bd 097c bb3d
00000230: 21f1 f0bd 47fa 00bc 3eb3 8fbc 6d8d ea3b
00000240: f06f 303e 56a7 84be aef6 d0ba 3bf9 d8bd
00000250: 7e2c 02be 1123 803e 4752 44be 8e47 3cbe
00000260: 2c78 0abe 373a 98bd 3ffb 94bd 297a 39be
00000270: abe5 f3bd 220d a5be 867f 6fbd caf2 aebd
00000280: 3cff 383d 28aa 33be e78f 2ebe b3bf d03d
00000290: 68c4 b0bd a73a d1bb 8335 e43d f277 c8be
000002a0: a9a3 253e cbf5 bebd 2d78 8f3d cb91 9bbe
000002b0: b55a a0bc 4122 8cbb cff6 43bd b364 8bbe
000002c0: f401 8cbe 5e51 a63c 368e 42be 563f 033e
000002d0: 7673 323d 33ca 413d ed85 1c3e 67b1 823d
000002e0: cb25 af3d 1f9b 5e3d 3a55 d4bd a959 71be
000002f0: 202d 82bd 7960 60be 1bd8 a0be 4d33 97be
00000300: d427 393d 3d45 07be 2be7 eb3d c295 a7be
00000310: 8e62 a9bd 5c90 143e 4a83 0b3e 25f0 4abd
00000320: 1e43 22bf 6479 dc3c 8dc7 71be bc99 a3be
00000330: fa38 21be 7e86 32bf 650b 9c3d 73d0 063e
00000340: 18b4 a7bd e651 2cbe bce1 6cbe 1289 0f3e
00000350: ef98 8a3d 63c4 abbe 8723 d03c 487f a3bc
00000360: b561 fdbd 7376 053e 2554 81be e506 ef3a
00000370: f744 ccbe 4c21 d13c 5afe 53bd 0e73 16be
00000380: d85c 133e 8562 27be f0c2 d93d 78e5 5fbe
00000390: e570 c9bc 7778 eebd 4fe0 023e 0a5b 2fbe
000003a0: 04bf ce3d 32d0 87be 06ce eebd 3062 0d3e
000003b0: cd72 84be 3425 2d3d cabe dbbe 6369 b439
000003c0: 3768 b0bd 7098 613d 4b83 8c3b 103b 603e
000003d0: 4029 23be 77ec a3bd c63a b5bd 8c2f aebc
000003e0: 6ad4 54be b887 c4be 62e1 febe 15ab 623e
000003f0: 0dd9 8fbd 01cd 2f3e 8da9 5a3e ec66 98be
0.26725322 -0.07676131 -0.0121325115 -0.036693364 0.06799515 -0.023507565 -0.4350288 -0.60110104
0.17342716 -0.12698357 -0.15328908 -0.086390465 -0.050689768 -0.1930942 -0.19453342 0.16692944
-0.6209584 -0.5133204 0.06343132 0.075896956 -0.08928305 0.025526097 -0.06656064 0.18202052
-0.33104283 -0.04945694 0.008924394 0.003430326 0.044869855 -0.06290118 0.019834636 0.015107891
0.18752459 0.013323279 -0.4183058 -0.2020623 -0.3871724 -0.37178448 -0.13561374 -0.47217405
-0.05486525 0.13000335 0.1455091 0.10061219 -0.35871243 0.06335637 -0.18872252 0.18933176
0.033087 0.016541377 0.0073274863 0.17918822 0.12919623 0.15874407 -0.2744434 -0.25736427
-0.16959953 -0.13313222 -0.576533 -0.29925662 0.10216997 -0.10619278 -0.055554204 0.22183745
0.0642946 -0.049402494 -0.1239878 -0.68443394 -0.18986359 -0.18922679 -0.15652308 -0.30078098
-0.31973493 0.09883605 0.20635255 -0.46055096 0.1933054 0.05399909 0.019457143 -0.15049972
-0.28536654 -0.1326099 -0.13913888 0.13918678 -0.018106766 -0.07312945 -0.06843716 0.2706424
-0.10741434 -0.079089984 0.05544692 -0.011898431 -0.00063021627 0.10035799 -0.3559189 -0.01518461
0.13920459 -0.5085675 -0.61615247 -0.1569552 0.04512101 -0.1293431 -0.20428483 -0.48649442
0.2181703 0.0021967879 0.0319996 -0.09281231 -0.08796485 -0.38978815 -0.032967266 0.0045549124
0.071734264 -0.1066564 -0.689387 0.32899395 -0.15153575 -0.23781526 0.03061125 -0.05853991
0.083732374 -0.011096029 -1.1680256 0.16911203 0.04302142 0.011113923 -0.15670387 -0.14159688
0.106227286 -0.089711905 -0.10428141 -0.07665469 -0.17153102 -0.16032164 0.14425148 -0.045498442
-0.08081301 -0.110348165 -0.119459495 0.09154517 -0.11764742 -0.007872171 -0.017541524 0.0071579725
0.17230201 -0.25908917 -0.0015942657 -0.10594412 -0.12712285 0.25026754 -0.19172011 -0.18386671
-0.13522404 -0.074329786 -0.07274484 -0.18113007 -0.1190904 -0.32236582 -0.058471225 -0.08542402
0.045165285 -0.17545378 -0.17047082 0.10192814 -0.086312115 -0.0063851657 0.11143019 -0.3915401
0.16175713 -0.09324225 0.070053436 -0.3038467 -0.019574502 -0.0042765443 -0.047842797 -0.27225265
-0.2734524 0.02030247 -0.18999562 0.1281713 0.043567143 0.047311973 0.15285464 0.06381493
0.0855213 0.054347154 -0.10367818 -0.23569359 -0.06356263 -0.21911801 -0.31414875 -0.29531327
0.045204 -0.13210006 0.11518701 -0.32731444 -0.08270751 0.14508194 0.13624302 -0.049545426
-0.6338366 0.026913352 -0.23611279 -0.31953228 -0.15744391 -0.6973647 0.07619361 0.13165455
-0.08188647 -0.16828117 -0.23132986 0.14017132 0.06767451 -0.3354827 0.025407566 -0.019958153
-0.12372152 0.13033466 -0.2525951 0.0018236308 -0.39896366 0.025528572 -0.05175624 -0.14692327
0.14390886 -0.16346176 0.106328845 -0.21864879 -0.024589965 -0.116440706 0.1278088 -0.17124572
0.10095027 -0.26526028 -0.116603896 0.13806987 -0.25868836 0.042271808 -0.42918998 0.00034410795
-0.086136274 0.055077016 0.0042881123 0.2189753 -0.15933704 -0.080040865 -0.08849101 -0.021262906
-0.20784155 -0.38384795 -0.49781328 0.22135575 -0.07023821 0.17168047 0.21353741 -0.29766023

conv.bias f4 [64]
00000000: e295 86be b7f5 6fbe f0ab 6d3d cd0e 98be
00000010: 518a 4f3d 0596 3e3f 1e6a 6cbe 2fcb 7fbe
00000020: 76eb 093e eefc 813d 4df7 5abe f32f 94be
00000030: a6c6 a0be b43b 54be a276 69be eea7 8f3d
00000040: d298 c4be d0bb 543d 05cc 9abe f1b9 d1bd
00000050: 187c fb3d bc4c d93e e9b2 60be 297e 89be
00000060: c858 a03d 7480 983d 1404 adbe 56e0 dabe
00000070: c00e 8bbe cfed 34be c92f 72be e04a 7dbe
00000080: 3272 84be e046 74bd a20e afbe 8102 8ebe
00000090: 2a92 b93d b53e adbe af46 0a3d 6df3 0fbe
000000a0: 9681 afbe 493f 35be be8b 7abe ef2a 823e
000000b0: e8a1 88be 127a 803d c76f 9cbe bd1b 2d3e
000000c0: 86ad 7bbe df41 693e f0fb af3d e214 94be
000000d0: 5b05 45be f126 81be da0f 893e 60e9 7dbe
000000e0: 9f44 55be 793c 7b3d 6346 4dbe ad81 dfbd
000000f0: df4e a43d 2d04 b33c 6ece e43d 3fbb 7fbe
-0.26286227 -0.23433577 0.0580253 -0.29698792 0.05066902 0.7444766 -0.23087355 -0.24979852
0.13468727 0.06347071 -0.213834 -0.28942832 -0.31401557 -0.207259 -0.22799161 0.07014452
-0.38397843 0.051936924 -0.3023378 -0.10240544 0.122795284 0.42441356 -0.21943249 -0.26854065
0.07829434 0.074463755 -0.33792174 -0.4274928 -0.2715969 -0.17668842 -0.23651041 -0.24735594
-0.25868374 -0.059637904 -0.3419085 -0.27736285 0.09061082 -0.33836904 0.033758815 -0.14057703
-0.34278554 -0.17699923 -0.2446737 0.2542338 -0.26686025 0.06273283 -0.3055403 0.16905113
-0.24577913 0.22779034 0.08592975 -0.28922182 -0.19240324 -0.25225022 0.26769906 -0.24796057
-0.20826958 0.061336968 -0.20046382 -0.109134056 0.08022856 0.021852577 0.11172186 -0.24973772

bn1.weight f4 [64]
00000000: f6a5 843f 5b9c 453f 6f23 833f c7d0 4d3f
00000010: b53f 9d3f 9fca 7c3f 4b5c 8f3f a923 483f
00000020: 4df2 673f afff 883f 71c1 9b3f b562 693f
00000030: cb19 803f 62d2 6f3f 0f70 5c3f 7159 603f
00000040: a4c8 9b3f db3b 843f 29a6 7d3f 0b33 6e3f
00000050: b07e 893f ab9e 7b3f 3839 653f e200 843f
00000060: 485d 823f d60d 8f3f 9c0a 803f 8e5c 8c3f
00000070: 5941 8f3f 9eaf 573f 4667 873f fdea 923f
00000080: cb8f 893f a354 5f3f 7de5 853f 3f81 843f
00000090: 86f1 aa3f 3f3b 563f 16df 8e3f f2cc 863f
000000a0: 73e9 703f 4768 883f 0a77 8a3f 74ce 7d3f
000000b0: 0234 973f 1dd4 813f 406b 863f c4bc 913f
000000c0: 6778 823f b2ed 6f3f 66c1 743f d2f9 813f
000000d0: d1eb 6e3f f897 8d3f ee4f 6e3f 5b46 883f
000000e0: 0331 523f dd44 823f 70b6 913f 8100 923f
000000f0: fbe5 823f 0da2 7c3f 1019 623f f647 943f
1.0363147 0.77191705 1.0245188 0.80396694 1.2285067 0.98746675 1.120004 0.78179413
0.90604097 1.0703028 1.2168409 0.9116624 1.0007871 0.93680394 0.8610849 0.87636477
1.2170606 1.0330766 0.99081665 0.93046635 1.0741787 0.98288983 0.89540434 1.031277
1.0184717 1.1176097 1.0003238 1.0965745 1.1191818 0.84252346 1.0578392 1.1477963
1.0747007 0.8723852 1.0460659 1.0351943 1.3354957 0.8368415 1.116183 1.0531294
0.94106215 1.0656823 1.0817578 0.9914315 1.1812747 1.0142857 1.050148 1.1385732
1.0192994 0.9372207 0.956076 1.0154364 0.9332858 1.1062002 0.93090713 1.0646471
0.82106036 1.0177265 1.13838 1.1406404 1.0226434 0.9868477 0.8831949 1.1584461

bn1.bias f4 [64]
00000000: 4a04 953d 0469 a03c d0b5 b1bb 9516 fb3b
00000010: 9e8b 8a3d 7923 213d b1d6 cc3d 5b22 90bc
00000020: 9781 323c 8f34 20bd db7d fb3d 1868 133d
00000030: 7755 5d3d bfbf b93d 7483 8e3a a482 353d
00000040: f0bc a33c e6b6 d03c 6b2e d23d d135 693d
00000050: 660f 9d3c 91ac 69bd 96df 0a3d 522f d43d
00000060: 5c9b debb 3d53 413d 26b7 d83b d1b6 b53d
00000070: e026 6d3d 23cf 8e3c f67e a43c 0676 47bd
00000080: a871 113d fb84 643d da14 e53c 47df ad3c
00000090: 8b65 283c d468 85bb 0748 673d ff40 c9bb
000000a0: 8b0a 813d 5a3a 713d aa1a c53b ec4b 1a3d
000000b0: 9a0b 683d 5548 9bbb 0f7f ae3d 84fb 54bd
000000c0: ddca 6f3d bb24 dabb e9bb 043d 0926 e13d
000000d0: d176 783c 8d2b b43d a0ab ce3c 18ea 133e
000000e0: f488 ac3c 61a1 333a 198c 8b3d d665 053e
000000f0: a466 bcba 9c9d ee3c 7ffb 1d3c d524 5c3d
0.07276209 0.019581325 -0.005423285 0.007662604 0.06764911 0.03934047 0.10001887 -0.017594507
0.010895154 -0.039112624 0.122798644 0.035987943 0.054036584 0.09069776 0.0010872916 0.04431404
0.019987553 0.025477838 0.1026276 0.05693609 0.019172382 -0.057049338 0.033904634 0.10360588
-0.0067934226 0.047198523 0.00661363 0.0887276 0.057898402 0.017432755 0.020080071 -0.04869654
0.03550878 0.055790883 0.027964044 0.021224631 0.010278116 -0.0040713344 0.056465175 -0.0061417813
0.06300839 0.05889354 0.0060151415 0.03767006 0.05665169 -0.0047388473 0.08520328 -0.051997676
0.058543075 -0.0066572106 0.032405768 0.10993583 0.015165047 0.08797369 0.025228322 0.14444768
0.021061398 0.00068523554 0.06813831 0.13027129 -0.0014373851 0.029127888 0.009642481 0.053746063

bn1.running_mean f4 [64]
00000000: fa64 9a3c a1e4 603c b220 673d fbd6 f33c
00000010: 0f98 8b3d 25d1 3b3f 913c a43b 7e1e 7e3b
00000020: 3439 0a3e 9296 7e3d 10b4 b03c 16a6 8e3c
00000030: 309e 143d 1348 543c c2d5 293d b2ac f43d
00000040: 3bc8 b73c d9c4 8f3d 7c80 053d 9eed ae3c
00000050: 9e8a 053e 1de4 da3e 69a4 113d df75 ee3c
00000060: 25e8 b63d 4ab9 9b3d 9775 f93a 9702 3d3c
00000070: 6721 d63c 65e8 5d3d 3892 003d 84a2 1f3d
00000080: 7c71 193d 951b 103d 68d3 f33c 1ebd a23c
00000090: b575 d33d 5127 9b3c ab60 843d 71c1 723d
000000a0: fec2 db3c b4be 033d 0efa 1c3d 3d38 793e
000000b0: 6745 2a3d 4422 813d b3be 1c3b 4a9b 113e
000000c0: fc41 073d efad 5a3e 8479 da3d c608 f23b
000000d0: 7666 be3c 6317 833c cc19 883e 4f2f c13c
000000e0: 42a2 013d 8f95 833d bae0 1a3d 5fc8 103d
000000f0: 604a 823d d1c7 bc3c 4364 d13d c1d1 063d
0.018846978 0.013726384 0.056427665 0.029765597 0.06816112 0.73366004 0.005012103 0.00387755
0.13498384 0.062155314 0.021570235 0.01741318 0.03628367 0.012956637 0.04146362 0.119470015
0.022434345 0.070199676 0.032593235 0.02135354 0.1304116 0.42752162 0.035557184 0.02910894
0.08930997 0.076037005 0.0019032237 0.011536262 0.026138974 0.054176707 0.031389445 0.038973346
0.037461743 0.035182554 0.029763892 0.019865569 0.10325185 0.018939646 0.064637505 0.05926651
0.026826378 0.03216429 0.03832441 0.2433786 0.041570093 0.06305364 0.0023917377 0.14219394
0.033021912 0.21355413 0.106677085 0.0073863 0.023242217 0.016002363 0.2658218 0.023582129
0.03164888 0.064250104 0.037811972 0.03534734 0.06361842 0.023044499 0.102242015 0.03291488

bn1.running_var f4 [64]
00000000: 81a4 8d3b 134a 453b 1279 273c c127 013c
00000010: 0558 773c a8a8 e03c c4ed 883a 341c 253a
00000020: 1103 a33c e76e 043c 9e3f b23b 4850 8e3b
00000030: 0c9a 0f3c fd3c 443b cfec 2f3c 22a3 ba3c
00000040: 1060 b13b 567e 5f3c bdad fb3b 82f5 c23b
00000050: f544 a93c f75e 063d 61d6 283c 3105 0b3c
00000060: d4d6 803c 0107 543c 6094 a439 e156 333b
00000070: 19b4 083c 5b2a 7f3c 8dbf 0e3c c423 293c
00000080: 5a26 2a3c be19 273c d588 f93b dd8a a73b
00000090: 8aea 8c3c a874 913b 8a70 873c 415e 8b3c
000000a0: 5a06 d83b 335c 103c f957 2d3c facd df3c
000000b0: 11b6 583c 1248 1f3c bd01 e939 ac2e a43c
000000c0: 2a74 1c3c 414d d23c 002b 993c 708f d53a
000000d0: cdd1 b53b 78e5 823b 46c1 003d 4abf d43b
000000e0: a264 fe3b 3bc8 113c be4b 3a3c 0bcc 193c
000000f0: c8e4 fc3b d16d 6a3b b08b 613c 3fd5 fb3b
0.004322589 0.0030103966 0.0102217365 0.007883013 0.015096669 0.027424172 0.0010446836 0.0006298453
0.019898923 0.008083082 0.0054397127 0.0043430664 0.008764755 0.0029943578 0.010737612 0.022782866
0.005413063 0.013640961 0.0076806233 0.005949677 0.020662764 0.03280541 0.010305018 0.008485124
0.015727438 0.012941123 0.00031391066 0.0027365016 0.00834372 0.015574063 0.008712661 0.010323469
0.01038512 0.0101990085 0.0076151886 0.0051129893 0.01720168 0.0044389553 0.016533155 0.017012717
0.006592554 0.0088110445 0.010580056 0.027319897 0.013227002 0.009721773 0.00044442518 0.020041786
0.00954918 0.025671603 0.018697262 0.0016293358 0.005548692 0.00399464 0.03143432 0.00649253
0.007763461 0.008897836 0.011370597 0.009387027 0.0077177025 0.0035771022 0.013766214 0.007685333

fc1.weight f4 [64, 64]
00000000: 780b 7fbd c517 dc3d e5ff 19bd 5fd0 ad3d
00000010: f6bc d9bd 463d 07be 077b 513e 88a3 753d
00000020: ce51 363c 2577 22be 18f9 55bd d79f 15bd
00000030: b5ff 04bd e249 113e 02a0 86bd d191 43bd
00000040: 6175 c7be 5677 59be 3309 e6bd 08db fabd
00000050: 5028 86bb 9382 49bc 1850 1dbc 333b e73c
00000060: 1610 ba3e 2fe6 28be 2ea0 9cbe 508a 183e
00000070: b1f0 2dbd cd86 14be 24ab 623e fda0 9f3d
00000080: 5fd4 0abe 332f 20be 863a cebb 9650 3d3d
00000090: 7cb1 1ebe ca38 023e 9f36 49bd 35a0 f33d
000000a0: a8d8 97bd 335f 10be 0293 b23c 3d73 1c3e
000000b0: 5e63 e3bc 533d bf3c 6e43 4bbe bc65 85bd
000000c0: b040 4ebe 5df4 743c cc23 debd d3ce a7be
000000d0: d677 e73d 700f adbe 8cd7 1dbe 4617 2b3e
000000e0: ca62 afbd 9a48 673d dd83 583e 8f7a 3fbd
000000f0: 4e65 20be ef98 f0bd ae68 4dbd 8dbe 013e
00000100: a15c 77bc 68b5 393d df1b c3bd 884f 08bd
00000110: 3bcb 9d3c 72d4 6d3e 8fc2 36be c259 cbbe
00000120: 551a 51bc ade4 0b3e e927 273e 3b3d be3d
00000130: 9547 493d b523 08be b725 d4bc f715 213e
00000140: 5558 323e a31f eb3c 3cb3 633e d4ad f2bc
00000150: b279 423e 4816 973d 960c 043e e55b 0fbe
00000160: 821d 07bd 96b5 183e 8cf3 603b 72fb 193d
00000170: 1542 c33d 7d72 39bb 0098 bcbd c1e5 ccbe
00000180: ba1e dc3c f5db 0e3e 62a5 dabc 5c4b 613d
00000190: c581 aa3e 3ca1 8dbd 4fc8 9f3e d48f 50be
000001a0: 97d2 593e b4c0 5c3c c973 b3bd 9b12 40bd
000001b0: d871 31bd c269 80bd 2b73 54bd a19a 6bbc
000001c0: dcae 573e 7937 a43d bbc8 2ebd 4ccb 7fbd
000001d0: 684c 67bc 4851 dbbd 1e30 d73d 7789 1bbe
000001e0: cd58 f3bc 93be 323e 6273 63be ba32 ffbd
000001f0: f406 913d dfe7 273c 3606 e6bd 9959 5d3e
00000200: 94ae e43d 35ba d83d eb4b cf3d 4c0e 83bd
00000210: 9dfa e63d f79c dcbd ee3e 6abc 7128 d63d
00000220: 65c7 12be 8118 ddbd 3a8d 09be a9e4 b4bc
00000230: ad7b 24be 7ca8 86bd 954e 01bd 616a e8bd
00000240: 0645 f83d dfed 12be 4933 a5bd b550 f1bc
00000250: 06d1 3bbe 9e33 91be 2315 243b cbf6 04be
00000260: 7409 89bc 204e 6fbe 29a6 1ebe 0e3d 083d
00000270: ea8f 4dbd ca42 ddbd fdd7 b0bd 9c72 0ebd
00000280: 3f00 2e3d efbf e23d dd81 293d 5311 d1bd
00000290: b217 31be c8d7 073d e70c 123e 4e08 8ebd
000002a0: c693 12be 8904 5f3e 5bcf 0dbe d943 513e
000002b0: cddb 203e 49de 983e 0397 5fbe ab2d 18be
000002c0: 3093 4dbd 4ba7 b9bd 8c6b 20be 69dd 71be
000002d0: c03a 58be 097c d03e bd3c d5bb f9ba 01be
000002e0: a48d 823d e65c 9bbd 6184 853d ca73 963d
000002f0: dc98 abbe 04df 663c 61bf da3d bc24 8ebd
00000300: 831c f13c 4a8f 2d3d 00e0 8fbe fb38 ffbd
00000310: 96ad 283d 8aeb 0ebe 1685 23bf 7b88 18be
00000320: 605f 2f3e 286b 22be 5eb5 493c a886 523e
00000330: 4a44 9dbd 6265 bb3d 372b b73d ba7f 293c
00000340: c583 e3bb e82b 8a3e c5bc 03be 29aa 1a3d
00000350: 119a 5cbd b8be a13d 2875 bf3d b4cd 333e
00000360: d6be e23d 00d3 08be 3744 05be 4618 843e
00000370: cb46 933e 9058 efbb 79ae d4bd 698e b63d
00000380: a6bb 73bd 0850 5bbd d92e 40be 9e98 a03d
00000390: 90a5 35bd 8e21 84bd a0a7 50bd 6baf dcbc
000003a0: 99d0 8dbe fd3f 6cbd b289 89bd 5c9f 983d
000003b0: 96f8 13be de70 a0bd 6ff5 213e dc65 22bd
000003c0: 59d9 ccbd 32ba 90bd a00f b13d b553 573d
000003d0: 4a0c 40be e303 493d 61ce 2d3e 3143 393e
000003e0: b6b1 773d 365d 58be a31b b3bd 65f4 3b3c
000003f0: eba2 05bc 099d 9cbd fe48 683e 3bbf 843c
-0.062266797 0.10746721 -0.037597556 0.08487009 -0.106317446 -0.13206968 0.20457087 0.05997041
0.011127902 -0.15865763 -0.052239507 -0.03652939 -0.032470424 0.1418834 -0.06573488 -0.047746483
-0.3895674 -0.2123693 -0.11232223 -0.12248808 -0.004094161 -0.012299198 -0.009601615 0.02822647
0.36340398 -0.16494058 -0.30590957 0.14896512 -0.04246587 -0.14504547 0.22135597 0.07794378
-0.13557576 -0.15643005 -0.0062935976 0.04621943 -0.15497392 0.12716976 -0.049124356 0.118957914
-0.07414371 -0.14098816 0.021798614 0.15278335 -0.027757343 0.023344671 -0.19849941 -0.06513545
-0.20141864 0.014950839 -0.108466715 -0.32774982 0.11302154 -0.3380084 -0.15414256 0.16708097
-0.085637644 0.056465723 0.21144052 -0.04674774 -0.15663645 -0.1174792 -0.05014866 0.12670346
-0.015097768 0.045339018 -0.095268 -0.033278972 0.019261947 0.23225573 -0.17847656 -0.39716917
-0.012762626 0.13661452 0.16323818 0.092890225 0.04914053 -0.13294871 -0.02589689 0.15731035
0.17416508 0.028701609 0.22236341 -0.029623903 0.18991736 0.07377297 0.12895426 -0.13999899
-0.032987125 0.1491302 0.0034324853 0.037593313 0.095340885 -0.0028297 -0.09208679 -0.40019038
0.02687012 0.13951094 -0.026690189 0.05500351 0.3330213 -0.06915519 0.3120751 -0.20367366
0.2127174 0.013473678 -0.08762319 -0.046892744 -0.04332146 -0.06270172 -0.051867645 -0.014380128
0.21062797 0.08018393 -0.0426719 -0.06244974 -0.014117338 -0.107088625 0.105072245 -0.15189157
-0.02970543 0.17455511 -0.22211984 -0.12460847 0.07081404 0.0102481535 -0.112316534 0.2161621
0.11166111 0.10582391 0.10121902 -0.06399211 0.112782694 -0.10772126 -0.01429723 0.10456932
-0.14333875 -0.107956894 -0.1343278 -0.02208169 -0.16062804 -0.065751046 -0.031569082 -0.11348415
0.1212254 -0.14348553 -0.080664225 -0.02945743 -0.18341455 -0.28359693 0.0025037013 -0.12984769
-0.01672814 -0.23369646 -0.15493073 0.03326135 -0.050186075 -0.10803755 -0.086349465 -0.03477727
0.042480703 0.11071765 0.041383613 -0.102083825 -0.17294195 0.03316477 0.14262734 -0.06935178
-0.14314184 0.21779074 -0.13848631 0.20436038 0.15708847 0.2985709 -0.2183495 -0.14861171
-0.050189197 -0.09065112 -0.15666026 -0.23619618 -0.21116161 0.4071963 -0.0065074847 -0.1266898
0.06374672 -0.07586078 0.0651939 0.07346304 -0.3351506 0.014091257 0.10681034 -0.069406
0.02943254 0.04237298 -0.28100586 -0.1246204 0.04118117 -0.13957039 -0.6387495 -0.14895813
0.17126226 -0.1586119 0.012311308 0.2055918 -0.07679041 0.091501966 0.089437895 0.010345394
-0.0069431984 0.26986623 -0.12864979 0.037759934 -0.053857867 0.07897705 0.09348518 0.17558938
0.11071555 -0.1336174 -0.13014303 0.2579977 0.28764948 -0.0073042586 -0.103848405 0.08913881
-0.059505127 -0.05354312 -0.18767871 0.078416094 -0.044347346 -0.064517125 -0.05094111 -0.026939115
-0.2769821 -0.05767821 -0.067157164 0.074522704 -0.14450297 -0.07834028 0.15816282 -0.039647922
-0.10002393 -0.07066764 0.08645558 0.052570064 -0.18754688 0.049075972 0.16973259 0.18092038
0.060472213 -0.21129307 -0.08745506 0.011471842 -0.008156518 -0.076471396 0.22684094 0.016204467

fc1.bias f4 [64]
00000000: 8884 213d d482 27be 7fb1 423f 2973 a3bb
00000010: 480f 3ebe 3d4e 03be 7c32 9d3c f237 3dbe
00000020: 427b 82be 4e64 6b3e 88c2 033e 19e3 76be
00000030: bc9c 1b3d aa41 cf3d cf48 49be 9817 4f3e
00000040: 81ec 9dbd 77c2 84bd ece2 a33d 3469 d5bc
00000050: 9b7e 583e 795f c0bd 88e2 5a3e 563f fa3d
00000060: f64e 303e 9352 413e bb01 ef3d 7109 06bc
00000070: e12d 0cbd 2d62 51bd 8ac0 f23c 3d27 dc3c
00000080: b407 0f3d 72bf 83be 2173 853d 0e68 153d
00000090: 3ab3 f93c 107d 623e ae31 233e 3f4b eebd
000000a0: d441 653e 5218 91be 2c9c cc3d 3585 a63d
000000b0: 271c 88be 52f3 2cbd b709 8fbe 9fac 563e
000000c0: 9511 1e3e 48b6 0d3e 5ba1 5fbd a948 333e
000000d0: 2c76 15be e698 0e3e 3071 0b3d 2737 983c
000000e0: ec08 7ebe 197f 6abe 1937 10bd cc11 3fbd
000000f0: 0756 9bbe 1741 0c3e 0041 b03d 5974 7b3d
0.039433032 -0.163585 0.7605209 -0.0049880934 -0.18560517 -0.12822814 0.019189112 -0.18478373
-0.25484663 0.22987482 0.12867177 -0.24110068 0.03799127 0.10119946 -0.1965668 0.20223844
-0.07711125 -0.06482404 0.08002266 -0.026051141 0.21142046 -0.0939321 0.21375477 0.122191116
0.17217621 0.18879156 0.11670252 -0.008180962 -0.03422344 -0.05111902 0.029632825 0.026874179
0.034919456 -0.25732 0.065161 0.036476187 0.03048097 0.2211802 0.1593692 -0.11635446
0.22388393 -0.28338867 0.09990725 0.08130876 -0.2658398 -0.042224236 -0.279371 0.20964287
0.15436395 0.13839066 -0.05459724 0.17508186 -0.1459586 0.13925514 0.03404349 0.018580986
-0.24808091 -0.22900046 -0.035208795 -0.04664783 -0.3033907 0.13696705 0.08606148 0.061390255

bn2.weight f4 [64]
00000000: 7090 803f 0139 863f 4d3b 7f3f 4597 943f
00000010: 8edc 873f 6e42 993f 208b 7f3f e400 8b3f
00000020: 3008 833f 6925 7b3f 648a 983f 6877 913f
00000030: d441 813f 39f6 833f 742b 9a3f 49f9 943f
00000040: a7b3 983f f436 873f b68f 7b3f 785c 8b3f
00000050: dff2 893f 585f 843f cd07 983f dcf0 913f
00000060: a7c7 913f 4281 9e3f 1cf1 913f 5cf5 763f
00000070: 01f4 5d3f 88bc 863f b853 9c3f 7a5d 923f
00000080: 59a0 833f ab19 883f 9218 a13f b9ab a23f
00000090: 1d09 963f 1207 a33f 7dd6 8f3f 2b94 923f
000000a0: a704 913f 4096 9e3f 416c 893f 2c69 923f
000000b0: da0f 893f 0d97 803f 72d6 833f 969c 8b3f
000000c0: 2034 a23f 001e 903f 79fc 993f 5466 963f
000000d0: cb2a 7a3f 4aee 863f b861 993f 62ab 8b3f
000000e0: c88f 833f d7cf 8c3f 8a7c 993f f957 8f3f
000000f0: c44e 8d3f 62b2 863f 4ae0 8a3f a3c0 873f
1.0044079 1.0486146 0.9969986 1.1608664 1.0614183 1.1973398 0.9982166 1.0859647
1.0236874 0.9810396 1.1917233 1.1364565 1.0098214 1.0309516 1.2044511 1.1638576
1.1929826 1.0563645 0.9826616 1.0887594 1.0777243 1.0341597 1.1877381 1.140163
1.1389054 1.2383196 1.1401706 0.9646814 0.86700445 1.0526285 1.2213049 1.1434777
1.0283309 1.0632833 1.2585623 1.2708656 1.1721531 1.2736533 1.1237332 1.1451467
1.1329545 1.2389603 1.0736161 1.1438346 1.0707963 1.0046097 1.0299819 1.0907161
1.2672157 1.1259155 1.2030174 1.1749978 0.97721547 1.054147 1.1982946 1.0911677
1.0278254 1.1000928 1.1991131 1.1198722 1.1039662 1.0523188 1.0849698 1.0605663

bn2.bias f4 [64]
00000000: 5373 89bb 3d37 89bb 47ad 9fbb e775 9dbb
00000010: 2ac0 5cbb b3da 96bb bc3c cfbb ae5b d8bb
00000020: e6fa e0bb de19 e5bb 6887 f03b cdf7 2cba
00000030: b21f 7cbb 24f6 d03b 9f5b e3bb 1d4d bfbb
00000040: c015 a63b 227c 57bb 16db babb cfee 92bb
00000050: ef70 89bb 7c49 debb f072 bdbb b6b3 a6bb
00000060: baaf a9bb c1d2 aebc a15c a93b 8a0f 86bb
00000070: c9c8 623b 528b 93bb 89a9 d83b 8174 053c
00000080: 6d46 ad3b 89c0 9ebb 856f b03b e53a fe3b
00000090: 2897 86bb 2cab ba3b 8220 21bc 11d4 733b
000000a0: d72d 7fbb 94fe a1bb cec9 d2bb 4421 9bbb
000000b0: d102 c03b b14b 123c db91 a1bc b994 84bb
000000c0: 1aeb 863b 67e6 d33b 6db2 cabb 84e0 af3b
000000d0: 5605 1ebb f757 5abb 74c4 273b ddfe 9c3b
000000e0: 4926 9cba d053 bc3b 1148 b13b cf92 d53b
000000f0: 1255 993b a8af cabb 99e9 c93b 13fd acbb
-0.004194656 -0.004187493 -0.004872951 -0.004805315 -0.0033683875 -0.0046037077 -0.006324379 -0.006602726
-0.006865847 -0.006991609 0.0073403604 -0.00065982045 -0.003847104 0.0063769985 -0.0069384123 -0.00583805
0.005068511 -0.0032880385 -0.0057023866 -0.0044840346 -0.004194371 -0.0067836624 -0.005781524 -0.005087341
-0.005178419 -0.02134073 0.005168513 -0.004091208 0.003460454 -0.0045026923 0.006612007 0.0081454525
0.0052879364 -0.0048447293 0.005384388 0.0077584856 -0.0041073747 0.005696675 -0.009834411 0.003720526
-0.0038937235 -0.004943678 -0.0064327484 -0.00473419 0.0058597107 0.008929179 -0.01972287 -0.0040460494
0.0041173818 0.006466675 -0.006185821 0.0053673405 -0.0024112067 -0.0033316591 0.0025599273 0.0047911243
-0.0011913265 0.005747296 0.0054102023 0.006517745 0.0046793306 -0.0061854906 0.00616188 -0.0052791922

bn2.running_mean f4 [64]
00000000: bfd1 db3d f7ba b03d 42b4 393f 1ba7 1e3e
00000010: 07f4 493d d1c2 1b3e e514 0f3e 80bf 183d
00000020: 4f39 e93c b547 1f3e e2aa 4d3e a53b 7e3a
00000030: 9295 af3d 50f4 f63d 35eb fd3d 45b3 913e
00000040: 198e b63d 8b18 b83d bc6d f33d 46ef 1a3e
00000050: 65a7 983e d81b 8d3d 069f 733e f6e9 963e
00000060: 66b9 753e dc1e 923e d90b 3c3e a0ae 2a3d
00000070: c98c f83c 371b ec3d a7b9 243e 110f b03d
00000080: 8a77 a63d d691 2f3d f0a6 113e 7355 2c3e
00000090: f233 be3d 3461 8b3e 5830 2f3e c57c 953d
000000a0: a8f8 663e 8ace 803d e9ab 2c3e 7cc3 473e
000000b0: 1bf4 f03a 7fb7 033d f66e f13c cd1a 933e
000000c0: 987e a93e 70e3 603e a233 553e f341 873e
000000d0: 8ecb d53c 4762 053e 1770 293e c3ed b33d
000000e0: fe8f 2d3c ae96 733d 210d d83d f9a2 a93d
000000f0: 931b 273c a6b9 2f3e 9347 b63d 86c2 1e3e
0.10733365 0.08629411 0.72540677 0.15493433 0.04930499 0.15211035 0.13972814 0.037292004
0.02846971 0.15554698 0.20084718 0.0009698219 0.0857345 0.12058318 0.12398378 0.28457084
0.08913822 0.08989056 0.118861645 0.15130338 0.29815212 0.068900764 0.23791131 0.29475373
0.23996505 0.2853917 0.18363895 0.04167044 0.03034057 0.11528628 0.16086446 0.08596624
0.08128269 0.04286369 0.14223838 0.16829471 0.092872515 0.27222598 0.17108285 0.072991885
0.22555792 0.06289394 0.16862454 0.19508165 0.0018383296 0.032157417 0.029471856 0.28731385
0.33104396 0.2196176 0.20820478 0.26417503 0.026098039 0.13025771 0.16546665 0.08785584
0.010593412 0.05946987 0.10549379 0.08283038 0.010199445 0.17160663 0.089003704 0.15503892

bn2.running_var f4 [64]
00000000: 4f2e c63c d17b c03c c430 f23c e3a7 813d
00000010: 69a4 2e3c 8085 373d 344a be3c 2fc2 e53b
00000020: a7e9 8f3b 9919 a73c af2a 2a3d b861 1b39
00000030: 16ed 943c a142 bd3c 5124 233d 6bee 783d
00000040: 82fb f73c 6b3c 993c 322e c93c a569 3f3d
00000050: e1e0 923d a0c3 5a3c 4e37 4f3d 1ce4 8b3d
00000060: e9bf 6b3d 94fd cd3d 5687 f03c e904 a63b
00000070: 3cb4 ab3b 5409 2b3d 3152 293d 1fb4 853c
00000080: dbc5 2b3c e06d 333c c1a7 4b3d d838 273d
00000090: b32b e93c 2b44 ba3d 6dc8 0a3d fcf9 873c
000000a0: 9f51 593d 1393 a63c 82cb fc3c 8a8e 603d
000000b0: c897 1739 e2dc ad3b 334c ce3b fd0b 843d
000000c0: 33ae d03d fb77 273d 1aeb 3d3d af58 743d
000000d0: dfc2 a53b dfa2 cd3c eef2 c33c 41ce 8c3c
000000e0: f950 dc3a d6fe 783c fa29 183d 2f01 c03c
000000f0: c023 993a 4e37 2c3d 6446 723c f709 da3c
0.024192004 0.02349654 0.029564269 0.0633085 0.010659316 0.04480505 0.023228742 0.007011674
0.004391867 0.020397948 0.041544612 0.00014818355 0.018179458 0.02310306 0.039829556 0.060774248
0.030271295 0.018705567 0.02455816 0.04673161 0.071717985 0.013352305 0.050589852 0.06830618
0.057556067 0.10058132 0.029361408 0.0050665033 0.0052399915 0.041756943 0.04133815 0.01632124
0.010484184 0.010951489 0.04972053 0.040825695 0.02846322 0.09095033 0.033882547 0.016598694
0.053056356 0.020333802 0.030858759 0.054823436 0.00014457025 0.0053058723 0.0062957047 0.06447599
0.10189476 0.040885907 0.04636679 0.059654888 0.005058631 0.025102077 0.023919549 0.017188193
0.00168088 0.015197476 0.037149407 0.023438064 0.0011683628 0.04204493 0.01478729 0.02661608

fc2.weight f4 [1, 64]
00000000: 7ede f3bd 2694 12be 3dce e5bd 652b 7abe
00000010: 14f4 dabd 0a42 65be 7c85 11be e14a febd
00000020: 9ecf d6bd a46d 11be 1e60 9e3e cb34 24be
00000030: cf31 d0bd 35cf 2c3e e212 79be 169c 46be
00000040: 1a11 913e eb9b 00be 7467 e3bd 635d 44be
00000050: db57 24be ed41 fcbd 2725 7ebe 2652 84be
00000060: 275d 49be 8567 a03e 77bb 753e 9353 d9bd
00000070: bfa7 92bd b8cd 39be 4275 983e 7871 703e
00000080: a939 153e f952 0cbe d296 b33e ad77 9a3e
00000090: bb22 94be ce45 aa3e 7ee7 13be d1d5 463e
000000a0: 560b 8fbe 6db9 a8be 203a edbd 2907 78be
000000b0: 0362 0c3e 893a f93d f632 f23d 79c0 53be
000000c0: 737b bc3e fa33 833e 133c 82be 47f9 9a3e
000000d0: 5ed6 e9bd 7330 14be 91b6 6d3e 67f1 5d3e
000000e0: 9eed f0bd b53e 623e d4a4 913e 6f70 5f3e
000000f0: 477f 0c3e 8511 f3bd 037e 5b3e 8c81 eabd
-0.119076714 -0.14314327 -0.112209775 -0.24430616 -0.106910855 -0.22388473 -0.14211076 -0.12416626
-0.104888186 -0.14201981 0.30932707 -0.16035764 -0.1016575 0.16875918 -0.2432361 -0.1939548
0.2833336 -0.12559478 -0.111037165 -0.19176249 -0.16049139 -0.12317262 -0.2481886 -0.25843924
-0.19664441 0.3132898 0.23997293 -0.10611644 -0.07160901 -0.18144882 0.2977696 0.23480785
0.14572777 -0.13703527 0.35076004 0.3016943 -0.28932747 0.33256382 -0.14443776 0.19417502
-0.27938336 -0.3295397 -0.11583352 -0.24221481 0.13709264 0.12169368 0.11826126 -0.20678891
0.36812934 0.25625592 -0.25436458 0.3026831 -0.114178404 -0.14471607 0.23214175 0.21674119
-0.11764072 0.22094233 0.28446066 0.21820234 0.13720427 -0.11868576 0.21434788 -0.1145049
