result/dee_phage/100_400/fold_1/20250430-231038/400_0.0001_32_model.pt (torch, 31483 bytes, 13 tensors)

conv.weight f4 [64, 4, 6]
0.2720436 -0.083530664 -0.019833693 -0.032799233 0.07335242 -0.020373322 -0.47407812 -0.6705154
0.20527852 -0.12123086 -0.1574068 -0.10633074 -0.082763016 -0.20048685 -0.2413316 0.15788221
-0.6799957 -0.5462491 0.07263206 0.09220186 -0.104707204 0.03606735 -0.08373968 0.18832225
-0.39875838 -0.05261506 0.017476177 0.0021602933 0.0663532 -0.06345391 0.022914583 0.0154557265
0.19894786 0.023874827 -0.43761277 -0.21823132 -0.42547137 -0.38813493 -0.1371401 -0.52130514
-0.05090157 0.13856316 0.16342172 0.11380771 -0.3858667 0.071099125 -0.20076175 0.19439892
0.034809697 0.019482305 0.013542219 0.19502737 0.12488268 0.17594138 -0.2783259 -0.27161884
-0.18008432 -0.17036416 -0.63239795 -0.3276802 0.10713192 -0.1148081 -0.059494726 0.22349459
0.06937618 -0.04498586 -0.15614344 -0.7336497 -0.19170372 -0.2135481 -0.15506384 -0.30419707
-0.34318098 0.10770906 0.21888979 -0.46055096 0.19758967 -0.00870362 0.010102271 -0.118612744
-0.2977092 -0.18822056 -0.1977502 0.1544777 -0.029988404 -0.14298119 -0.10613092 0.2738474
-0.10476308 -0.026507644 0.07744445 0.0059118993 0.014819691 0.107794784 -0.32597768 -0.0302807
0.14025225 -0.5181881 -0.65023017 -0.14718695 0.05316642 -0.14469258 -0.22640269 -0.51614666
0.22950451 0.017579438 0.027514683 -0.05979096 -0.09749804 -0.41329813 -0.030548867 0.015302121
0.06844537 -0.1296076 -0.7218606 0.34506848 -0.17213771 -0.26934844 0.039243285 -0.053383127
0.082595006 -0.020885574 -1.2286894 0.16935931 0.039843917 0.014496027 -0.16758147 -0.1370776
0.10463382 -0.0959613 -0.12263984 -0.060781755 -0.19408801 -0.18041678 0.16022003 -0.056988657
-0.109202765 -0.11466902 -0.09539744 0.09509976 -0.14593038 -0.01213658 0.010187063 -0.011642465
0.18832752 -0.2916796 0.004568274 -0.10298078 -0.15781745 0.2610588 -0.1920078 -0.20192635
-0.12700245 -0.08289878 -0.070373654 -0.18760972 -0.11056548 -0.354886 -0.055900205 -0.08513964
0.045394666 -0.19281407 -0.16148897 0.09122796 -0.07576856 -0.0028937568 0.12085053 -0.3915401
0.1752805 -0.09892485 0.07441462 -0.37223977 -0.01329883 0.007080644 -0.0600853 -0.26369753
-0.27793124 0.01490447 -0.22186182 0.13074426 0.058606125 0.052518602 0.14890356 0.07120559
0.094369866 0.05419176 -0.09790602 -0.23402278 -0.077768356 -0.23838536 -0.3560832 -0.2967163
0.049642235 -0.1404611 0.11306952 -0.3557667 -0.09755972 0.15878183 0.14232053 -0.061706234
-0.6883594 0.031015897 -0.24862932 -0.35126883 -0.17056337 -0.7426355 0.083324514 0.13752046
-0.06362363 -0.18296164 -0.22781594 0.1515958 0.059296086 -0.3574166 0.029043 -0.0076472796
-0.12014098 0.12833871 -0.25287458 0.016897365 -0.37896237 0.057013646 -0.0462243 -0.17327486
0.13110527 -0.17026086 0.11018094 -0.23345162 -0.016230756 -0.14049391 0.13582556 -0.19847047
0.09602652 -0.23706254 -0.12595502 0.13778114 -0.29165012 0.03650449 -0.4489762 0.014626083
-0.07925894 0.035278525 0.002023357 0.21179736 -0.17789948 -0.09183301 -0.08363037 -0.036142662
-0.2254599 -0.40496615 -0.5669278 0.23981793 -0.07536127 0.18340671 0.20845181 -0.33528495
00000000: 4c49 8b3e 2012 abbd 457a a2bc 7d58 06bd
00000010: cb39 963d f4e5 a6bc 5eba f2be e6a6 2bbf
00000020: 8834 523e e347 f8bd 402f 21be eec3 d9bd
00000030: a87f a9bd 6d4c 4dbe a21f 77be e0ab 213e
00000040: 3314 2ebf fbd6 0bbf 1ec0 943d 54d4 bc3d
00000050: bb70 d6bd 5cbb 133d b67f abbd 8cd7 403e
00000060: 0f2a ccbe e482 57bd 332a 8f3c b593 0d3b
00000070: 30e4 873d 20f4 81bd 5db7 bb3c 043a 7d3c
00000080: fdb8 4b3e 2495 c33c c80e e0be 0878 5fbe
00000090: 62d7 d9be 9fb9 c6be 746e 0cbe 4174 05bf
000000a0: 2a7e 50bd 80e3 0d3e 0658 273e 0414 e93d
000000b0: 5290 c5be 6b9c 913d 7d94 4dbe 8310 473e
000000c0: 9d94 0e3d 5b99 9f3c 2fe0 5d3c 41b5 473e
000000d0: 7ec2 ff3d fa29 343e bb80 8ebe a011 8bbe
000000e0: 0668 38be f173 2ebe d5e4 21bf b3c5 a7be
000000f0: fb67 db3d 8220 ebbd beb0 73bd c4db 643e
00000100: 1915 8e3d 1843 38bd 11e4 1fbe 77d0 3bbf
00000110: fb4d 44be 5aac 5abe 0ec9 1ebe b8bf 9bbe
00000120: 6bb5 afbe 9196 dc3d a524 603e 56cd ebbe
00000130: f254 4a3e a199 0ebc ff83 253c 3deb f2bd
00000140: 576d 98be e4bc 40be 077f 4abe 672f 1e3e
00000150: 3eaa f5bc a969 12be 2b5b d9bd ba35 8c3e
00000160: 078e d6bd 8f26 d9bc 329b 9e3d 9bb8 c13b
00000170: 4ace 723c 83c3 dc3d 8ce6 a6be 3b0f f8bc
00000180: 499e 0f3e faa7 04bf 7c75 26bf 2db8 16be
00000190: 08c5 593d 4b2a 14be 1bd6 67be 3022 04bf
000001a0: 3b03 6b3e c102 903c 7966 e13c 5ee7 74bd
000001b0: 0dad c7bd d09b d3be 9e41 fabc bfb5 7a3c
000001c0: 162d 8c3d dbb7 04be dbcb 38bf d1ac b03e
000001d0: de44 30be 0ae8 89be 91bd 203d 44a8 5abd
000001e0: 9227 a93d 3918 abbc b245 9dbf 876c 2d3e
000001f0: 6033 233d be80 6d3c 7a9a 2bbe 125e 0cbe
00000200: 424a d63d 5c87 c4bd 992a fbbd 4af6 78bd
00000210: 02bf 46be 2dbf 38be b810 243e f06c 69bd
00000220: b3a5 dfbd 97d7 eabd bc5f c3bd aac3 c23d
00000230: c66e 15be 82d8 46bc a4e7 263c 0ac0 3ebc
00000240: eed8 403e 0757 95be 76b1 953b 96e7 d2bd
00000250: e69a 21be 80a9 853e b19d 44be c8c5 4ebe
00000260: ee0c 02be d6c6 a9bd 1020 90bd c31c 40be
00000270: 2870 e2bd 9eb3 b5be 9df7 64bd b15d aebd
00000280: c2ef 393d 0d71 45be 5d5d 25be bad5 ba3d
00000290: 8c2c 9bbd 2fa5 3dbb 7c80 f73d f277 c8be
000002a0: bb7c 333e 1d99 cabd b166 983d 3696 bebe
000002b0: 56e3 59bc bf04 e83b 011c 76bd 5d03 87be
000002c0: 014d 8ebe e131 743c bf2f 63be d3e1 053e
000002d0: fa0c 703d bf1d 573d 2d7a 183e 3dd4 913d
000002e0: fd44 c13d 2ef8 5d3d f482 c8bd aba3 6fbe
000002f0: 0445 9fbd 4b1b 74be 8a50 b6be 33eb 97be
00000300: a855 4b3d 09d5 0fbe fe90 e73d 0e27 b6be
00000310: 64cd c7bd b497 223e 79bc 113e adbf 7cbd
00000320: 5238 30bf 0d15 fe3c af98 7ebe 82d9 b3be
00000330: 2aa8 2ebe 5c1d 3ebf 0ba6 aa3d 2ad2 0c3e
00000340: 1b4d 82bd 4c5a 3bbe 9548 69be ee3b 1b3e
00000350: 74e0 723d 4fff b6be 96eb ed3c 0896 fabb
00000360: 790c f6bd 396b 033e c778 81be 586c 8a3c
00000370: 5b07 c2be 2487 693d b155 3dbd f76e 31be
00000380: 7640 063e dd58 2ebe 8ba6 e13d f10d 6fbe
00000390: 5df6 84bc a3dd 0fbe db15 0b3e d83b 4bbe
000003a0: 8da9 c43d 86c0 72be 5afa 00be 8016 0d3e
000003b0: 2a53 95be bb85 153d 35e0 e5be 3da2 6f3c
000003c0: 8352 a2bd 3780 103d 4c9a 043b 68e1 583e
000003d0: 482b 36be f212 bcbd 6646 abbd 540a 14bd
000003e0: f6de 66be b957 cfbe 2e22 11bf d592 753e
000003f0: 0257 9abd f8ce 3b3e 6474 553e 78aa abbe

conv.bias f4 [64]
-0.27848908 -0.23161092 0.069594964 -0.30562028 0.04219123 0.8008719 -0.2599359 -0.27165675
0.1515746 0.07382949 -0.22980988 -0.3049195 -0.32554936 -0.22067073 -0.24429578 0.07608189
-0.39323023 0.061306734 -0.3098252 -0.11641338 0.12534031 0.46233854 -0.23511115 -0.28453666
0.0857332 0.07810656 -0.3413171 -0.4361844 -0.27700785 -0.18358779 -0.2521231 -0.2571615
-0.27597216 -0.07930264 -0.35457087 -0.30408615 0.102152094 -0.3488482 0.033951566 -0.14674334
-0.34097233 -0.18172413 -0.24875145 0.2986973 -0.2795908 0.0657686 -0.33371907 0.17089081
-0.23472042 0.25345013 0.086337656 -0.31893688 -0.20107928 -0.25902444 0.25995952 -0.24770364
-0.21964248 0.05805067 -0.21890835 -0.11974939 0.08622931 0.022054963 0.10284699 -0.26793072
00000000: 1f96 8ebe 6a2b 6dbe ce87 8e3d 437a 9cbe
00000010: b6d0 2c3d f105 4d3f 5116 85be 9816 8bbe
00000020: 5f36 1b3e ea33 973d 4853 6bbe 691e 9cbe
00000030: 68ae a6be 82f7 61be ac28 7abe d2d0 9b3d
00000040: 7955 c9be c51c 7b3d 69a1 9ebe 236a eebd
00000050: 3659 003e a3b7 ec3e fac0 70be caae 91be
00000060: e394 af3d 55f6 9f3d 1dc1 aebe 9053 dfbe
00000070: f9d3 8dbe 70fe 3bbe 4716 81be acaa 83be
00000080: 394c 8dbe 6c69 a2bd 508a b5be 2eb1 9bbe
00000090: 1e35 d13d 3b9c b2be cc10 0b3d e343 16be
000000a0: ed93 aebe e415 3abe b3b8 7ebe daee 983e
000000b0: 8626 8fbe b0b1 863d 3add aabe 00fe 2e3e
000000c0: 8d5a 70be 37c4 813e ccd1 b03d b24b a3be
000000d0: bae7 4dbe da9e 84be 6a19 853e 06a6 7dbe
000000e0: f5e9 60be 8ac6 6d3d 8329 60be 2b3f f5bd
000000f0: fe98 b03d 9cac b43c 71a1 d23d 372e 89be

bn1.weight f4 [64]
1.0391475 0.76132816 1.0320835 0.8027316 1.2114553 0.989673 1.161249 0.7972992
0.88497126 1.0983752 1.2464117 0.8884348 0.9777612 0.9545774 0.84978503 0.9013575
1.2162129 1.012985 1.019454 0.96114975 1.0970361 0.97291803 0.906854 1.0620935
1.0526553 1.1324662 0.9651998 1.0998447 1.1489036 0.8228992 1.0532191 1.1339669
1.0827861 0.8903262 1.0900879 1.0210313 1.3274974 0.8405167 1.1376084 1.0571206
1.0022169 1.0827204 1.072339 0.99928606 1.200751 1.0197253 1.0783169 1.1645653
1.062765 0.9555143 0.96232516 1.0122621 0.9295066 1.1670593 0.94093317 1.074493
0.83225584 1.0498289 1.1674458 1.1543819 1.0511283 0.97853583 0.8947837 1.1541963
00000000: c902 853f 67e6 423f 501b 843f d17f 4d3f
00000010: f810 9b3f 365b 7d3f cfa3 943f cd1b 4c3f
00000020: 7a8d 623f 8f97 8c3f 6b8a 9f3f 7770 633f
00000030: 8f4e 7a3f 2f5f 743f 838b 593f 5dbf 663f
00000040: ddac 9b3f 7ea9 813f 787d 823f e90d 763f
00000050: ae6b 8c3f 2811 793f 9527 683f aef2 873f
00000060: 69bd 863f a7f4 903f 5617 773f b6c7 8c3f
00000070: 460f 933f 86a9 523f e2cf 863f d425 913f
00000080: bc98 8a3f 6bec 633f 0088 8b3f 27b1 823f
00000090: 6feb a93f 1a2c 573f 279d 913f ba4f 873f
000000a0: a548 803f 9596 8a3f 6842 893f 36d1 7f3f
000000b0: 35b2 993f 5c86 823f 4a06 8a3f 7a10 953f
000000c0: af08 883f 969c 743f f15a 763f ce91 813f
000000d0: 25f4 6d3f 3362 953f ffe0 703f fd88 893f
000000e0: b80e 553f cb60 863f dd6e 953f c9c2 933f
000000f0: 5f8b 863f 5381 7a3f 8b10 653f b4bc 933f

bn1.bias f4 [64]
0.06538678 0.020252673 0.0022650682 0.011387384 0.055373486 0.067292064 0.102353804 -0.012211536
0.022874424 -0.029576706 0.117868505 0.041896924 0.052581877 0.0908976 0.00430723 0.039053585
0.02195988 0.035270523 0.08999367 0.055946503 0.023300398 -0.050571356 0.042173594 0.11381495
-0.0029584344 0.032835703 0.0068392083 0.09879175 0.03936505 0.014892788 0.010992806 -0.033971615
0.033188485 0.048347857 0.023435326 0.01778623 0.02532034 -0.0020942478 0.056948375 -0.0019326071
0.05806971 0.053033613 0.0061002425 0.028102497 0.036695722 -0.01590954 0.090705566 -0.044656206
0.06294851 -0.00062329357 0.02096985 0.11176825 0.02512547 0.071695365 0.027079584 0.14167409
0.016621625 -0.011383197 0.06481047 0.14183687 -0.0102280695 0.031725515 0.022686461 0.066510215
00000000: 81e9 853d efe8 a53c 8a71 143b 2692 3a3c
00000010: 4fcf 623d 6cd0 893d df9e d13d e512 48bc
00000020: 2563 bb3c d94a f2bc 0b65 f13d 1c9c 2b3d
00000030: 1860 573d 8528 ba3d aa23 8d3b a7f6 1f3d
00000040: 35e5 b33c d377 103d 9a4e b83d 2928 653d
00000050: 7ae0 be3c e923 4fbd 38be 2c3d d017 e93d
00000060: 4be2 41bb bb7e 063d 701b e03b 5453 ca3d
00000070: 3f3d 213d e100 743c 2c1b 343c d225 0bbd
00000080: a6f0 073d 6708 463d 71fb bf3c 6eb4 913c
00000090: 9a6c cf3c a63f 09bb b342 693d 894f fdba
000000a0: 81da 6d3d c639 593d 8be4 c73b 3537 e63c
000000b0: 414e 163d b954 82bc d7c3 b93d 6de9 36bd
000000c0: 26eb 803d 8664 23ba f6c8 ab3c c1e6 e43d
000000d0: eed3 cd3c 05d5 923d 01d6 dd3c 0313 113e
000000e0: 132a 883c 9780 3abc 5abb 843d af3d 113e
000000f0: a293 27bc 9df2 013d f5d8 b93c 8236 883d

bn1.running_mean f4 [64]
0.02008081 0.019696355 0.06453745 0.029888509 0.067357875 0.7868726 0.005043503 0.0039795716
0.15024704 0.07082709 0.019496104 0.016705822 0.043130126 0.012169867 0.036139313 0.12963726
0.026261706 0.072231844 0.04092275 0.019492645 0.13623859 0.46127445 0.04014403 0.03380472
0.10380225 0.08274517 0.0020881868 0.013941065 0.026329784 0.059690032 0.031607907 0.040647164
0.042980928 0.03165496 0.03496424 0.017485993 0.11311181 0.019709429 0.063847825 0.06466246
0.04033446 0.032642398 0.047169562 0.28374854 0.041849874 0.068916224 0.0026966487 0.15155724
0.03767298 0.2344015 0.11872034 0.009351586 0.02397736 0.020897666 0.2640731 0.03268017
0.032005683 0.055009436 0.036306974 0.034857158 0.071756214 0.024322696 0.10801694 0.033073775
00000000: 8380 a43c 405a a13c 362c 843d bfd8 f43c
00000010: edf2 893d 7c70 493f f843 a53b 1167 823b
00000020: 5cda 193e cb0d 913d 4bb6 9f3c a6da 883c
00000030: 37a9 303d 1f64 473c d106 143d a1bf 043e
00000040: ca22 d73c 4aee 933d 9d9e 273d 0aaf 9f3c
00000050: 2182 0b3e 2a2c ec3e 116e 243d d176 0a3d
00000060: 4696 d43d 4d76 a93d f6d9 083b 1169 643c
00000070: 8fb1 d73c 897d 743d 4b77 013d a47d 263d
00000080: c50c 303d a2a8 013d aa36 0f3d c93e 8f3c
00000090: 2aa7 e73d ab75 a13c a6c2 823d c06d 843d
000000a0: bf35 253d 09b4 053d df34 413d 7d47 913e
000000b0: c66a 2b3d f323 8d3d 42ba 303b d231 1b3e
000000c0: fc4e 1a3d f206 703e a623 f33d 6537 193c
000000d0: 2b6c c43c 9531 ab3c 9734 873e a4db 053d
000000e0: 6418 033d 9351 613d 9fb6 143d 61c6 0e3d
000000f0: ecf4 923d 6440 c73c fc37 dd3d 5e78 073d

bn1.running_var f4 [64]
0.005004953 0.0049449895 0.012468107 0.0082172 0.017294273 0.031264912 0.0011055127 0.0006656556
0.02398908 0.009756683 0.0052772714 0.0043533277 0.011011041 0.00284619 0.009747203 0.027392175
0.006907925 0.013765496 0.011230395 0.005679568 0.02406715 0.03845757 0.012587722 0.010638689
0.021142194 0.01570455 0.0003892905 0.0037469915 0.0088943085 0.018368186 0.009237398 0.0114766015
0.012955191 0.009398162 0.009951798 0.0044907653 0.02074786 0.005089332 0.017383553 0.019824255
0.011727775 0.009882031 0.014678625 0.034117095 0.014143541 0.012021195 0.0005074754 0.02318494
0.011812293 0.030589959 0.023391843 0.0021168606 0.006068568 0.0058797286 0.03570028 0.010880087
0.008317332 0.007364896 0.01118976 0.009858507 0.009825607 0.004150875 0.017181931 0.007957387
00000000: 9700 a43b 9409 a23b 0847 4c3c 6fa1 063c
00000010: b8ac 8d3c a30f 003d dae6 903a 647f 2e3a
00000020: bf84 c43c 7fda 1f3c f6ec ac3b 5ca6 8e3b
00000030: a767 343c 2587 3a3b bcb2 1f3c 8e65 e03c
00000040: e05b e23b ad88 613c b1ff 373c ab1b ba3b
00000050: 7928 c53c af85 1d3d bc3c 4e3c e54d 2e3c
00000060: 6532 ad3c d4a6 803c b019 cc39 1690 753b
00000070: 6fb9 113c e178 963c 7558 173c 5b08 3c3c
00000080: 0242 543c c0fa 193c de0c 233c 4527 933b
00000090: 6bf7 a93c 69c4 a63b f467 8e3c 7a66 a23c
000000a0: db25 403c 3ee8 213c 9e7e 703c 5ebe 0b3d
000000b0: 50ba 673c 8cf4 443c 1908 053a 58ee bd3c
000000c0: 5988 413c cb97 fa3c 40a0 bf3c 07bb 0a3b
000000d0: d7da c63b bdaa c03b 753a 123d 6442 323c
000000e0: 6b45 083c 3a55 f13b 4155 373c 9385 213c
000000f0: 95fb 203c 1004 883b 1fc1 8c3c b35f 023c

fc1.weight f4 [64, 64]
-0.09323989 0.1042956 -0.061764833 0.03148183 -0.096808665 -0.1470719 0.20487264 0.03114554
0.007906349 -0.19563763 -0.0029843498 0.027344052 -0.045227382 0.16204163 -0.10273708 -0.03023913
-0.42447317 -0.22814678 -0.14099745 -0.07135592 0.018765688 -0.036168206 0.048595387 0.044903286
0.39675266 -0.19580033 -0.2484199 0.1463849 -0.000733267 -0.12568283 0.18607664 0.065358944
-0.1306151 -0.17461634 0.009602625 0.0904542 -0.11115792 0.14373025 -0.019727878 0.17228092
-0.073460825 -0.17090246 0.011201081 0.1633339 -0.015329711 0.023653787 -0.21787658 -0.08275653
-0.19899078 0.042918622 -0.10248132 -0.3819922 0.15877683 -0.36326122 -0.19226797 0.21144821
-0.11224184 0.025099436 0.21792294 -0.060637556 -0.124818675 -0.15712169 -0.06103325 0.1679539
0.011414019 0.023825549 -0.110736765 -0.074193776 0.0006209076 0.27364716 -0.11973579 -0.39416772
0.0041168653 0.16197407 0.17673554 0.13707414 0.022019582 -0.12108836 -0.00218998 0.19594304
0.2151396 0.03453935 0.23950668 0.016476907 0.224734 0.052683298 0.13176635 -0.15640326
-0.061376043 0.16138186 0.059858143 0.027842607 0.07768388 0.036847215 -0.057053663 -0.37190717
0.06087788 0.21676469 -0.07259666 0.082608484 0.3424598 -0.08831075 0.30862933 -0.18805933
0.23103486 0.00944974 -0.09490797 -0.083606645 -0.03352016 -0.07866094 -0.09836917 -0.026340753
0.22469574 0.051861554 -0.07941954 -0.08885252 0.012783593 -0.09056774 0.16441453 -0.17052613
-0.0470031 0.18810174 -0.30229008 -0.12175973 0.05293299 -0.013744761 -0.12820223 0.24788623
0.11277229 0.10473687 0.06372361 -0.06889227 0.11095599 -0.11662959 -0.05804229 0.10037568
-0.14201331 -0.12512787 -0.15750283 -0.010003427 -0.17370416 -0.07511907 -0.03309937 -0.10723286
0.10131122 -0.14949276 -0.085165955 -0.021339832 -0.18130529 -0.28400385 0.024999605 -0.14778669
-0.025120733 -0.2443474 -0.17602827 0.017566182 -0.07761227 -0.12561895 -0.04782965 -0.03462005
0.04107377 0.10932081 0.037734915 -0.13421342 -0.15389611 0.041547425 0.1787919 -0.06305643
-0.16442342 0.22547126 -0.17535968 0.20860127 0.14626509 0.341296 -0.23470171 -0.14770292
-0.07556113 -0.07978747 -0.16743101 -0.2765454 -0.2409896 0.4771965 -0.008592441 -0.15543757
0.08008624 -0.11845986 0.07245654 0.07230959 -0.36607876 -0.015353834 0.085898034 -0.07384054
0.0832392 0.051570784 -0.30841216 -0.07328344 0.017903903 -0.13430688 -0.7243931 -0.15914719
0.15092549 -0.18334092 -0.008792391 0.20626912 -0.078115836 0.093547 0.15180144 -0.01783657
-0.018169941 0.24918948 -0.10291943 0.053715475 -0.054315887 0.07922954 0.11547939 0.18296637
0.10727017 -0.1454798 -0.13967094 0.3101143 0.3168564 0.0076138186 -0.10953374 0.110429525
-0.06394322 -0.043535855 -0.1824696 0.06991749 -0.06392857 -0.076641634 -0.045122147 -0.03617913
-0.3096722 -0.05650453 -0.09061306 0.080800496 -0.16719785 -0.034252975 0.16373459 -0.046519447
-0.068249695 -0.062457073 0.11622649 0.038378496 -0.20907314 0.061541602 0.18337591 0.18622795
0.0015114719 -0.25513598 -0.09977183 -0.007405364 -0.023177024 -0.096340455 0.2397235 -0.0015461553
00000000: 8ef4 bebd ee98 d53d 1ffd 7cbd 17f3 003d
00000010: 9f43 c6bd 049a 16be 22ca 513e ee24 ff3c
00000020: a289 013c 3b55 48be 1595 43bb a200 e03c
00000030: 5940 39bd 3eee 253e d167 d2bd 0db8 f7bc
00000040: 8c54 d9be 4f9f 69be a361 10be 0d23 92bd
00000050: 80ba 993c 1d25 14bd f50b 473d 82ec 373d
00000060: 2a23 cb3e e27f 48be c961 7ebe ece5 153e
00000070: b738 40ba 00b3 00be e08a 3e3e e9da 853d
00000080: f7bf 05be a0ce 32be 5454 1d3c 0d40 b93d
00000090: c3a6 e3bd 062e 133e 5c9c a1bc 696a 303e
000000a0: a172 96bd 0e01 2fbe bd84 373c 0041 273e
000000b0: 7829 7bbc 96c5 c13c 0a1b 5fbe 417c a9bd
000000c0: 3dc4 4bbe 70cb 2f3d bae1 d1bd 7b94 c3be
000000d0: 6596 223e 60fd b9be e5e1 44be e185 583e
000000e0: 0ddf e5bd 559d cd3c 3127 5f3e 165f 78bd
000000f0: efa0 ffbd 82e4 20be 00fe 79bd 1bfc 2b3e
00000100: de01 3b3c cc2d c33c f5c9 e2bd e8f2 97bd
00000110: 67c4 223a 7b1b 8c3e 0a38 f5bd 5ad0 c9be
00000120: c5e6 863b 88dc 253e 29fa 343e 2a5d 0c3e
00000130: 6962 b43c 2dfd f7bd c485 0fbb 4ba5 483e
00000140: 8e4d 5c3e 2279 0d3d 3d41 753e 94fa 863c
00000150: ab20 663e 71ca 573d c2ed 063e 2d28 20be
00000160: 7265 7bbd 4941 253e d02d 753d 2e16 e43c
00000170: ba18 9f3d 1bed 163d 1ab1 69bd 9e6a bebe
00000180: 155b 793d 90f7 5d3e 8fad 94bd a32e a93d
00000190: e456 af3e 44dc b4bd aa04 9e3e a092 40be
000001a0: 6794 6c3e 15d3 1a3c 1c5f c2bd f639 abbd
000001b0: 6f4c 09bd fd18 a1bd c775 c9bd 90c8 d7bc
000001c0: a416 663e c86c 543d b6a6 a2bd 4ff8 b5bd
000001d0: 4672 513c 947b b9bd 485c 283e 679e 2ebe
000001e0: 5386 40bd be9d 403e c4c5 9abe 2a5d f9bd
000001f0: 43d0 583d b531 61bc 7247 03be e3d5 7d3e
00000200: 29f5 e63d 4980 d63d 8681 823d 6417 8dbd
00000210: e53c e33d 7fdb eebd c1bd 6dbd c491 cd3d
00000220: f06b 11be 8521 00be 6c48 21be 6ae5 23bc
00000230: 81df 31be 07d8 99bd 3493 07bd e79c dbbd
00000240: 427c cf3d a114 19be 7d6b aebd dfd0 aebc
00000250: 18a8 39be f468 91be f9cb cc3c 6555 17be
00000260: ffc9 cdbc 3436 7abe c140 34be f4e6 8f3c
00000270: 2ff3 9ebd 41a2 00be 06e9 43bd c1cd 0dbd
00000280: f83c 283d 97e3 df3d ed8f 1a3d 3e6f 09be
00000290: f196 1dbe a22d 2a3d 3915 373e bb23 81bd
000002a0: 9d5e 28be f0e1 663e 7d91 33be 929b 553e
000002b0: 84c6 153e 59be ae3e a555 70be 6f3f 17be
000002c0: cbbf 9abd 9d67 a3bd 0973 2bbe 5c97 8dbe
000002d0: fac5 76be 1a53 f43e 4fc7 0cbc 072b 1fbe
000002e0: 4104 a43d 159b f2bd 1864 943d 0d17 943d
000002f0: ad6e bbbe a68e 7bbc 4feb af3d b639 97bd
00000300: 5079 aa3d e33b 533d 33e8 9dbe a115 96bd
00000310: 35ab 923c be87 09be d471 39bf 7bf7 22be
00000320: 368c 1a3e b9bd 3bbe f60d 10bc 3638 533e
00000330: 32fb 9fbd 9295 bf3d d671 1b3e 001e 92bc
00000340: 21d9 94bc 872b 7f3e 6cc7 d2bd c204 5c3d
00000350: 567a 5ebd 1943 a23d 7580 ec3d 895b 3b3e
00000360: 76b0 db3d a8f8 14be e605 0fbe 4dc7 9e3e
00000370: 013b a23e 577d f93b 3a53 e0bd e028 e23d
00000380: aaf4 82bd a752 32bd 50d9 3abe e730 8f3d
00000390: fbec 82bd 4af6 9cbd 00d2 38bd 9130 14bd
000003a0: 5b8d 9ebe 4b71 67bd 5793 b9bd bb7a a53d
000003b0: ea35 2bbe d94c 0cbd 0aaa 273e 2d8b 3ebd
000003c0: 7fc6 8bbd fdd2 7fbd 2708 ee3d c532 1d3d
000003d0: 4517 56be 0c13 7c3d e5c6 3b3e 8ab2 3e3e
000003e0: 951c c63a 2fa1 82be 2c55 ccbd b2a8 f2bb
000003f0: bedd bdbc 254e c5bd 147a 753e 5da8 caba

fc1.bias f4 [64]
0.052600183 -0.17251149 0.93172467 0.006300017 -0.22686748 -0.12982821 -0.0027004 -0.1623793
-0.2842603 0.27423257 0.13000266 -0.24357402 0.059882827 0.09200883 -0.207762 0.20587692
-0.08359064 -0.033895645 0.09753739 -0.01974009 0.22549373 -0.111032955 0.23749095 0.11538616
0.20030777 0.21181902 0.1223494 -0.021847285 -0.031116255 -0.062171306 0.03620795 0.032058336
0.048943955 -0.26647374 0.052813344 0.03684962 0.037264448 0.23350091 0.16872151 -0.1211621
0.23857935 -0.2968561 0.10218752 0.104995266 -0.28103486 -0.05457984 -0.28911847 0.2287229
0.17295615 0.14076328 -0.054193433 0.19432189 -0.1812401 0.15266636 0.04083325 0.020137424
-0.26753932 -0.26021957 -0.035433017 -0.06296422 -0.32351592 0.1300853 0.09765787 0.075732686
00000000: 4a73 573d daa6 30be 8285 6e3f 5f70 ce3b
00000010: f34f 68be b0f1 04be 32f9 30bb c246 26be
00000020: 918a 91be 3668 8c3e 6b1f 053e 786b 79be
00000030: b247 753d 206f bc3d 90bf 54be 66d1 523e
00000040: 9231 abbd 29d6 0abd afc1 c73d f8b5 a1bc
00000050: d4e7 663e 3f65 e3bd d430 733e 944f ec3d
00000060: 7b1d 4d3e 16e7 583e 5292 fa3d 14f9 b2bc
00000070: 84e7 febc 57a7 7ebd ca4e 143d 9a4f 033d
00000080: 7579 483d 3f6f 88be ce52 583d a1ef 163d
00000090: 9ba2 183d dd1a 6f3e 55c5 2c3e d623 f8bd
000000a0: 254e 743e 86fd 97be b147 d13d c207 d73d
000000b0: cde3 8fbe 1c8f 5fbd 5607 94be 5636 6a3e
000000c0: 6b1b 313e 4024 103e eff9 5dbd 51fc 463e
000000d0: 0197 39be 9254 1c3e c440 273d 3df7 a43c
000000e0: eafa 88be 803b 85be 3622 11bd 63f3 80bd
000000f0: e1a3 a5be 1535 053e d900 c83d bd19 9b3d

bn2.weight f4 [64]
1.0094255 1.0604371 0.9949672 1.1564355 1.0427276 1.194143 1.0039356 1.0918173
1.0064112 0.9852934 1.1905562 1.1237351 1.0074197 1.0418382 1.1962763 1.1759396
1.2016989 1.0657007 0.98106194 1.0839151 1.0808946 1.0256836 1.1861168 1.1769835
1.1353811 1.2502872 1.1471373 0.9594375 0.85151803 1.0341103 1.2267474 1.1497574
1.0369649 1.0607947 1.2630568 1.2715569 1.1695067 1.2828377 1.1201438 1.1443986
1.1280144 1.2183204 1.0683959 1.1505848 1.0668097 0.9938074 1.0368841 1.1072549
1.2929987 1.1320347 1.1992073 1.1874893 0.9827002 1.0461723 1.1985409 1.0915256
1.0317333 1.1122198 1.1978441 1.1244802 1.089268 1.0496743 1.0835935 1.0622753
00000000: db34 813f 67bc 873f 2cb6 7e3f 1406 943f
00000010: 1978 853f aed9 983f f680 803f abc0 8b3f
00000020: 15d2 803f 303c 7c3f 2564 983f 8dd6 8f3f
00000030: 21f3 803f f45a 853f 951f 993f 3085 963f
00000040: 45d1 993f e168 883f e026 7b3f bbbd 8a3f
00000050: c15a 8a3f 9a49 833f add2 973f 65a7 963f
00000060: 2b54 913f 6909 a03f 65d5 923f b29d 753f
00000070: 16fd 593f ba5d 843f 0f06 9d3f 402b 933f
00000080: 44bb 843f 1fc8 873f d8ab a13f 60c2 a23f
00000090: 65b2 953f 0734 a43f df60 8f3f a77b 923f
000000a0: c762 903f ecf1 9b3f 32c1 883f 5d46 933f
000000b0: 388d 883f 296a 7e3f 9eb8 843f 87ba 8d3f
000000c0: fb80 a53f 83e6 903f a07f 993f a6ff 973f
000000d0: 3e92 7b3f f9e8 853f ca69 993f 1cb7 8b3f
000000e0: d60f 843f 385d 8e3f f552 993f f8ee 8f3f
000000f0: 226d 8b3f ba5b 863f 31b3 8a3f a3f8 873f

bn2.bias f4 [64]
-0.0062751574 -0.0061186855 -0.0073556933 -0.0065332227 -0.004907345 -0.0061661676 -0.008442898 -0.008938081
-0.008341612 -0.008498161 0.00958286 -0.0013624756 -0.0060656727 0.007939455 -0.00893155 -0.0077179805
0.0069281957 -0.0043374943 -0.0079358565 -0.006218282 -0.005631414 -0.009073101 -0.0077930647 -0.0070602195
-0.0067257476 -0.019649282 0.0067952448 -0.005303628 0.003168363 -0.0065679597 0.00850326 0.010774849
0.007335115 -0.0066894256 0.007328837 0.009459492 -0.0055959527 0.00741809 -0.012457349 0.005020144
-0.005602903 -0.006775898 -0.00910197 -0.006308736 0.0067285066 0.011214163 -0.017711733 -0.005760554
0.0058533526 0.008619076 -0.008234163 0.007387698 -0.0035560848 -0.0050920774 0.004332426 0.0070184516
-0.0025404072 0.0076101795 0.0075209434 0.008472767 0.0064372024 -0.0081981225 0.008581244 -0.008377994
00000000: d69f cdbb 417f c8bb 0708 f1bb a514 d6bb
00000010: cbcd a0bb 900d cabb 1554 0abc 0771 12bc
00000020: 42ab 08bc df3b 0bbc 6e01 1d3c 1895 b2ba
00000030: 8dc2 c6bb 7d14 023c a355 12bc 1de7 fcbb
00000040: eb05 e33b 8a21 8ebb 6505 02bc bbc2 cbbb
00000050: b987 b8bb 58a7 14bc f75c ffbb 6a59 e7bb
00000060: a963 dcbb 88f7 a0bc a5aa de3b 0eca adbb
00000070: 4fa4 4f3b 0a38 d7bb 4251 0b3c fe88 303c
00000080: 685b f03b f832 dbbb be26 f03b fcfb 1a3c
00000090: 415e b7bb 7313 f33b e919 4cbc 0580 a43b
000000a0: 8f98 b7bb 5a08 debb 6e20 15bc 83b9 cebb
000000b0: ce7a dc3b 9cbb 373c 3218 91bc 08c3 bcbb
000000c0: 7bcd bf3b 0637 0d3c 95e8 06bc 8114 f23b
000000d0: 340d 69bb 71db a6bb 06f7 8d3b 0afb e53b
000000e0: f67c 26bb d05e f93b 3f72 f63b 5cd1 0a3c
000000f0: 2bef d23b 6b51 06bc 5998 0c3c db43 09bc

bn2.running_mean f4 [64]
0.12844372 0.08985625 0.8513648 0.16975443 0.038723204 0.17350681 0.13081983 0.061862517
0.025322735 0.20457424 0.2040599 0.004114751 0.10931443 0.12418535 0.13175653 0.31213742
0.108575426 0.11269954 0.14414842 0.16609755 0.30771777 0.06879064 0.26979604 0.32246715
0.2668808 0.3234485 0.20866464 0.032536477 0.03015942 0.11325711 0.16045745 0.09640904
0.10392367 0.05137019 0.1359178 0.17991555 0.11444044 0.3003661 0.18244092 0.078105345
0.23669046 0.06396942 0.16943671 0.21319428 0.00047943502 0.03410079 0.0375349 0.32886782
0.37416884 0.23025113 0.21589175 0.28928256 0.02850652 0.13469943 0.16411997 0.11317871
0.0060767303 0.051749263 0.118979 0.08538379 0.012303319 0.15698278 0.09983494 0.16401073
00000000: c086 033e 8e06 b83d 0bf3 593f 1bd4 2d3e
00000010: 399c 1e3d c5ab 313e a2f5 053e 8d63 7d3d
00000020: a071 cf3c e97b 513e 14f5 503e 08d5 863b
00000030: 3ee0 df3d e454 fe3d 2feb 063e 7ad0 9f3e
00000040: cb5c de3d 04cf e63d a59b 133e 7a15 2a3e
00000050: 2f8d 9d3e 1be2 8c3d b522 8a3e 6a1a a53e
00000060: 9aa4 883e 0b9b a53e 2fac 553e f844 053d
00000070: e310 f73c 58f3 e73d f54e 243e 1a72 c53d
00000080: efd5 d43d 8c69 523d 092e 0b3e c83b 383e
00000090: c05f ea3d 96c9 993e cbd1 3a3e b2f5 9f3d
000000a0: fc5e 723e 6602 833d d180 2d3e 9a4f 5a3e
000000b0: ae5c fb39 45ad 0b3d 32be 193d 5d61 a83e
000000c0: 0f93 bf3e f4c6 6b3e ba12 5d3e d81c 943e
000000d0: 8186 e93c a6ee 093e 110f 283e 3dca e73d
000000e0: 4f1f c73b 09f7 533d 43ab f33d b2dd ae3d
000000f0: dc93 493c 18c0 203e 4376 cc3d 6ef2 273e

bn2.running_var f4 [64]
0.03582197 0.026071738 0.0324619 0.06806738 0.0069650677 0.05560629 0.025372786 0.013047458
0.005022279 0.024039852 0.045780808 0.0005892759 0.023009872 0.025947614 0.046614412 0.07264838
0.03585915 0.023902752 0.03152843 0.050184764 0.07590816 0.0129869785 0.06079434 0.08096865
0.063726634 0.1161119 0.03654573 0.004134461 0.0045838733 0.039778102 0.037937578 0.021821912
0.014475219 0.01412503 0.046946485 0.04451878 0.03634693 0.08901865 0.041382853 0.020737324
0.056570493 0.021600759 0.03983895 0.0559297 2.807082e-05 0.006604475 0.010068896 0.077563524
0.112689815 0.048199218 0.051245682 0.0655125 0.005794365 0.029108632 0.02620713 0.026426671
0.0008233987 0.0130025465 0.042922348 0.024671074 0.0016311739 0.037442174 0.015136094 0.024935283
00000000: 0fba 123d 6694 d53c c5f6 043d e966 8b3d
00000010: 393b e43b 6cc3 633d 97da cf3c 01c5 553c
00000020: ee91 a43b 39ef c43c a884 3b3d a379 1a3a
00000030: 337f bc3c 1790 d43c c1ee 3e3d adc8 943d
00000040: 0be1 123d b4cf c33c f423 013d 8a8e 4d3d
00000050: bd75 9b3d 56c7 543c 7c03 793d e4d2 a53d
00000060: 1c83 823d 13cc ed3d fab0 153d 5f7a 873b
00000070: 5134 963b 5dee 223d 6f64 1b3d dec3 b23c
00000080: 7829 6d3c ab6c 673c f54a 403d 5359 363d
00000090: 85e0 143d 694f b63d 1181 293d 52e1 a93c
000000a0: 76b6 673d 13f4 b03c 2b2e 233d 8b16 653d
000000b0: a079 eb37 5a6a d83b 03f8 243c a0d9 9e3d
000000c0: ebc9 e63d 8b6c 453d fee6 513d 6b2b 863d
000000d0: a8de bd3b 3a75 ee3c 56b0 d63c bf7c d83c
000000e0: 5ad9 573a a208 553c 58cf 2f3d fe1a ca3c
000000f0: 1dcd d53a f75c 193d 61fd 773c 1445 cc3c

fc2.weight f4 [1, 64]
-0.13171095 -0.16038859 -0.11725471 -0.24274482 -0.096075825 -0.22382346 -0.15325823 -0.13617031
-0.09440435 -0.15049417 0.30940822 -0.14484802 -0.10670213 0.18302982 -0.23800413 -0.2103527
0.29385224 -0.14089875 -0.11662716 -0.19059458 -0.16887617 -0.121029176 -0.24939765 -0.29761928
-0.19744399 0.32714486 0.24935478 -0.10662997 -0.06418009 -0.1674429 0.30472872 0.24278796
0.15775886 -0.14052577 0.35663137 0.30419877 -0.2883368 0.34339425 -0.14681526 0.1967605
-0.2763723 -0.31042132 -0.11817009 -0.2519079 0.13133177 0.11501292 0.129732 -0.22681604
0.39508852 0.26449433 -0.2531554 0.31676722 -0.12496253 -0.14230855 0.23455739 0.21937543
-0.12475359 0.23548065 0.2849681 0.2256453 0.12633337 -0.12329034 0.2148472 -0.122881465
00000000: 3cdf 06be e83c 24be 3d23 f0bd 1992 78be
00000010: 67c3 c4bd fa31 65be baef 1cbe 3b70 0bbe
00000020: 1157 c1bd 251b 1abe c16a 9e3e 0a53 14be
00000030: a586 dabd 2b6c 3b3e 5bb7 73be b366 57be
00000040: cd73 963e c347 10be 38da eebd 3a2b 43be
00000050: e0ed 2cbe 25de f7bd 1962 7fbe 8e61 98be
00000060: c22e 4abe 887f a73e dc56 7f3e d060 dabd
00000070: da70 83bd 2776 2bbe 6705 9c3e 689d 783e
00000080: 8a8b 213e fde5 0fbe 6398 b63e f1bf 9b3e
00000090: e2a0 93be 5fd1 af3e bd56 16be 967b 493e
000000a0: ac80 8dbe 8bef 9ebe 2903 f2bd 13fa 80be
000000b0: d67b 063e e58b eb3d 77d8 043e 7742 68be
000000c0: 0b49 ca3e cd6b 873e 969d 81be 502f a23e
000000d0: 5bec ffbd 55b9 11be d02f 703e f4a3 603e
000000e0: cf7e ffbd d721 713e 57e7 913e 900f 673e
000000f0: 895d 013e a57f fcbd e800 5c3e 47a9 fbbd
